best_model.pth (torch, 982306 bytes, 77 tensors)

lstm.weight_ih_l0 f4 [256, 1]
000000 cd f8 20 3c a1 44 0e 3c 56 0b 21 b9 56 95 4c 3c
       0.009824944 0.008683355 -0.0001535838 0.012486776
000010 11 75 08 bc ac 5a 29 3a 4b 2e 0c b9 71 55 2d ba
       -0.008328692 0.00064603495 -0.00013368686 -0.0006612158
000020 82 ca 84 3b af 07 f3 bb f0 31 84 3d 3f 13 9c ba
       0.004052461 -0.0074166874 0.06454837 -0.0011907591
000030 e0 23 b3 3c 11 d6 a7 ba e7 b4 e2 3c ad 31 37 ba
       0.021867692 -0.0012804886 0.027674152 -0.0006988298
000040 da d5 4a 3c e7 76 86 3c d6 50 c2 37 e0 47 ba 3b
       0.012380088 0.016414119 2.3164244e-05 0.0056848377
000050 96 5e 39 bb 0f 7e c2 3a 5f 37 3b bc 60 95 72 ba
       -0.0028285137 0.0014838594 -0.011426776 -0.0009253826
000060 db 42 a3 bc 43 e3 c0 ba de 55 34 bc b4 e5 46 bb
       -0.01992934 -0.0014716167 -0.0110068 -0.0030349316
000070 39 c8 80 3a 07 e8 d3 bc 67 84 74 3b f4 2e c9 bc
       0.0009825296 -0.025867475 0.0037310363 -0.024558522
000080 17 2e 1b 3c b9 8a 87 3b 32 8e f8 b8 b4 41 4d 3c
       0.009471438 0.00413641 -0.000118520475 0.012527872
000090 08 8d 88 39 9a 7b 37 3b ce 46 0e 3b 71 52 67 38
       0.00026045018 0.0027997256 0.0021709683 5.515147e-05
0000a0 68 6f 8b ba 21 d5 83 bc b6 72 07 3b 12 65 82 3c
       -0.001063806 -0.016092839 0.0020667738 0.015917335
0000b0 fa e1 41 3c 38 a8 b6 bb 6a db d9 3c 07 7d 06 3c
       0.011833662 -0.0055742525 0.026593883 0.00820852
0000c0 d8 b3 a9 ba e5 96 86 bc 3f 94 c7 bc 2e 64 bc bc
       -0.0012947274 -0.016429374 -0.024362681 -0.022996988
0000d0 05 db 1a bc 1f 7a 35 3b 68 c1 e7 b9 36 1e 88 3b
       -0.009451632 0.0027691198 -0.00044203852 0.004153992
0000e0 93 e0 c4 3b c2 53 6f 39 b5 a3 dd 3b 71 75 9a bb
       0.0060082166 0.00022824018 0.0067639 -0.004713707
0000f0 da 7a 8f 37 45 cb 5e bc 91 29 98 b9 c1 90 f2 bb
       1.7104136e-05 -0.013598268 -0.0002902267 -0.00740251
000100 e5 1a 84 3b 79 cb 31 3b f9 e3 8f 3b 87 d2 48 ba
       0.0040315264 0.0027129336 0.00439119 -0.00076607656
000110 d2 b9 be bc 90 16 09 ba 60 9e bf 3b 1e 4b a8 ba
       -0.023281965 -0.00052294973 0.005847737 -0.001283977
000120 79 b9 c3 3b 3e df 03 bc 2f b9 60 bd a7 2f b5 bb
       0.005973038 -0.008048831 -0.054864105 -0.0055293622
000130 35 b1 af bc 31 60 86 ba 64 0a 86 3c 56 bb 26 3c
       -0.021446804 -0.0010252056 0.016362377 0.0101765
000140 0f 0f c3 b8 c9 e5 e5 bc 6f 55 38 3a ef 39 2c b9
       -9.3011295e-05 -0.028063672 0.00070317736 -0.0001642478
000150 19 6f 1e ba be 17 9a 3a db 32 ac 3c bc 60 b6 bb
       -0.00060437765 0.0011756343 0.021020344 -0.005565731
000160 12 e9 09 bc 6d 84 0a ba 65 23 36 3a 12 1d ae ba
       -0.008417385 -0.0005284015 0.0006948023 -0.001328381
000170 19 9a 35 3c 39 0b 24 3c bd ab d8 b9 f1 b9 33 bc
       0.011084103 0.010012441 -0.00041326685 -0.010969625
000180 ea 5b 64 3c 8b 4c 0f bc 94 ab cd b8 73 41 e7 bc
       0.01393793 -0.008746277 -9.807121e-05 -0.02822945
000190 ff ee 6b 39 a1 8c d2 3a ce c3 fa bb d8 5b da ba
       0.0002250038 0.0016063639 -0.0076527363 -0.0016659452
0001a0 51 04 6d ba 49 29 1d bd 18 60 1e bc 89 51 1c bc
       -0.0009041476 -0.03836945 -0.009666465 -0.009540924
0001b0 52 64 8c bc 97 9f fe bb e3 c7 4a 3d e2 9a 99 3b
       -0.01713768 -0.0077704894 0.049507033 0.004687653
0001c0 91 32 be ba a4 4a c5 bc d0 62 19 bc a7 1e 87 bc
       -0.001451092 -0.024083443 -0.009361938 -0.016494108
0001d0 ef 95 25 ba 1b 1c 45 bb 04 7b 1c ba 05 42 44 bb
       -0.00063165923 -0.0030076567 -0.00059692585 -0.0029946577
0001e0 5e bb 01 3a ad b4 e6 37 8f d5 3a bb 83 e2 06 bb
       0.00049488794 2.750227e-05 -0.0028508638 -0.002058179
0001f0 35 0b ed b9 4a 6c b8 bb b2 04 89 b9 12 d1 5a bc
       -0.00045212512 -0.0056281434 -0.00026134175 -0.01335551
000200 d7 71 51 3d 99 4f 0e 3a 4c 8c b1 3d 04 20 18 3d
       0.051133957 0.0005428731 0.08669338 0.037139907
000210 b3 76 c6 bd d9 21 bd 3d be f6 e3 bb da 21 f9 bc
       -0.09690609 0.092349716 -0.006956904 -0.03041165
000220 5f bf 80 bd 84 f1 eb bd a7 37 ca 3c 51 5f 09 bd
       -0.06286501 -0.11520675 0.02468474 -0.033538166
000230 dc 22 51 3d 04 10 6f bd 4d 2c b6 3d 1b c0 a4 bd
       0.051058635 -0.058364883 0.088951685 -0.08044454
000240 c2 e3 44 bc df 7d 46 3c fc 47 74 3d 80 3a c9 3d
       -0.012017192 0.012114971 0.059638962 0.09825611
000250 3f ef ef 3d fb ec be bd 49 28 98 3c 51 b7 41 bd
       0.117155544 -0.09322544 0.018573897 -0.047293965
000260 64 43 b9 bb 46 1a 9d bd df e2 ca 3d 96 a8 a3 bd
       -0.0056537855 -0.07671027 0.099065535 -0.079911396
000270 0a a9 57 3d 28 df 04 3d ab 25 16 3d 67 fa 7d bd
       0.052651443 0.03243938 0.036657017 -0.06200638
000280 70 c7 f0 3d 83 80 bb 3c 69 51 8c 3c 51 25 f0 bd
       0.1175679 0.022888428 0.017128663 -0.117258675
000290 ba e1 64 3d 47 fa 22 bd 4d 69 7c bd c7 d8 bf 3d
       0.055879332 -0.039789464 -0.06162386 0.09367519
0002a0 5f 22 a4 3c fa 4c 7d bd d8 e8 7a bd a1 09 cf bb
       0.02003592 -0.06184099 -0.061257213 -0.0063182865
0002b0 f8 03 85 3d 51 fc 95 bc e8 2b 9d bd 48 e1 41 bd
       0.064948976 -0.01830879 -0.0767439 -0.047333986
0002c0 4b cf cb bd 32 83 28 3d 74 8a ad 3d 9f c2 e6 bd
       -0.09951647 0.041140743 0.084736735 -0.1126759
0002d0 1d 79 d1 3c 3a 6d 86 3d bd 1a 59 3c 1f 16 44 bd
       0.025570447 0.06563802 0.013251004 -0.04787266
0002e0 2b ff 84 3d 9d ac a5 3d db 0d 05 3d 90 9b 96 bc
       0.06493982 0.08089564 0.032483917 -0.018384725
0002f0 61 3c 00 bd 8b 10 fd 3c b6 95 a0 bb df d5 96 bc
       -0.03130758 0.030891677 -0.0049006594 -0.018412529
000300 2c 7e e8 3b e2 83 1c 3c 4a 30 4b b9 0e 5d 23 39
       0.007095119 0.009552928 -0.00019377578 0.00015579557
000310 81 dd 27 3b c5 bd 0c 3a 43 24 16 b9 da 19 ba ba
       0.0025614204 0.0005368854 -0.00014318623 -0.0014198378
000320 9d c7 63 bb 05 94 3e bb 70 c5 6b 3d 50 21 a8 b9
       -0.003475643 -0.0029079926 0.057561338 -0.00032068277
000330 d9 ab da bb 52 f0 1f bb af 4e 08 bd 61 08 4e bc
       -0.006673318 -0.0024404717 -0.033278164 -0.01257524
000340 26 a6 46 3a a8 fa e1 3c 01 cf 13 3b 8d 4f 0c 3c
       0.00075778586 0.027585343 0.0022553804 0.008563888
000350 ca 6f 25 bc 37 87 90 ba 2b c9 1a ba 8b a6 cc 3b
       -0.010097453 -0.0011026625 -0.000590461 0.0062454394
000360 27 72 76 3a bc 66 63 ba 81 48 02 3c 29 93 e6 ba
       0.00094011653 -0.00086746714 0.007951857 -0.0017591465
000370 28 25 64 bc c5 d5 74 3c ad e4 95 35 a6 b2 98 bb
       -0.013924874 0.014943545 1.1167919e-06 -0.0046599684
000380 8f 4f d3 bc 7a 2b b4 3c 34 f7 97 3a 39 7e b0 3b
       -0.025794772 0.021993387 0.0011594058 0.0053861407
000390 3b c6 52 ba fc 05 f2 bb 55 c3 2c bd 97 17 7c 3b
       -0.0008040403 -0.0073859673 -0.04217847 0.003846621
0003a0 09 ca 8a ba 13 af 54 3d 63 e5 83 3b ba a2 fe 39
       -0.0010588776 0.051924776 0.0040251478 0.00048567896
0003b0 b2 ef 40 3a bc 58 7d bc db 26 6b bd 93 e5 13 bd
       0.0007359936 -0.01546305 -0.057410102 -0.03610761
0003c0 56 b3 d9 ba 8b e3 43 bc 2d b3 65 bb 04 d0 05 bd
       -0.0016609232 -0.011956106 -0.0035049424 -0.032669082
0003d0 9e b5 a4 ba e0 3c 03 ba d5 04 94 ba 8e c1 25 3b
       -0.0012566333 -0.00050063245 -0.0011292944 0.002529237
0003e0 8c 52 a1 bb 27 1d b1 39 a6 35 9e bb 00 40 88 bb
       -0.0049231704 0.0003378179 -0.0048281727 -0.00415802
0003f0 e6 e3 ad 37 57 cf b7 bb 8a 94 9c b9 97 d0 c8 bc
       2.072933e-05 -0.0056094336 -0.0002986531 -0.024513526

lstm.weight_hh_l0 f4 [256, 64]
000000 e3 07 9d 3b c9 b1 4d bb 5b 22 ba 38 15 43 65 38
       0.0047922 -0.0031386486 8.87557e-05 5.466033e-05
000010 51 5a 16 3c 97 fc 58 ba b1 13 fb 3a 84 30 3f ba
       0.009176807 -0.0008277385 0.0019155649 -0.0007293301
000020 42 12 25 b9 04 cd f6 3b 3c 21 6b ba 75 61 01 b9
       -0.00015742428 0.007531764 -0.0008969491 -0.00012338704
000030 50 f7 27 bb b4 19 29 bc 58 93 44 3b ba ac f0 bb
       -0.0025629587 -0.0103210695 0.002999505 -0.0073448094
000040 c0 81 78 3b 0b 40 b4 3c 42 38 cf 3b a2 66 12 39
       0.0037919134 0.022003194 0.006323845 0.00013961879
000050 cc 8c 84 bb 1e 25 2c b9 28 a9 de 3b 0b 77 23 bc
       -0.0040451046 -0.00016417025 0.0067950673 -0.0099771125
000060 3b b5 4a bb 90 46 9a ba 55 8c 58 38 8f 30 9e b9
       -0.0030930776 -0.0011770297 5.1629107e-05 -0.00030172287
000070 ad 4e 0f ba 6c 27 72 b9 8e d1 98 bb de 2f 94 3b
       -0.00054667407 -0.00023093604 -0.0046636527 0.004522308
000080 9f da d8 3b e0 2e 79 ba 7c c9 a9 b6 c1 70 3c bb
       0.0066178585 -0.0009505581 -5.0600484e-06 -0.002875373
000090 83 1a 81 bb ab 8d fc bb 31 67 9f 3a b4 9e 26 39
       -0.003939928 -0.007707318 0.0012161491 0.00015890115
0000a0 ac 8a 50 b9 a6 5b e3 ba bc ca 29 b9 56 b1 fe ba
       -0.00019888085 -0.0017346039 -0.0001619262 -0.0019431512
0000b0 ca bd ac 38 91 b0 aa ba 66 73 04 bc c1 b2 36 bc
       8.23695e-05 -0.0013022592 -0.008084154 -0.011151017
0000c0 5b 3c c8 bb e3 28 25 3c 7b a3 a3 bb c6 18 ba 3a
       -0.0061107106 0.010080549 -0.0049938536 0.0014198057
0000d0 b1 b3 90 b8 3e 5b a5 38 7c 5a 96 3b bf 6c 8c 39
       -6.899925e-05 7.884808e-05 0.0045884233 0.00026783903
0000e0 4e 1c 97 bc 56 e8 2b 39 86 fd 50 3c 9c 6c ce 38
       -0.018446114 0.00016394383 0.012755757 9.8430755e-05
0000f0 ce 25 86 39 f3 ca b3 3c 73 72 5b b8 2a bc ad 39
       0.00025586638 0.02194736 -5.2320258e-05 0.00033137324
000100 9e aa 41 bb 24 62 20 b8 f5 71 69 3a 66 58 f7 37
       -0.0029551159 -3.8238373e-05 0.00089052255 2.9485858e-05
000110 19 ec 2e bb eb 94 ba ba ff a4 7c ba 66 b8 1e bc
       -0.0026691018 -0.0014235055 -0.00096376234 -0.009687519
000120 9d 56 a6 ba 66 38 2b b9 46 3a 8b 3b 19 1a 94 b8
       -0.0012690608 -0.00016328841 0.00424889 -7.062051e-05
000130 8e de 06 bc bf 9e b3 bb fc 89 3f 3a 56 f6 7e ba
       -0.008231772 -0.0054815705 0.0007306633 -0.0009726038
000140 21 9c ad b8 62 29 b0 3b c2 54 dd 38 39 0d bb 38
       -8.278364e-05 0.005376027 0.000105538886 8.919318e-05
000150 d4 68 53 39 32 78 fe b8 4f ec fa ba 0b e9 a5 bb
       0.0002016158 -0.00012134052 -0.0019143912 -0.0050631813
000160 31 c1 10 bc b6 43 c0 b9 a9 5c 11 3c d1 d7 1d b9
       -0.008835123 -0.00036671542 0.00887219 -0.00015053085
000170 80 07 1a bb 4f 5a 81 b7 93 d5 84 38 50 fc 1a b8
       -0.0023503006 -1.5420052e-05 6.334032e-05 -3.6951446e-05
000180 f5 3b 34 3b ae 40 24 3b 4f 6b d9 bb 0a e0 54 b9
       0.0027501557 0.0025062966 -0.0066351066 -0.00020301357
000190 5a 63 4f 38 b0 80 fe b8 b3 9c dc ba ff 62 a1 3b
       4.9445174e-05 -0.00012135634 -0.0016831368 0.0049251313
0001a0 b2 b3 e0 37 ad ae cf bb 48 7e b4 bb ed 05 cb b8
       2.6786558e-05 -0.0063379616 -0.005508218 -9.680898e-05
0001b0 ab f4 23 39 71 f2 1e b9 d0 b0 94 3a 42 1d 26 bc
       0.00015636037 -0.0001515837 0.0011344198 -0.010138812
0001c0 02 57 f4 bb f3 ae 29 39 4d e3 54 3c 1f 63 fe 3a
       -0.007456661 0.0001618227 0.012993646 0.0019408202
0001d0 fb fc b4 b9 98 20 d3 38 6a 8b 0a ba 59 0d a6 b7
       -0.0003452076 0.00010067335 -0.00052850565 -1.9794958e-05
0001e0 52 56 7a 39 90 93 ec 38 1a 57 ba 3b 2d 8b 02 bc
       0.00023874015 0.000112808426 0.005686653 -0.007967752
0001f0 cc 3b d7 38 96 55 a4 bb 2f c9 8c b7 db 68 cc 3b
       0.00010263137 -0.0050150855 -1.6782984e-05 0.0062380857
000200 77 98 1f b8 80 1c ca 3b dd bb 16 bb 22 85 a3 b7
       -3.8050548e-05 0.0061679482 -0.0023000159 -1.9493109e-05
000210 ed fe f0 3a 57 07 0f b8 45 b1 81 36 8a 51 0e 38
       0.0018386521 -3.4100693e-05 3.8651365e-06 3.3931377e-05
000220 41 15 ff 39 19 92 d7 37 19 f2 84 39 24 90 d0 b6
       0.00048653226 2.569803e-05 0.0002535738 -6.2156632e-06
000230 d6 c1 17 bc a7 cd cf b7 6c 8b a1 38 20 66 7d 37
       -0.009262523 -2.4772087e-05 7.7030476e-05 1.5103753e-05
000240 9a 92 f8 37 eb 4c 14 3c 8a 67 01 37 48 4f 02 b8
       2.963217e-05 0.009051542 7.713106e-06 -3.106825e-05
000250 3d cd a3 b7 02 56 a9 bb e1 31 4a bc df 7f 16 38
       -1.9526686e-05 -0.0051677236 -0.012340994 3.5881876e-05
000260 2d 7e 09 bb 67 5e 2a 37 d6 8c e6 37 30 1e 42 37
       -0.0020979748 1.0154769e-05 2.7483718e-05 1.157033e-05
000270 27 dc 19 3c 21 65 c7 37 b2 09 a4 39 a0 cb 14 38
       0.009390867 2.376974e-05 0.0003128774 3.547559e-05
000280 20 35 38 b8 ac e1 c7 39 eb 30 f9 b8 67 50 25 bb
       -4.3918495e-05 0.00038124376 -0.00011882357 -0.0025224925
000290 ca a1 a0 b7 62 99 9d 37 c5 2f 57 bb a2 ac a3 37
       -1.9148825e-05 1.8787283e-05 -0.003283487 1.9511503e-05
0002a0 57 d6 b4 3a 19 94 84 3a bf c9 c2 b6 07 08 0e bc
       0.0013796788 0.0010114937 -5.805137e-06 -0.008668906
0002b0 35 b6 d6 37 9c c2 fc 38 52 5f 96 3b 55 b6 0f ba
       2.5595635e-05 0.00012052545 0.004589 -0.00054821867
0002c0 61 73 1c 38 40 47 5e 3a be 3f 05 bc 19 e7 23 3b
       3.7300753e-05 0.0008479245 -0.008132873 0.002500957
0002d0 e5 8d a8 37 e3 6f 63 b7 4f 87 13 38 64 1e af 37
       2.0093235e-05 -1.3556305e-05 3.5173547e-05 2.0875777e-05
0002e0 1e a4 0e ba d4 93 e6 39 53 3b b3 37 a4 65 5a 3b
       -0.00054413255 0.0004397916 2.1366088e-05 0.0033324743
0002f0 b2 eb ba 3b 68 19 8a ba 93 9b 42 ba ca ca 85 3b
       0.0057043666 -0.0010536136 -0.0007423695 0.004083012
000300 7c 6e 9e 3b 50 97 15 bb 8f 6d 5d 36 c7 a9 c8 bb
       0.004834948 -0.0022825785 3.2995338e-06 -0.0061237547
000310 31 60 cb bb eb 05 19 37 c4 fe 91 b6 c8 a8 a1 37
       -0.0062065353 9.1208885e-06 -4.3509954e-06 1.927129e-05
000320 b9 9a 37 b6 a1 66 a5 3b f3 00 20 37 2d ae e3 b8
       -2.7359185e-06 0.0050476347 9.536964e-06 -0.00010856646
000330 34 ba 54 b9 1b ca 9e b7 39 e4 2f 39 1b 2c 1c ba
       -0.00020287262 -1.892918e-05 0.0001677432 -0.00059575
000340 9c d0 c0 38 de a4 ba bb 44 83 1c bb f0 5a e0 b8
       9.19413e-05 -0.005695923 -0.0023881951 -0.00010698091
000350 cf b4 e0 3b fa ed 5c 3b a5 63 2b 3c 0d 96 4c 39
       0.0068574916 0.003371118 0.010460769 0.00019510854
000360 26 f8 e5 3b 6f f5 bc 36 f0 98 bc b9 a3 8e 19 37
       0.007018107 5.631409e-06 -0.00035972102 9.152721e-06
000370 5c 03 e6 b9 c2 77 bb ba 06 40 aa 33 e8 2e a6 36
       -0.00043871521 -0.0014302658 7.927888e-08 4.952646e-06
000380 67 cc bb 38 a9 5a 3c ba 40 13 56 37 24 5b 9b 38
       8.954928e-05 -0.000718514 1.2759876e-05 7.407952e-05
000390 07 a2 5f 37 ce 65 48 b9 ee e7 4f 3a c3 03 05 37
       1.3329561e-05 -0.00019111412 0.00079309836 7.928294e-06
0003a0 19 0b 83 3b a8 b0 9f 3c e6 39 22 37 b8 43 79 39
       0.0039991257 0.019493416 9.669433e-06 0.00023771718
0003b0 e0 0c de 37 76 1d 80 38 df 05 88 b9 ff c8 e4 b8
       2.6470458e-05 6.109003e-05 -0.00025944316 -0.00010909326
0003c0 98 42 0f 35 aa 44 19 3c a6 9b 0f ba 8c a9 0d ba
       5.336856e-07 0.00935475 -0.00054782105 -0.00054039876
0003d0 1b db 99 37 ea fe 35 37 d6 bd 86 b7 1b 0a eb 3a
       1.834105e-05 1.08477925e-05 -1.6062444e-05 0.0017932089
0003e0 29 ca fe 3b 06 40 be 36 81 91 4a bb fa 09 af b9
       0.007775564 5.6698946e-06 -0.003090948 -0.00033386034
0003f0 37 94 f0 b5 51 9e 4d b8 eb 65 80 36 e8 86 0a bc
       -1.792453e-06 -4.9023252e-05 3.826562e-06 -0.008455016

lstm.bias_ih_l0 f4 [256]
000000 18 bd 9c 3b 2e ab 31 bd eb e7 56 bd ca 24 0d bd
       0.004783284 -0.04337614 -0.052467268 -0.034458913
000010 bf 65 83 3d 27 da 80 bd ae cc 9c 3d 96 7f 5e bd
       0.06415891 -0.06291609 0.07656227 -0.054320894
000020 58 65 af 3c 4f 40 e4 3d 34 91 61 bd b0 42 93 bd
       0.02141063 0.111450784 -0.055070117 -0.07190454
000030 44 ce 71 bd a6 b0 00 bd 2d 35 9b bd 83 d2 cb bd
       -0.0590346 -0.031418465 -0.07578502 -0.09952261
000040 e9 6c 7e bd 6c 7d 1c bd f0 7e a7 3d 00 69 b6 bc
       -0.062115584 -0.03820555 0.08178508 -0.022266865
000050 fd fd 78 3c 47 8d 19 bd e3 a6 95 3c 45 49 41 3d
       0.015197274 -0.03748825 0.018268054 0.047189016
000060 c5 b1 0a 3d bb c4 61 bc b1 0b 29 3c 4b 68 ca 3d
       0.03386094 -0.013779814 0.010317729 0.098831736
000070 cc e5 b0 bd e9 50 db 3d b6 97 62 bb 37 9a a7 3d
       -0.0863758 0.10708792 -0.003457529 0.08183711
000080 9b b4 bf 3d d3 b1 ea 3b 05 4b dc 39 4f c3 9c 3d
       0.0936062 0.0071623116 0.00042017564 0.0765444
000090 ce 11 dc bb db d1 f9 3c 36 64 e0 3d 60 c3 97 bc
       -0.0067159897 0.030495575 0.10956614 -0.01852578
0000a0 14 33 9f bc 7e 4e b3 3d cf 2c ca 3d bc 4b e8 3d
       -0.019433536 0.087552056 0.09871828 0.1134257
0000b0 83 ef e1 bd 28 e0 ae 3d 63 7d 80 3d 13 08 80 bd
       -0.11032011 0.08538848 0.062739156 -0.0625154
0000c0 8f 82 75 3d f9 bd 7e bd a9 b5 75 3d 4b d2 0e 3c
       0.059938964 -0.06219289 0.059987698 0.00871713
0000d0 91 c6 05 3d 1b 98 42 bd 83 d7 6b bb 60 f7 78 bd
       0.03266007 -0.04750834 -0.003598661 -0.06078279
0000e0 49 db 94 3d a2 8e 74 bd d4 6d 07 3c ce c9 fb 3c
       0.07268388 -0.059706338 0.008265931 0.030735876
0000f0 d8 21 98 bb 6e d8 f6 bc 19 ae 2d 3c 3a c7 89 b9
       -0.0046427064 -0.030132499 0.01060059 -0.00026279112
000100 1e 99 65 bd f5 4a c4 bc 8b fa a5 bc 67 af 4e bd
       -0.056054227 -0.023961524 -0.02026107 -0.050460245
000110 56 bf c4 3b ca db c2 bc 84 71 62 bd 39 a0 89 bd
       0.0060042543 -0.023786444 -0.05528404 -0.06720013
000120 35 84 01 bd c6 5e 82 bc 48 eb c2 3d f5 29 3e bc
       -0.031620223 -0.015914332 0.095175326 -0.011606683
000130 75 59 77 bd 2d 52 42 bd 8a c1 95 3c 40 59 9e 3d
       -0.060388047 -0.04744165 0.018280763 0.07731867
000140 a9 e5 ce bd da 2b c0 3d b0 95 a8 3d bb 39 a3 3c
       -0.10102398 0.09383364 0.082316756 0.019924989
000150 5a ae 61 3d 2a a8 d5 3c c6 bf d1 bd b4 ac 04 bd
       0.055097915 0.026081163 -0.10241656 -0.032391265
000160 5c ad 5a bc 88 d1 7d bd 30 95 5a bb 8a 2e c8 3c
       -0.013346996 -0.061967403 -0.0033353083 0.024436254
000170 83 09 91 bb ed 48 6c 3d 28 1c c5 bb 5e bb c3 3d
       -0.0044261827 0.057686735 -0.0060153194 0.09557222
000180 c3 bc 1e bd a6 4c c5 3d cb 6d 87 3d 7c c3 c7 bd
       -0.038754236 0.0963376 0.06612738 -0.097540826
000190 ea 8b 5e bd 98 b9 73 3d b8 1e b0 3d 9a fe 24 bc
       -0.05433265 0.059503168 0.08599609 -0.010070467
0001a0 28 fa 60 3c 23 dd 41 3c e2 d5 f8 bc 40 60 87 3d
       0.013731517 0.011832508 -0.030375425 0.06610155
0001b0 18 73 17 3d c1 6a c5 bd e6 aa f5 bc 5c 2f 66 bd
       0.036974996 -0.09639502 -0.029988717 -0.05619751
0001c0 d3 c1 15 3d e2 7a e9 bd 67 c7 bf bd 5c cd da bd
       0.0365618 -0.11400391 -0.09364205 -0.106837004
0001d0 f5 ff f0 bc 06 49 4b bd b6 5a 6b bb 1c 90 77 bd
       -0.029418925 -0.049630187 -0.0035912222 -0.060440168
0001e0 62 a8 a9 3d d8 5f 7e 3d 7f a2 2a 3d 5b 10 4f bd
       0.082840696 0.062103122 0.041658875 -0.050552707
0001f0 f9 b1 da 3c 07 1e b8 bd 13 20 4a bd 18 77 05 bd
       0.026696192 -0.08990102 -0.049346995 -0.03258428
000200 ea 96 f2 bd 94 2b f5 3d 86 08 a3 3d 7b 8d 77 3d
       -0.11845191 0.119712025 0.0796061 0.06043766
000210 0e d6 7d 3d a7 d8 fe 3d 35 42 14 bd 9e 80 0c 3d
       0.061971717 0.12443667 -0.036195952 0.034302346
000220 99 bb f7 bc 40 b7 74 bc 3a 82 cf bd 28 c1 98 3d
       -0.03024082 -0.014936268 -0.101322606 0.07458717
000230 c2 eb bb bd f3 7d 4f bd a6 5a df 3d 98 e1 91 bd
       -0.091758266 -0.050657224 0.10905962 -0.07123107
000240 96 59 2c 3c ec c7 f0 bd 1f 11 93 bd 05 02 de 3d
       0.010519406 -0.11756882 -0.07181 0.10840229
000250 a7 5a 85 3d 13 88 38 3c 54 c1 7d bd 86 ef c8 3d
       0.06511431 0.011262911 -0.06195195 0.098113105
000260 db 67 06 3e bc 19 cb 3c 84 58 a2 bd 87 76 27 3c
       0.13125555 0.024792545 -0.07927039 0.01022113
000270 25 71 54 3d e0 39 07 3d 93 bf f0 3d f9 37 e6 3d
       0.051865716 0.03301418 0.1175529 0.11241145
000280 16 7e 6b 3d c5 13 b8 bd cd 0a de bb 01 b0 9f 3c
       0.05749329 -0.08988146 -0.00677619 0.019493105
000290 9e f7 20 bd b1 e3 b1 3c a4 88 9e 3d 38 63 8b bd
       -0.039298646 0.021715017 0.07740906 -0.06806034
0002a0 29 08 32 bd 34 08 b6 bd 3f b4 b2 3c ff c5 ad 3d
       -0.043464813 -0.08888283 0.021814464 0.084850304
0002b0 9e 68 e4 3d 9b 1b 98 3c 3f 8f ac 3d 0c 89 08 be
       0.11152767 0.01856785 0.084257595 -0.13333529
0002c0 9a 5c c7 bb 00 cf c7 bc 00 2b 6e bd b3 65 e9 3d
       -0.006084037 -0.024390697 -0.058146477 0.11396351
0002d0 33 4d a4 3d e1 6b c3 bd 80 58 00 be 49 58 65 bd
       0.08022537 -0.09542061 -0.1253376 -0.0559924
0002e0 3c b3 5d 3d af 41 80 3d e6 15 86 3d b7 03 aa 3d
       0.05412601 0.06262528 0.065471455 0.0830149
0002f0 30 23 aa bd fb 6f 6f 3c 72 fd 27 bd 27 84 4d bd
       -0.08307493 0.014614101 -0.04101319 -0.05017486
000300 0f 4e ef 3a f7 c6 d6 bb 88 e4 9d bd 2c c7 94 b9
       0.0018257516 -0.00655448 -0.077096045 -0.00028377154
000310 da 20 78 3d a9 4b a6 3d 2e d4 07 bd da a4 85 3d
       0.060578205 0.081199 -0.033161335 0.065255836
000320 bd e7 12 bc a0 0d 94 bd 24 ec d3 3d df c8 cc bc
       -0.0089663835 -0.07229161 0.103477746 -0.024998127
000330 cd f0 cf bc c2 17 61 bc 11 cf d8 3d 9b 5b 31 bd
       -0.025383377 -0.013738574 0.1058637 -0.043300252
000340 25 a3 0c bd 86 2f 26 3c 76 8a 85 bd 98 e2 1c 3d
       -0.034335274 0.010143166 -0.0652055 0.038302034
000350 8c 58 be 3d 85 a0 0a 3d 38 36 eb bc 5d 03 7a bc
       0.09294233 0.03384449 -0.028712377 -0.015259591
000360 9a e1 ce bd aa bd af bd bb 5d 01 bd cc 99 74 3d
       -0.10101624 -0.085810974 -0.03158353 0.059716985
000370 58 52 cb 3d 1a 80 33 bc 82 08 25 bb 20 99 a1 3d
       0.09927815 -0.010955835 -0.0025182073 0.078905344
000380 ad 5f 8d bc df 6f 9f bd 8d 24 2d 3d 03 9f 5f bd
       -0.017257536 -0.077850096 0.042271186 -0.054595005
000390 a2 ef 2f bd 8a fe 34 3c 27 63 aa bd 14 a0 8c bd
       -0.04295314 0.011047015 -0.08319693 -0.0686647
0003a0 00 96 09 bd c9 9e 84 bc 6e d3 1b 3d dd b7 16 bd
       -0.033590317 -0.016188996 0.038043432 -0.03679644
0003b0 f9 00 e5 bd ac ce e3 bc a1 76 ec 3d 3c 08 6b bc
       -0.11181826 -0.02780851 0.11546064 -0.014345225
0003c0 18 51 8f bd bd 62 30 bd 25 ec d0 3d d4 29 90 3c
       -0.06997889 -0.043062914 0.10201291 0.01759807
0003d0 81 2a 3f bc b2 62 85 3d f3 ff 13 3c 5f 8c 69 3c
       -0.011667849 0.06512965 0.009033191 0.0142546585
0003e0 bd bc fb 3d ea 65 ec bb 58 f7 97 bc b0 00 98 3d
       0.12291858 -0.0072142975 -0.01855056 0.07422006
0003f0 8b 8d b0 3c c3 38 9a bd 92 67 42 3d 2a 9c 69 bd
       0.021551868 -0.07530358 0.047462054 -0.057033695

lstm.bias_hh_l0 f4 [256]
000000 ef 52 b9 bd 6b 28 b8 3d 82 b9 92 bd f3 f6 27 bd
       -0.090490215 0.08992084 -0.07164289 -0.041006994
000010 81 7e 82 bc 46 c5 b8 3a f0 85 96 bc bf dd 94 3d
       -0.015929462 0.0014096878 -0.018374413 0.07268857
000020 5a d4 49 3d 6d 7d b4 bd ab c5 e9 bd 25 fd d7 bd
       0.04927478 -0.088129856 -0.11414655 -0.1054633
000030 ec df cd 3d f8 73 2d bc 76 da 7b bd 6f c2 89 bd
       0.10052475 -0.010586731 -0.061487637 -0.067265384
000040 d1 0d 19 3c c1 f3 18 3d 55 fc 5b 3d 4c 06 ab 3d
       0.009341673 0.037341837 0.05370744 0.083508104
000050 0c d2 c9 3d 6d 17 99 bd b2 58 d4 bb dc e5 68 bd
       0.098545164 -0.07475171 -0.0064803 -0.056859836
000060 4e 44 e7 bc bf 7c 1c 3b 51 3d 87 3d 67 5c 22 bd
       -0.028230812 0.0023878065 0.06603492 -0.039638903
000070 02 6a 98 bd ea 3e 06 bd b9 28 b1 3b ae 66 31 3b
       -0.074420944 -0.032774843 0.005406466 0.0027069259
000080 53 eb b9 3d 97 19 d4 bd aa 54 de 3c 20 03 ac 3d
       0.09078088 -0.103564434 0.02713998 0.083990335
000090 71 4c 23 3d 77 d9 6c bd 2f 6b aa bd bb f3 09 ba
       0.039867822 -0.057824578 -0.08321225 -0.0005262454
0000a0 95 ca 4f 3b a2 04 87 3d 61 e1 b7 3d 99 6e f7 3a
       0.0031706442 0.065926805 0.089785345 0.0018877565
0000b0 32 50 10 bd d9 a0 94 3d eb c4 99 bd b1 f1 27 bd
       -0.03523273 0.07257242 -0.07508262 -0.04100198
0000c0 e3 02 2b 3c 2a 49 9c bc fa 22 8c 3d b3 03 d1 bc
       0.0104377 -0.019077856 0.06842609 -0.02551446
0000d0 67 c6 49 3c 7c 03 85 3c d9 70 8b 3a 87 9e 16 bd
       0.012315369 0.016237013 0.001063849 -0.036772277
0000e0 ca 05 a7 3d 86 8d 2b 3d 71 d1 82 bc 9f 81 a3 bd
       0.08155401 0.041883014 -0.01596901 -0.07983708
0000f0 fa e9 e7 bc ca da a6 3d 29 16 2f 3d ca 4a 3e bd
       -0.02830981 0.081471995 0.042745743 -0.046458043
000100 58 f7 6a 3d 51 38 18 bc 98 13 e4 bb c8 92 2b bd
       0.05736479 -0.009290771 -0.0069603436 -0.04188803
000110 4d 2b d6 3b d9 a7 7c bc 37 57 69 3c 9c 24 a3 bd
       0.0065359236 -0.015420877 0.014241985 -0.07965967
000120 ed 23 cd 3a 2a a6 95 bd d6 09 e8 bd 13 1e ce bd
       0.0015650966 -0.07307084 -0.11330001 -0.1006433
000130 f3 79 87 bc 8b f6 0d 3c d0 da 2a 3c e9 63 a2 3c
       -0.016537642 0.008664737 0.0104281455 0.019823031
000140 6a fb 4f bd f6 96 99 bd cc 52 ad bc 7d 99 a8 bd
       -0.050776877 -0.07499497 -0.021157645 -0.082324006
000150 25 e4 29 bc 5a ec 8c 3c b2 3b 83 3c 1f 89 9f bd
       -0.010369335 0.017202545 0.016019676 -0.07789826
000160 e1 db f9 3d 5a c6 b4 3d f6 e5 51 bd 05 2b 9a bd
       0.12200142 0.08826895 -0.0512447 -0.075277366
000170 0d c8 09 3c f7 28 b6 3c 50 d7 01 bb cf bb 58 bd
       0.008409512 0.02223633 -0.0019812174 -0.052913483
000180 cc 52 72 3c 6f 76 8b bd f7 60 21 bd c8 3c 07 3d
       0.014790248 -0.06809699 -0.039399114 0.03301695
000190 67 e6 ee 3b 03 98 15 3d 17 91 c4 3d da a0 1d bb
       0.0072906497 0.036521923 0.09597986 -0.0024052174
0001a0 0a 50 ac 3c fd 6a a3 3d 35 71 83 bd 3d 73 a6 3d
       0.02103426 0.07979391 -0.06418077 0.08127449
0001b0 fb 9e 9c 3d c7 a5 01 bd 21 73 c6 3d 4d bd 25 bd
       0.076475106 -0.03165224 0.09689928 -0.040463734
0001c0 80 77 32 bd 35 94 a9 3d 6b f0 51 3d ad 15 26 bc
       -0.043570995 0.082802214 0.05125467 -0.010137004
0001d0 af 51 90 bd 2f 1a 02 3d b5 69 52 3c 9b ac 81 bd
       -0.0704683 0.031763252 0.012842585 -0.0633175
0001e0 5a 60 dc 3b 17 a5 4f 3d 9e 08 3a 3d c4 6f 6d bd
       0.006725353 0.05069455 0.045418374 -0.057967916
0001f0 5b 09 5c bb d6 eb 0e bd ea d3 3b 3d 7d b7 31 3d
       -0.0033574912 -0.03489288 0.045856394 0.04338788
000200 25 f2 ac bc f8 db 36 bc 70 fb bc bd b0 35 cc bc
       -0.021111557 -0.011160843 -0.092276454 -0.024927944
000210 b2 16 84 3d 9e 4a f1 bd c2 6c da 3c ef 52 fa 3d
       0.06449641 -0.1178181 0.026663188 0.122228496
000220 c8 12 84 3d 45 33 8b 3d 74 81 06 bd f5 63 27 bc
       0.06448895 0.06796888 -0.0328383 -0.010216703
000230 f2 ed dd bd 31 c1 61 bd 3a 82 ef 3c 32 b6 34 3d
       -0.108364 -0.055115882 0.029236902 0.044119067
000240 f6 c2 8a 3d 4e 97 96 bd 6f 30 14 3d 30 f2 95 bd
       0.06775467 -0.07353078 0.036179002 -0.07321584
000250 34 dc bf bd f7 d2 2a bd 14 27 ad bd be 3d de 3c
       -0.09368172 -0.041705098 -0.08454719 0.02712905
000260 e0 4d 0b 3d 97 11 a3 3d 11 7c 87 3d 05 19 f7 3c
       0.034009814 0.07962339 0.06615461 0.030163297
000270 f3 c4 20 3d bb 8c 0e 3d 02 6b e2 bd 19 a8 6b bd
       0.039250325 0.03480218 -0.11055566 -0.057533357
000280 91 bb db bd a7 9b 9a bd 60 0b cc 3c a2 cc e6 3d
       -0.10729135 -0.075492196 0.024907768 0.11269499
000290 61 e5 b3 3d a1 85 86 bd 6d e6 cc 3c f5 95 ad 3d
       0.08783985 -0.065684564 0.02501222 0.08475868
0002a0 4a 79 a4 3c 44 9c c4 bd 69 52 91 3c 34 3f 7a 3d
       0.020077366 -0.09600118 0.017739492 0.06109543
0002b0 16 81 9e 3c 68 91 00 3e 60 50 db 3d 04 a0 a9 bd
       0.019348662 0.12555468 0.1070869 -0.08282474
0002c0 b7 54 b9 3d 64 fa e5 bd 49 4b 92 bd 15 1c 49 3d
       0.09049361 -0.11229399 -0.07143266 0.049099047
0002d0 cb cd d7 3b 27 52 ec 3d d5 e2 78 3d c2 a6 c6 bc
       0.0065858117 0.11539107 0.0607632 -0.024249438
0002e0 7d d9 05 3e b4 49 af bd da 5b c7 3c 21 88 da 3c
       0.13071246 -0.0855898 0.02433579 0.02667624
0002f0 90 e5 bf 3d 1f 78 00 3e 1e 29 9a 3d 82 6b 39 bd
       0.093699574 0.12545823 0.07527374 -0.045268543
000300 97 b0 af 3d cf c8 8f 3d 56 a9 87 bb 6b 05 91 3d
       0.08578604 0.07020723 -0.0041400595 0.070811115
000310 17 a2 b5 3c 06 10 bc bb e2 f5 aa 3c 13 cd 72 3b
       0.022172017 -0.005739215 0.0208692 0.0037048503
000320 42 64 52 bc 9f 83 b2 3c ce 1d 0b bb 9f 4c 96 bd
       -0.012841286 0.021791277 -0.0021227482 -0.07338833
000330 3f b9 ad bd f5 1d a8 3c 1e 45 47 bd a6 dd ab 39
       -0.084825985 0.020522097 -0.0486499 0.00032780803
000340 7a e1 bc 3d 66 a5 ba 3d b9 e6 5a 3d 90 03 5c 3d
       0.09222694 0.091135785 0.05344269 0.053714335
000350 39 1f 9a 3d 47 9f 99 bd f5 51 e1 3d d4 41 89 bd
       0.075254865 -0.07501083 0.1100196 -0.06702009
000360 d5 68 7e bd e6 ec 37 bd 3b 1e eb 3d c3 ca 76 3d
       -0.062111694 -0.04490366 0.114803754 0.060251962
000370 0d c4 c4 3c 56 19 7f 3d cc 92 cf bc c1 c8 e3 bd
       0.024019266 0.06228002 -0.025338553 -0.11122275
000380 18 6d 2b 3d 29 a3 f0 bc e4 24 11 3d 18 6a b2 bd
       0.041852087 -0.029374676 0.035435572 -0.08711642
000390 db 56 7d 3d 43 03 73 bd 8c f6 67 3d d2 03 32 3d
       0.06185041 -0.059329282 0.05663161 0.043460675
0003a0 80 67 05 bd 04 56 ce 3d e6 93 6f 3d 2c ef 29 bd
       -0.03256941 0.10075 0.058490656 -0.041487858
0003b0 14 67 5b bd 1c 76 c8 3d 2c 51 d9 bc ec c1 a9 3c
       -0.0535651 0.097881526 -0.026527964 0.020722352
0003c0 66 ab 2d 3d 8a 35 61 3d bd 8f 62 bd 31 49 b6 3d
       0.042399786 0.0549827 -0.05531286 0.08900679
0003d0 d1 bd 00 3d f9 fc 91 3c 45 26 86 bc 7b 0f 3d 3d
       0.031431023 0.017820822 -0.01637567 0.04615734
0003e0 66 8e 36 bb 14 d3 55 3d 26 f3 66 3d 2b 41 87 3d
       -0.0027855872 0.052203253 0.05638423 0.06604227
0003f0 d8 f9 56 bc 4e 60 9d 3d ae 7b 72 3d 0e 47 83 3c
       -0.013121091 0.07684384 0.05919998 0.016025092

lstm.weight_ih_l1 f4 [256, 64]
000000 85 67 51 bc e7 f0 12 bd 95 2f 2d bc ba 3d 75 3b
       -0.012781029 -0.035874274 -0.0105704265 0.0037420825
000010 1a 7d 2d bd f4 39 63 bb c7 b1 b1 3c 9a 99 c4 bc
       -0.042355634 -0.0034671994 0.021691216 -0.023999024
000020 0c c2 f3 bc 01 4d 81 3c 1f 4c ea 3c 64 45 26 bd
       -0.029755615 0.015783789 0.02860075 -0.04059352
000030 07 6c 27 3b be 41 87 bd e5 90 1d 3d e7 79 4b 3c
       0.0025546567 -0.06604336 0.03846826 0.0124192005
000040 01 5b fd 3c 5b b5 b3 3d 78 04 0d bc 75 3b 81 bc
       0.030927183 0.08774825 -0.008607022 -0.015775422
000050 94 88 f1 3b 41 b2 23 3c 8d 79 3f bd c2 1d ea bc
       0.0073710177 0.0099912295 -0.04674678 -0.028578643
000060 4d 28 98 bc fb aa cf 3c 8d 7b 0c 3d 7f d9 81 bc
       -0.018573904 0.025350085 0.034297515 -0.01585078
000070 7c 0f 78 3d f5 7b 34 bd 89 8b 78 b9 20 5d 91 3c
       0.060561642 -0.044063527 -0.00023703104 0.0177446
000080 f6 85 55 bd 83 23 90 3d 2e cc ca bb bd 2b 65 3d
       -0.05212971 0.07038023 -0.006188891 0.055949915
000090 24 db b4 3a e9 33 ae bc 95 ac 94 3d 42 b9 22 ba
       0.0013798219 -0.021264987 0.0725948 -0.0006207415
0000a0 17 b6 a0 3a 47 66 a8 3d 58 e2 3d bd 16 1b 98 3d
       0.0012261298 0.08222633 -0.046358436 0.07427041
0000b0 2d 0f d8 bc 78 48 70 bd 4c a3 82 3d 7f f5 1d bd
       -0.026374424 -0.05866286 0.06378803 -0.0385642
0000c0 9c aa 3f bd bf 06 36 bd 47 32 46 3d 45 93 32 3d
       -0.046793565 -0.044440027 0.048387792 0.04359748
0000d0 67 29 24 3b 78 78 24 3b 9a 4b 29 39 44 1e 43 bd
       0.0025049092 0.002509622 0.0001614526 -0.047636285
0000e0 b6 f8 ce 3c f8 82 0e 3c a1 ca 43 38 7d 14 97 ba
       0.025265079 0.008698218 4.6680336e-05 -0.0011526492
0000f0 b2 f7 a8 3c 35 a6 86 bc 2b 31 9c 3c d7 ab 71 3d
       0.020625923 -0.016436676 0.019066414 0.05900177
000100 a4 ee 86 3d 1f 86 59 3c d2 15 ec 3b f8 28 af 3a
       0.06588486 0.013276606 0.0072047496 0.001336365
000110 ab 9a a0 bd d6 85 c8 ba de 0e f7 bc b6 a2 31 bc
       -0.078420006 -0.0015298675 -0.030158456 -0.010842016
000120 67 38 3b bc b5 ac 8c bc b3 09 61 bd 55 c0 16 bd
       -0.011427022 -0.017172197 -0.05494089 -0.036804516
000130 4b 05 07 3d 76 26 a4 3d 6a 51 07 bd 98 ae bc bc
       0.032964032 0.08015148 -0.033036627 -0.023032472
000140 36 46 e1 bc 96 b7 0c bd 67 74 37 bd 55 07 5b 3d
       -0.0274993 -0.03435477 -0.044788744 0.05347379
000150 6d dc 24 3d 69 64 1e 3d 34 61 2b bd 70 b4 03 bd
       0.040249277 0.038669977 -0.041840747 -0.0321545
000160 2a b3 ab 3d 9e 58 17 bd 72 14 85 bd 99 ae 28 bd
       0.08383782 -0.036949746 -0.0649804 -0.041182134
000170 3e 23 a8 3c a4 cd 44 bc 52 df 0c bb 36 8b 37 3d
       0.020524617 -0.012011919 -0.0021495414 0.044810496
000180 77 86 10 bd a9 a4 0b 3c 59 5e 50 3b 11 a1 1b 3d
       -0.035284486 0.008523145 0.0031794517 0.0379954
000190 8e 25 8c 3c ed b5 f7 ba c6 5b 1e 3d ce 7f dd ba
       0.017107751 -0.0018898823 0.03866174 -0.0016899051
0001a0 a7 ad e4 3a 86 34 60 bd e1 87 0b 3d 9c 52 75 3c
       0.0017446772 -0.05473759 0.03406513 0.014973309
0001b0 94 cf 3e 3c 8b 22 0d bc 79 83 16 3d 64 82 b9 bd
       0.01164617 -0.008614193 0.036746476 -0.09058073
0001c0 28 31 4e 3d dc b1 88 3d 2e ff 4d 3d 98 1e bd bb
       0.050339848 0.06674549 0.050292186 -0.0057714693
0001d0 81 15 61 bd a2 f6 49 bb c0 5a 96 bb cb 88 cf bc
       -0.05495215 -0.003081717 -0.004588455 -0.025333783
0001e0 32 ee 88 3d 17 c3 8b ba d2 7b 9e 3d 32 7d 13 bd
       0.06686057 -0.0010663 0.077384606 -0.036008067
0001f0 a1 ed ba bb e8 65 93 bd 70 89 21 3c a5 cc fe 3c
       -0.005704597 -0.071971714 0.009859428 0.031103441
000200 2b c7 71 3b e0 36 ed 3b 06 4f 3f 3a 02 30 67 bb
       0.0036892395 0.0072392076 0.0007297847 -0.0035276418
000210 75 ae dc b9 60 04 80 3b 33 68 33 3b de 94 e3 38
       -0.0004209165 0.0039067715 0.002737534 0.00010851932
000220 49 c3 73 b9 c6 17 92 bb 4d 21 99 3c d8 17 81 b9
       -0.00023247035 -0.0044584004 0.018692637 -0.00024622562
000230 da f2 dc 3b 8d 94 b3 ba ec 23 80 ba f1 ad 8a b9
       0.0067428173 -0.0013700888 -0.000977633 -0.00026451008
000240 db 9d 77 3c be 01 bc bb bc f7 76 39 e0 bf 8c 3a
       0.015113319 -0.0057375124 0.00023552676 0.0010738336
000250 5f 5a 28 3a a2 a1 cb b9 2e 11 41 3b 43 66 e6 3b
       0.0006422158 -0.00038839603 0.0029459703 0.0070312335
000260 8f 7a 87 bb f9 ce 9c 3b e1 1f 32 38 27 38 c1 b8
       -0.004134483 0.0047854153 4.2468197e-05 -9.213416e-05
000270 28 c4 16 bc e9 73 a1 3b 2b 66 03 3b 5a 5a e5 b9
       -0.009202041 0.0049271476 0.002004991 -0.000437456
000280 82 3b 33 3a 66 dd 30 3b 39 2e 8a ba e5 bb 89 bc
       0.00068371755 0.0026987433 -0.001054234 -0.016813228
000290 59 da 9d 3a 24 2b c4 bb 18 54 96 ba 71 4e 98 39
       0.0012043222 -0.005986588 -0.0011469154 0.00029050143
0002a0 d7 94 c0 bb 18 d7 25 bc a7 ad ba b9 81 70 1b bc
       -0.005877118 -0.010122083 -0.00035606066 -0.009487272
0002b0 a9 05 b9 bb 20 04 29 bc 5e ce 1e bb 4e 09 a2 bb
       -0.0056464267 -0.010315925 -0.002423189 -0.004944957
0002c0 a1 d7 9c 3b 0e c7 9f bc 37 eb bd bc 01 53 1e bb
       0.004786447 -0.019504096 -0.023183448 -0.002415836
0002d0 0b 9c 53 3c f9 3a 8b 3b 30 94 3a 39 b7 e5 2a b9
       0.0129156215 0.0042489734 0.00017793546 -0.00016298039
0002e0 fe aa c4 3a 30 84 c7 39 03 ed e1 39 fb d7 5b ba
       0.0015004573 0.00038054725 0.00043091932 -0.00083863706
0002f0 bc e6 f2 b8 59 f3 e2 3a ac 85 28 39 3d 6b 83 bb
       -0.00011582437 0.0017314955 0.00016071525 -0.0040105865
000300 4a 7c 3e bc d2 55 1b 3c 9c cc 1d 3b 16 51 8e b8
       -0.0116263125 0.00948091 0.0024078256 -6.786191e-05
000310 26 54 c8 bb 43 74 82 b7 91 a9 a7 bb c0 93 9c 3c
       -0.006113547 -1.5551346e-05 -0.0051166494 0.019113421
000320 aa 53 11 3b bc 76 ad bc be 27 9d 3c 6e a2 94 3c
       0.0022175112 -0.021174781 0.01918399 0.018143859
000330 db 48 27 3c 73 c9 0e bd 91 a3 c8 3c d2 98 34 39
       0.010210241 -0.034860086 0.024492057 0.00017223068
000340 d0 c6 c0 bb 39 6c cc 3c cf 24 30 3c a4 2c 18 3c
       -0.0058830753 0.024953948 0.010750963 0.009287987
000350 3a 81 6d bc e8 f1 8b 3b f9 5f 0f bd a9 21 b5 bc
       -0.014496142 0.004270781 -0.035003636 -0.022110777
000360 fe 69 c5 bc cb 46 14 3c 47 c0 cf 3c 0c 87 47 3b
       -0.024098393 0.0090500815 0.02536024 0.0030445484
000370 ba ac ad 3c fa 69 08 bd be 45 6d 37 bc 31 10 bc
       0.021200527 -0.033304192 1.4142539e-05 -0.00880092
000380 f4 93 cc bc 42 08 0c bd 94 ed 57 bb 75 8d 19 bd
       -0.024972893 -0.034187563 -0.0032948004 -0.03748842
000390 4e 85 c8 36 67 f9 2d ba 7c ea 86 3b 1f 39 52 b8
       5.975983e-06 -0.000663659 0.004117308 -5.01211e-05
0003a0 e7 14 7d b8 25 81 88 bd a8 2f 92 bc 52 3a 22 bd
       -6.0339367e-05 -0.06665257 -0.01784499 -0.0396064
0003b0 99 9a a6 3c 53 e5 9b 3b 1e 96 5a bd 76 5a f4 bc
       0.02033739 0.004757562 -0.05336582 -0.029828291
0003c0 66 7f 01 3b 76 15 02 bd 8d ea 28 3d 0c 9d 0e 3d
       0.0019759773 -0.031758748 0.04123931 0.03481774
0003d0 63 8b 8e 3b 3d 29 d7 36 32 18 f2 39 18 81 55 3b
       0.0043501123 6.4123e-06 0.00046175864 0.0032578167
0003e0 79 a8 05 3c 76 f3 1f b9 a7 99 0d bd 3d dc 06 3c
       0.008157843 -0.00015254118 -0.034570362 0.00823122
0003f0 dd f6 3a 38 7b 41 0c 3d cc 86 ce 3a 13 4c 00 3d
       4.4575765e-05 0.034242135 0.0015756725 0.03132255

lstm.weight_hh_l1 f4 [256, 64]
000000 db f9 36 bc 53 8e 10 3d fc 8e 87 38 c1 56 86 bc
       -0.011167969 0.03529198 6.4639346e-05 -0.01639879
000010 45 4f 76 bd f6 28 bd bb 50 3f d0 bd 64 44 fd 3c
       -0.06013419 -0.005772705 -0.10168326 0.0309164
000020 18 ef 0b bd ea 3e 15 bc 5a a8 89 3c 9e 1d 7d 3a
       -0.034163564 -0.009109238 0.01680391 0.00096555974
000030 a9 5b a3 3c 74 41 25 3a 00 4a b5 bb 39 01 30 bb
       0.019941168 0.0006304004 -0.005532503 -0.0026856198
000040 c4 4f 86 3d 31 be d4 3a e4 75 94 bb 9d 9f 1e 3d
       0.06558183 0.0016230998 -0.004530655 0.038726438
000050 4b 1a 10 3d f1 ba 29 3b 5d c9 e0 3a 24 99 e4 3a
       0.035181325 0.002589878 0.0017149855 0.0017440659
000060 5e 6c 6e ba e0 9c a8 bd 90 d4 7e 3a 19 8a 50 bd
       -0.00090951275 -0.082330465 0.00097210053 -0.05091295
000070 cd c1 3d 3c 8e 28 4e 3b 3b 7a 64 3c 6f de 4c bc
       0.01158185 0.0031457278 0.013945158 -0.012504204
000080 34 b6 7f 3c f0 9f a1 3c 31 40 a1 3c b9 22 34 3d
       0.015607405 0.019729584 0.01968393 0.043978427
000090 13 d9 77 3c 16 04 da 3c 2a 66 6d 3d 2e a9 b2 bb
       0.015127438 0.026613276 0.05795876 -0.0054522967
0000a0 16 a3 b1 3c 9d 1d 59 3a 33 a8 da 3c 69 73 24 3b
       0.02168421 0.0008282306 0.026691532 0.0025093204
0000b0 ac ca ca bc 33 9c 8e 3c b5 af 8a 3d 2e 30 cd ba
       -0.024754845 0.017408466 0.06771795 -0.0015654617
0000c0 23 cb 69 bd 9b 75 b8 3d a4 ac 36 b8 ff 2d 0c ba
       -0.057078492 0.090068065 -4.3552966e-05 -0.000534743
0000d0 90 5c 56 bd f9 8b 4e bc ce 9e e2 b9 8c 28 32 3d
       -0.05233437 -0.012606614 -0.00043224398 0.0434957
0000e0 2d 2c 40 3d 4e d8 5c 3c 3b 03 99 3d a2 e7 14 3c
       0.04691713 0.013479305 0.07471319 0.009088429
0000f0 1d 68 21 3d 55 8b b1 bb 3d ee 8a 3d 39 dc 40 3d
       0.03940593 -0.005418221 0.067837216 0.04708502
000100 7f 0b f1 bb 6e 2d c5 3c af d5 32 bc 5b a8 49 bd
       -0.007356107 0.024069514 -0.010915204 -0.049232822
000110 51 da ba 3d 71 12 32 3d 40 b1 f2 3c 53 ae 13 bd
       0.09123672 0.04347462 0.029625535 -0.03605492
000120 9b 0b 46 3d 75 59 34 bb 0f a6 01 3c 0c cd 64 bd
       0.04835091 -0.002751914 0.007913127 -0.05585961
000130 f7 66 91 bc 04 4c 6f 38 32 87 13 bd ed 8f c7 38
       -0.017749293 5.7052835e-05 -0.036017604 9.515868e-05
000140 09 b5 74 bd 77 cc 83 bb 4b 79 98 bd b8 e9 9f 3d
       -0.05974296 -0.004022177 -0.0744501 0.0780825
000150 8e c2 50 3b 00 0c 3b 3b e4 8c 29 3b 85 fd 0c 3d
       0.0031854245 0.0028541088 0.002587133 0.034421463
000160 93 06 ac 3b b8 89 84 3d fb e8 c1 bb 60 06 dd 3c
       0.005249807 0.0647158 -0.005917666 0.026980579
000170 32 88 0c 3c 33 53 25 3b f0 f4 23 bd df f9 86 bc
       0.008577393 0.0025226593 -0.040028512 -0.01647657
000180 1f 83 b0 bd f9 51 3e 3d 90 bb 5d 3d 8c c3 e6 3c
       -0.08618759 0.046464894 0.05413395 0.028169416
000190 20 35 a8 3b 9b 98 e3 3a fa d0 cf bc 38 73 2a 3d
       0.005133286 0.0017364206 -0.025368202 0.041613787
0001a0 0b 54 1e 3d 0c db 9d 37 22 c5 be bd be 59 c2 3c
       0.03865437 1.881786e-05 -0.09314944 0.023724433
0001b0 22 26 39 bd e1 a8 04 bb ba cf 6c 3d e9 21 c8 ba
       -0.045202382 -0.0020242261 0.05781529 -0.0015268895
0001c0 fe 88 49 3d 46 e6 31 3d a7 24 63 bb 50 c4 24 bc
       0.04920291 0.043432496 -0.0034659298 -0.01005657
0001d0 31 6b 8b bc 3a f3 61 bd fe e2 e9 bb f7 54 57 3d
       -0.017018886 -0.0551636 -0.0071376553 0.052571263
0001e0 db c3 12 bd f7 91 e1 bc 7d b8 74 3d 0d 6a 9f bb
       -0.035831314 -0.027535422 0.059746254 -0.004864937
0001f0 3d 34 b2 bc f8 d3 8e bd 2d a2 27 bc 82 f0 9c bd
       -0.021753425 -0.069740236 -0.010231537 -0.07663061
000200 44 e1 ce 3b 91 dc 58 bc d8 12 8b 37 47 3d 47 bc
       0.006313475 -0.013236181 1.6578866e-05 -0.012160606
000210 7b b0 cd 3c ce 2f 92 3b 45 4f 9d 3b 49 52 91 b8
       0.025108567 0.004461265 0.0048007094 -6.9294656e-05
000220 27 ca 4f 39 9c 13 d4 3b 85 16 50 bb 9a 17 14 3c
       0.00019816366 0.006472064 -0.0031751704 0.00903883
000230 ad 26 85 37 b4 44 22 b9 35 5a 9b 3c cf ed 91 b9
       1.5872845e-05 -0.00015475118 0.018963913 -0.00027833736
000240 53 37 f8 bc c2 80 d5 38 d9 69 26 3c c1 90 88 bc
       -0.030299818 0.000101806145 0.010157072 -0.016670587
000250 f6 8d 4e bc 20 47 ca ba 7c 89 01 b9 48 8e 47 b7
       -0.012607088 -0.0015432574 -0.00012353616 -1.1894452e-05
000260 8b ca ba b9 16 72 a2 3c 94 dd b2 3a 63 f8 14 3c
       -0.0003562759 0.019829791 0.0013646358 0.009092423
000270 2e a6 05 39 a4 1a aa b9 6a 64 1a b9 a6 18 e5 b8
       0.00012745775 -0.00032444776 -0.00014723992 -0.00010924162
000280 9a 55 80 3c d7 fa 72 3b 89 7b 74 ba 92 9b ca 3a
       0.015665818 0.0037075782 -0.00093262695 0.001545774
000290 9b 71 90 36 db e3 b5 b9 7a aa cc b8 47 2b 16 39
       4.30476e-06 -0.00034692776 -9.759232e-05 0.00014321237
0002a0 ba 28 61 3b d2 1c ad b7 ce 39 84 bb 4e 40 a9 3b
       0.003435655 -2.0636628e-05 -0.004035211 0.0051651364
0002b0 51 c8 20 3c c5 1f e9 39 ec c6 1f ba 5b 73 d2 38
       0.009813384 0.00044464893 -0.00060950103 0.00010035067
0002c0 e1 0e 8c bc 24 21 5d bc f0 7e cc 37 a9 66 97 38
       -0.017096939 -0.013496671 2.4377805e-05 7.219363e-05
0002d0 d2 26 eb 39 88 f5 2b bc 7b d2 65 3a 14 da 09 3c
       0.00044851616 -0.010495551 0.0008767021 0.00841381
0002e0 a0 5f 62 bc a8 e2 a3 3c ab 31 b7 3c ad fa cf b8
       -0.013816744 0.020005539 0.02236255 -9.917221e-05
0002f0 3c eb 39 3c 47 76 a9 bc 3e 2c 30 ba eb df ce 3a
       0.011347588 -0.020686282 -0.000672046 0.0015783285
000300 6b 35 28 3d 4e 16 b0 3c 5b 12 2a bb 1e ae c5 ba
       0.04106657 0.02149501 -0.0025950882 -0.0015081798
000310 27 42 17 bd 03 05 5c 3a 1b cb 7b bd ed fa ce 3a
       -0.036928322 0.0008393081 -0.061472993 0.0015791334
000320 63 ee a1 3b 2e 13 02 3b ff a0 31 3b 7b f1 47 3d
       0.004941748 0.0019847858 0.0027104018 0.048814278
000330 c6 14 1f 3c 9e 6a c6 37 96 bc 8a 3c 18 78 8b bb
       0.009709543 2.3653087e-05 0.016935628 -0.0042562596
000340 10 d4 4c bd e9 79 9a b8 33 33 9d bc 29 d7 83 3c
       -0.050006926 -7.366e-05 -0.019189453 0.016093807
000350 82 62 df bb ff 9c 20 3a 7a ff 03 bc 95 a6 0d b9
       -0.006817163 0.000612691 -0.008056516 -0.00013508865
000360 7e 52 d1 b9 cd ba 8c 3d d9 81 3b 3c 52 51 f1 3b
       -0.00039925048 0.06871567 0.011444532 0.0073644305
000370 b4 12 dc b9 86 4e 98 ba 50 32 8b bc 88 50 81 ba
       -0.00041975605 -0.0011620081 -0.016991764 -0.0009865919
000380 14 05 30 bd 91 0e d4 3c 50 a8 e2 3c f8 dd aa ba
       -0.042973593 0.025885852 0.027668148 -0.0013036123
000390 e1 40 81 b8 89 64 98 3c 52 91 be bb 29 47 00 3b
       -6.163284e-05 0.018602626 -0.0058156634 0.0019573665
0003a0 41 37 4e bc 9c 48 5b 3b 21 aa 06 bc 1d 5d f3 37
       -0.012586416 0.0033460027 -0.008219273 2.9011217e-05
0003b0 34 a8 5c bd 64 e8 cd 38 59 9f 5b bb 24 43 b8 b9
       -0.05387135 9.818448e-05 -0.0033511727 -0.00035145239
0003c0 f6 45 0d bd c9 06 b4 bc 61 ab f1 3a ac 93 15 b9
       -0.034490548 -0.021975892 0.0018437916 -0.0001426476
0003d0 6f f8 9a 3a 78 5a 0c 3d a2 ae 4f 39 12 c5 b9 3c
       0.0011823307 0.034265965 0.00019806114 0.022676978
0003e0 57 90 6e 3d 3c d2 af 3b e4 13 b3 bb b6 4d 3e 3c
       0.058243122 0.005365638 -0.0054650176 0.011615207
0003f0 41 23 ca bc e1 3f 35 3b d1 ba 1c bc f7 63 9f 3c
       -0.024675013 0.0027656483 -0.009566025 0.019456847
