model_package_20250414_202741/模型/best_model.pth (torch, 16802 bytes, 15 tensors)

model.0.weight f4 [32, 6]
000000 b9 ac 05 3e a7 1a 9d 3e 15 82 51 be 3b e7 de 3e
       0.1305417 0.30684397 -0.20459779 0.4353579
000010 05 4b 10 3e 54 30 d4 3d 37 37 9a be 11 5b 03 bd
       0.14091118 0.1036078 -0.3012025 -0.03206927
000020 59 ca 24 3e b5 13 64 be e4 89 fd 3e e0 ba 55 3d
       0.16092815 -0.22273143 0.49519265 0.05218017
000030 3f 55 19 3e 71 a9 5b be 47 a7 8d bd 6a 7a 43 3c
       0.14973925 -0.21451356 -0.06916671 0.011931041
000040 dd 35 09 3f c5 52 08 3d 92 60 52 be 71 1c f9 bc
       0.53597814 0.03328206 -0.20544651 -0.03040907
000050 64 23 d6 be c5 52 75 3d 53 98 20 bd 92 0e 73 3e
       -0.41823876 0.05989339 -0.039207768 0.23736027
000060 27 41 8e be b7 a9 95 be d7 02 88 3c 2c dd 2a be
       -0.27784082 -0.29231045 0.016602917 -0.16685933
000070 e9 a5 a8 be ba 4d ad be b5 66 9c 3e 9e 46 a7 be
       -0.3293908 -0.33848363 0.3054711 -0.32671064
000080 99 12 de 3e 94 b1 7d 3d f9 0c be be ee a8 ae 3d
       0.43373564 0.06193693 -0.37119272 0.085283145
000090 62 b1 12 3d 71 3a 79 3e e7 4d 73 3b 8c ff 04 3d
       0.035813697 0.243387 0.003712529 0.03247027
0000a0 b4 05 d2 3e ef 39 97 bd ae db 20 3d be 55 d8 3e
       0.41019976 -0.07384097 0.039272003 0.42252916
0000b0 01 52 58 3e 09 ab e7 bc 39 34 b5 3e 46 47 73 3d
       0.21125032 -0.028279798 0.35391405 0.059394144
0000c0 6d a1 03 3d b4 12 cf be 95 73 00 bf 4a e1 23 3d
       0.03213637 -0.40443957 -0.50176364 0.040009774
0000d0 c1 14 b5 bd 8d 6d bf 3e ca 0e a9 3d 65 b4 1f 3e
       -0.08841849 0.37388268 0.08254774 0.15596159
0000e0 cd ee cc 3d 2e a0 94 3d b7 2e 07 3f 66 fc 70 be
       0.10006485 0.07257114 0.52805656 -0.23533782
0000f0 43 29 18 3d 2b 57 05 be ed ee c7 3e c2 d7 6b bd
       0.037148725 -0.13021533 0.39049473 -0.05757881
000100 ff 9c 51 be c4 b6 2b bd c6 2b ae bb d1 0f d0 be
       -0.20470046 -0.041922346 -0.005315277 -0.40637067
000110 2b 00 ac be f9 72 d8 3c ca 1e 3f 3f 8a 98 a5 3d
       -0.33593878 0.02642201 0.74656355 0.08085735
000120 fe a2 9e 3e a8 2b c8 be ee 6e cd be 37 30 5f bc
       0.30983728 -0.39095807 -0.40123695 -0.013622335
000130 d2 9c 06 3e 8b 31 94 3e cd 46 f9 3d b7 cd 9a 3e
       0.1314576 0.28944048 0.12171707 0.30235073
000140 6c 75 10 be 83 79 6e bd f0 f7 d7 3e 9b 79 55 be
       -0.14107293 -0.05822135 0.4218135 -0.2084717
000150 66 71 e3 3d be 27 48 3e 87 04 d9 3e de d0 40 be
       0.111056134 0.1954641 0.42386267 -0.18829677
000160 7a c5 e9 be 0a 1a 35 3d b2 93 10 3e 95 a0 bc bd
       -0.45658475 0.044214286 0.14118841 -0.09210316
000170 47 2e ab 3e aa c0 2e 3e 51 d6 f2 be 30 de 80 3c
       0.33433744 0.17065683 -0.47429135 0.015730947
000180 54 19 56 3e 61 a5 38 3e b4 6b f7 3d fd ef b6 be
       0.209081 0.18031837 0.120810896 -0.35729972
000190 f7 7e e7 be bc 71 ff 3d 22 00 c0 bd f3 9b 4e be
       -0.45214054 0.12472865 -0.09375025 -0.20176677
0001a0 c6 19 85 3e c2 02 60 3d e9 a2 1b bf b1 bd 9e 3d
       0.25996226 0.05469013 -0.60795456 0.077510245
0001b0 57 a0 ab be bc 58 a8 be 05 94 b6 3e 84 65 c8 3d
       -0.33520767 -0.328802 0.35659805 0.097849876
0001c0 30 82 51 3e 4a 42 c7 be 7a 00 d9 bd fa 62 37 3e
       0.20459819 -0.38917762 -0.10595794 0.1790885
0001d0 71 4f bb 3e 75 0e c3 bd b3 c6 f5 be 18 7f 0e 3d
       0.36584046 -0.09524242 -0.48003158 0.034789175
0001e0 1c 94 6f bd 99 84 83 be 95 8d 74 3a 29 dc 4e bd
       -0.058490857 -0.256871 0.00093289587 -0.05050293
0001f0 79 47 07 bf 8b c2 9e be 80 a6 7c bd c9 9f e8 be
       -0.52843434 -0.310078 -0.061682224 -0.45434406
000200 eb 43 08 3e 8c 27 d5 bc f0 9f 16 3f 72 1e e9 3d
       0.13307159 -0.026019834 0.58837795 0.1138276
000210 78 ba 94 bd 04 68 97 3e c9 88 75 3d 36 de 73 3d
       -0.072621286 0.29571545 0.0599449 0.05953809
000220 fb f3 4f bf fb d6 93 bc 46 d8 85 bd 10 4e 2f bd
       -0.8123166 -0.018046847 -0.065353915 -0.042799056
000230 38 70 bd 3d 5f cc 57 be a0 dc 23 3f 5f b9 04 be
       0.0924992 -0.21074055 0.6400852 -0.12961338
000240 63 bb 49 be ac 63 c7 3d 10 af e2 3d 97 d9 7f 3e
       -0.19700389 0.09735808 0.11068547 0.24985348
000250 f6 74 15 3f e3 c1 96 be 34 02 44 3d 6f 9a 40 be
       0.58381593 -0.294448 0.047853664 -0.18808912
000260 97 79 b5 bc ea ac 84 be 8c 6e 2d 3f 40 b6 2c bd
       -0.022152705 -0.25913173 0.67746806 -0.042165995
000270 3a 4d 6c 3d f2 cf 4c bd cf 8a 68 bd 26 43 03 be
       0.057690836 -0.050003 -0.056773003 -0.12818584
000280 f2 e7 16 3f 5e b0 4f 3d b5 f2 3c bc 1c 31 06 bf
       0.5894767 0.050705306 -0.011532475 -0.52418685
000290 80 1e 9a 3d 40 76 ae bd de ae e3 3c c1 f0 a9 3e
       0.07525349 -0.08518648 0.027793344 0.33191493
0002a0 ee a5 a0 3d 5f f8 59 be 4a 09 46 be a1 ce cb bb
       0.078441486 -0.21286152 -0.19339481 -0.0062197004
0002b0 64 c7 76 3e 71 c1 bc bd e0 05 98 bd 7a 11 cd bd
       0.24099499 -0.092165835 -0.074229956 -0.10013099
0002c0 e9 ba 80 be 68 07 df 3d 47 d1 38 bd 9c 14 09 bf
       -0.251426 0.108900845 -0.045121457 -0.5354707
0002d0 c0 58 ec bc 6e 84 80 3d 08 c4 12 be d9 df ba bd
       -0.028850913 0.06275259 -0.14332592 -0.09124727
0002e0 31 0a e6 3e 1f f6 09 3e ea bc af 3d 24 54 4a 3c
       0.4492965 0.13472794 0.085809544 0.012349162
0002f0 05 06 67 3d 43 5a 88 3d a8 db f7 be d2 80 07 3e
       0.056402225 0.06657841 -0.48409772 0.13232735

model.0.bias f4 [32]
000000 6c 10 2b 3e a1 ec 90 3e f3 63 85 bd 46 70 a8 bd
       0.16705483 0.28305534 -0.065132044 -0.082245395
000010 32 54 6a 3c 8e ff 66 bd 09 08 0e 3e 0b 64 42 bd
       0.0143023 -0.05639606 0.13870253 -0.04745869
000020 6d 6b 9f be 97 c9 eb bd 21 dd 85 3e f6 b1 ab 3d
       -0.31136647 -0.115130596 0.2614527 0.08383553
000030 dd e3 d3 3d 37 6d 56 be ba 3c 19 3d ea f4 e8 bc
       0.10346196 -0.209401 0.03741143 -0.028437097
000040 d5 d7 a8 bd 98 07 9f 3c 2f 61 a0 3d 8a 89 30 3e
       -0.08244292 0.0194128 0.07831036 0.17239967
000050 44 2c ca be 62 28 87 bd b6 aa 7c ba 74 17 80 3e
       -0.39486897 -0.06599499 -0.0009638475 0.25017893
000060 4e ee d6 bc 61 d1 63 3d 17 81 cd 3d 9f 84 65 be
       -0.02623668 0.0556196 0.100343876 -0.22413872
000070 1b bb 8d be 27 bd c0 3e 72 23 35 be e0 d5 47 3a
       -0.27681813 0.37644312 -0.17689303 0.00076231174

model.3.weight f4 [16, 32]
000000 dc 0c 5c be 70 ee a5 3d ae 21 b4 3d 2e d4 72 3d
       -0.2148928 0.08102119 0.087954864 0.05928438
000010 b2 70 fc bd 9f 08 57 be 0c 35 16 be c3 b8 c1 3d
       -0.123261824 -0.20999382 -0.14668673 0.094590686
000020 60 b3 a7 3d f2 8a a6 3d 0c 1d af 3c da e0 a0 3c
       0.0818851 0.081319705 0.021376155 0.019638468
000030 cb 7d 8a bc 4b 6a 3e be 9b 35 0f be cd f0 49 be
       -0.016905686 -0.18595235 -0.13985293 -0.19720764
000040 3b de 51 3c d8 bf b1 bd 82 be 8e bd 66 1d 11 be
       0.0128093315 -0.086791694 -0.0696993 -0.14171371
000050 a8 f1 03 bd 58 05 2d be ce 8f ec bd 0e 8a d5 bc
       -0.032212883 -0.1689657 -0.11550866 -0.026066806
000060 5e 43 c7 bd d8 9a 9b 3c 3a 9f c2 bd 7b 07 fe bd
       -0.09729646 0.018994734 -0.09503026 -0.124037705
000070 c8 82 ff bc 4f e8 db bd 00 69 e0 bd 27 2c 55 be
       -0.031190291 -0.10737669 -0.10957527 -0.20817624
000080 d1 13 96 3d 48 40 0e be 91 0e ce 39 86 20 d7 3d
       0.073279984 -0.13891709 0.00039302235 0.1050425
000090 46 1e 1f 3e 7a a2 25 3d ba d5 6f bd fe 77 d2 bd
       0.15538892 0.040438153 -0.058553435 -0.10276793
0000a0 21 75 8a 3e f1 fa c5 3c 14 97 87 bd 6b 8d 00 3e
       0.27042487 0.02416751 -0.06620613 0.12553947
0000b0 29 38 1d 3e f0 33 7c be 0b 1a ca 3d fc de 89 be
       0.15353455 -0.24629188 0.098682486 -0.26927936
0000c0 0f c3 88 3c 29 48 55 3e b4 25 db 3d 9c 95 37 3d
       0.016694574 0.20828308 0.10700551 0.044820413
0000d0 6f 7f 0d 3e 15 7b 2b 3d e4 fb 90 3e 36 8d b3 be
       0.13818143 0.041865427 0.28317177 -0.35068673
0000e0 a7 d2 ea 3c 6f d7 77 be 96 ff 8b bd d2 1c 65 ba
       0.0286649 -0.24203275 -0.068358585 -0.00087399513
0000f0 eb 1a 81 bd 7e 15 d3 3c 31 5c 0a be bb bb 5d 3e
       -0.06303962 0.025767084 -0.1351173 0.21653645
000100 63 5b 33 3e 70 bf 95 3d 84 08 41 3e 19 cf d3 3b
       0.1751533 0.073119044 0.18850905 0.006463897
000110 19 3d 0a be bb eb 24 be 5e d8 14 3e fe 79 6e 3c
       -0.1349987 -0.16105549 0.14535663 0.014555452
000120 5e 35 d0 3c b2 f3 a9 3d a2 76 7b bd 6f c6 d6 3e
       0.025416072 0.08298434 -0.061392434 0.41948268
000130 d2 e0 f0 3d af 65 24 3d 65 6b 33 be d6 96 00 be
       0.11761631 0.040136036 -0.17521437 -0.1255754
000140 ea 7a 49 be 17 a9 f9 3d 49 9d 4b 3c a5 d7 1c bd
       -0.19675794 0.121904545 0.012427636 -0.038291592
000150 55 b3 54 be 48 87 12 3e dc 11 0b 3d a6 f0 4f 3e
       -0.20771535 0.14309418 0.03395258 0.20306644
000160 72 7a c4 bd b5 f5 be 3e 00 50 86 3e 2a 4e e3 3d
       -0.09593667 0.37296835 0.2623291 0.11098893
000170 68 e0 e1 3d 3f 03 fc 3d c7 93 9d 3d 8b d8 64 bc
       0.1102913 0.12305307 0.07694202 -0.0139676435
000180 02 43 92 3c aa bd 25 bc 45 cb af bc 1b 4a b2 3d
       0.017854217 -0.01011602 -0.021459231 0.08705541
000190 6f b7 a4 bd d5 9a c5 bd f9 18 6a bd bf e8 30 be
       -0.080428 -0.096486725 -0.057152722 -0.17276286
0001a0 f0 60 60 3d 74 b2 7e be 7d 67 3b bb 3a c9 ad bd
       0.054779947 -0.24872762 -0.002859562 -0.084856465
0001b0 00 28 b0 bc 16 13 7e be d1 ea 86 3e 91 b2 09 3c
       -0.021503448 -0.24811968 0.26351026 0.00840439
0001c0 a4 2a e1 3c f3 28 a0 3d 91 f0 25 bd ba 23 9c bc
       0.027486153 0.078203104 -0.040512625 -0.019060005
0001d0 31 d3 4a 3e 74 bd 47 bd cb cf 93 3d cc 3b 6e be
       0.19807126 -0.04876466 0.07217368 -0.23264998
0001e0 10 9e fd bd bd 97 fb be b3 b9 c1 3d 7b 0b 5d bd
       -0.12383664 -0.49139205 0.094592474 -0.053966027
0001f0 a4 2a e7 bd 23 5f 37 3d e8 bd c9 3c f2 f4 f4 3d
       -0.1128743 0.044768464 0.024626687 0.11960782
000200 fe e3 17 3e b5 9a 4c 3e b6 5f 55 3d 18 c3 ee 3d
       0.14833066 0.19980891 0.05209323 0.11658305
000210 d8 70 a1 3d d7 ef 04 bd 20 4b cf bc 39 56 92 3e
       0.07882851 -0.03245529 -0.025304377 0.28581408
000220 34 57 04 3e 94 18 17 3c c4 90 98 be 00 9c 0a 3f
       0.1292389 0.0092221685 -0.29797947 0.5414429
000230 19 21 6e 3e 04 f5 f5 3d 50 d1 db bd aa 0d 4a be
       0.23254813 0.12009624 -0.107332826 -0.19731775
000240 e1 e8 cc be 68 e2 43 be 05 98 88 3e c9 a4 46 be
       -0.40021423 -0.19129336 0.26678482 -0.19398798
000250 f6 5c 11 bf 52 53 c2 3d d3 51 9c be eb 0d 63 3c
       -0.5678247 0.09488548 -0.30531177 0.013858299
000260 73 a6 cc 3d 0c d3 fe 3d 42 cb 79 3e ea 88 d1 bd
       0.09992685 0.12442598 0.24393943 -0.102311924
000270 35 d7 d6 3d 77 8d ca bd ae af 32 3e 29 fb 64 be
       0.10490266 -0.098902635 0.17449829 -0.22361435
000280 93 b6 7d 3b 2f 03 66 3e 7a 76 23 3d e7 1d da 3b
       0.003871356 0.22462152 0.03990791 0.0066563967
000290 c5 2b 99 3d 61 b6 02 be 78 72 87 3c 54 e1 c7 ba
       0.074790515 -0.12764885 0.016534075 -0.0015249648
0002a0 91 f9 96 3e 94 5b 2c 3e 0a 21 08 be b4 f7 e1 3e
       0.2948728 0.1683181 -0.13293853 0.44134295
0002b0 02 3b 5b 3d 8d 0c b7 3d 27 62 2c be b1 47 68 be
       0.05352307 0.08937941 -0.16834317 -0.22683598
0002c0 02 94 ab be 1e b5 75 bd 79 aa cc 3d 27 a0 91 be
       -0.33511358 -0.05998718 0.099934526 -0.284425
0002d0 0b ca e5 be 77 d8 5b bd f9 cc 19 be b5 af 47 bb
       -0.4488071 -0.053673234 -0.15019597 -0.003046972
0002e0 1f ed 0d bd 6c b7 d8 3d 6d 01 88 3c aa 40 d0 bc
       -0.034649964 0.1058186 0.016602242 -0.02542146
0002f0 d7 96 2c 3e b8 7a 06 3d 4a e6 60 3e d6 4f bf be
       0.16854416 0.032831877 0.21962848 -0.37365597
000300 7b 6b 9a 3d 88 ea af 3d 25 02 2c be 94 6f 47 be
       0.075400315 0.08589655 -0.16797693 -0.19476157
000310 00 ed a4 3c 43 65 52 3c 87 32 95 bc 6c 81 09 3e
       0.020132542 0.0128415255 -0.01821257 0.13428277
000320 03 e3 80 bd a3 64 ca 3c 64 c4 16 bc 07 2e 0f bf
       -0.06293299 0.02470619 -0.009202097 -0.5592961
000330 d2 2f 06 be 92 36 6a bc 2b 8e 85 3e f2 f8 b5 3d
       -0.1310418 -0.014295237 0.26085028 0.08885373
000340 ed 3c b3 3b 3e 6e d1 3d a9 b8 af bd 59 09 57 3e
       0.0054699094 0.10226105 -0.08580143 0.2099966
000350 28 1a 22 3e 13 b0 e9 3c 83 59 11 3e 9a 2d fa 3d
       0.1583029 0.028526342 0.14194302 0.12215729
000360 1f ef ba 3b ec 24 9a bd 4d 19 31 3d cd 65 d3 3d
       0.005704775 -0.075265735 0.04323702 0.10322151
000370 75 65 3a 3e 9a 38 87 bd 5c 47 c4 bd be 1a 34 3e
       0.18202765 -0.06602593 -0.09583923 0.17588326
000380 8e 23 21 3e 03 04 7e bd 11 d2 30 3e a3 85 ad bd
       0.1573622 -0.062015545 0.17267634 -0.08472755
000390 eb 83 af be 69 2a 38 3c 70 0e f6 3d d0 d3 05 3e
       -0.34280333 0.01124058 0.120144725 0.13069081
0003a0 74 3e f1 3d 25 60 86 3e f1 28 00 be 72 db b9 3e
       0.1177949 0.26245227 -0.12515618 0.36300236
0003b0 d0 04 e0 3d 38 53 f7 3d 8a 5f 9f bd 5a 83 21 be
       0.10938418 0.120764196 -0.077818945 -0.15772763
0003c0 88 59 11 be 40 c0 90 be 68 54 9f bd 87 e9 c3 be
       -0.1419431 -0.28271675 -0.07779771 -0.38264105
0003d0 cc 43 f2 bd a2 f7 84 3e 16 49 9c be 7e bc 44 3e
       -0.118293375 0.2597018 -0.3052451 0.19212529
0003e0 cb eb 48 3e e1 30 85 3d ea b2 aa bc 10 5d 08 3e
       0.19621198 0.065034635 -0.020837266 0.1331675
0003f0 44 d7 ce bd 8b d6 01 be 47 d1 09 3d dc 8f 5b be
       -0.100996524 -0.12679498 0.033646848 -0.21441597

model.3.bias f4 [16]
000000 39 45 3b be 4f 4a 0a 3d 27 aa 3c 3e 09 dd 90 3e
       -0.18288125 0.033762272 0.18424283 0.28293636
000010 6b 66 74 3e 0c ba 24 3e af 3f 24 3e c2 c4 81 3e
       0.23867194 0.16086596 0.16039918 0.25345427
000020 56 09 50 3d ec bc 0e 3e 20 91 2c 3e bd 41 18 be
       0.050790153 0.13939255 0.16852236 -0.14868827
000030 7f 27 37 be 86 2a 63 3e d1 aa 07 3e 59 bf 96 3d
       -0.1788616 0.2218419 0.13248755 0.073607154

model.5.weight f4 [1, 16]
000000 78 18 c0 bd 5c b9 b6 bd 87 ca c7 3e dc a1 22 be
       -0.09379667 -0.08922073 0.39021704 -0.15882057
000010 b0 b2 14 3e 02 2f a0 3e 2e 42 dd be cd b7 c0 3e
       0.14521289 0.31285864 -0.43214554 0.3764023
000020 0c f1 91 be ee 2d 28 be 13 27 8b be c7 8c 04 be
       -0.28504217 -0.16423771 -0.2717825 -0.12944327
000030 5c ab 51 be 02 ad a1 3e 31 77 7d 3e ab b1 84 be
       -0.20475525 0.31577307 0.24752499 -0.259168

exp_avg f4 [32, 6]
000000 b5 9e eb 36 4f 67 05 ba e2 4a a9 ba d2 8d 6d ba
       7.0220217e-06 -0.00050889415 -0.0012915994 -0.00090619654
000010 5b d9 07 bb 3e d1 d0 bb ba 13 f2 38 b4 12 0b 3a
       -0.002072892 -0.0063726 0.000115431336 0.0005305216
000020 fc cd 26 ba c0 ff d3 ba 58 7b cf ba ea b1 88 bb
       -0.00063630915 -0.0016174242 -0.0015829606 -0.0041715996
000030 78 f1 0a ba 84 76 a6 bb 3e 68 3d bc 19 6d 34 bc
       -0.0005300264 -0.005080046 -0.011560498 -0.011012339
000040 e8 08 30 bc 00 b4 54 bc 4a 18 95 37 c0 f1 33 3a
       -0.010744311 -0.0129823685 1.7773495e-05 0.00068643317
000050 23 4f d9 b9 96 73 45 ba 9f 29 52 ba 5b 8a 56 bb
       -0.00041448427 -0.0007532177 -0.0008017066 -0.0032736275
000060 66 d9 3e b8 da e3 b2 b7 72 c0 84 b8 e2 54 46 b9
       -4.5501998e-05 -2.1325355e-05 -6.330096e-05 -0.00018914373
000070 bf 8f 7d 38 3d fa ca 38 33 83 d9 37 f2 ff 83 39
       6.0453774e-05 9.678721e-05 2.592951e-05 0.0002517696
000080 b2 32 98 3a 36 83 63 3a 50 72 ad 3a 3c 51 af 3b
       0.0011611788 0.0008678915 0.001323292 0.00535026
000090 d1 37 ad b8 33 2f 22 3a c7 b8 6f 38 71 77 d6 ba
       -8.2596795e-05 0.0006186843 5.7154128e-05 -0.0016362501
0000a0 9d 7e 64 ba 02 5e 16 ba 05 2d 99 b7 10 9c 7a ba
       -0.00087163766 -0.0005736054 -1.8259985e-05 -0.0009559998
0000b0 e4 a0 0b bb 95 d6 fa ba b3 ef 10 bb ac 24 a7 bb
       -0.0021305615 -0.0019137437 -0.0022115528 -0.005100807
0000c0 ce b4 ee b7 de 51 2e 3b 66 50 a6 ba f6 0e 98 38
       -2.8456005e-05 0.002659909 -0.0012688756 7.2507115e-05
0000d0 b2 23 00 ba 79 24 73 bb 3a e2 cd 39 ff 4d ea 3a
       -0.00048881315 -0.0037100597 0.000392692 0.0017876028
0000e0 a5 6e b3 ba 6e eb d8 ba ca 59 6f b8 ce 5a a9 3b
       -0.0013689591 -0.0016549656 -5.7065663e-05 0.0051682955
0000f0 02 bc a5 b7 a6 ac 6b 3b ff 23 7e 3b 30 d5 5d 3b
       -1.975708e-05 0.003596106 0.003877878 0.0033848993
000100 ab 97 77 3b d4 fc c7 3a 60 ac 1c 39 35 a8 db 3b
       0.003777961 0.0015257844 0.00014941534 0.0067034015
000110 0f c2 49 bc 27 95 7a bc da d6 ee bb 88 cb 34 3c
       -0.012314334 -0.01529435 -0.007288796 0.011034854
000120 ca bc ac 39 21 de 03 3b af fc bf ba 17 62 15 38
       0.00032947055 0.0020121413 -0.0014647449 3.561572e-05
000130 a1 4b 73 39 5c 9e 29 38 d4 0d ef 39 20 c0 34 3a
       0.0002320246 4.0440224e-05 0.00045595935 0.0006895084
000140 b3 80 49 ba 1a 12 f1 b9 53 d0 cf b9 95 48 7e 3b
       -0.0007686719 -0.0004598059 -0.0003963733 0.0038800586
000150 5f 95 b3 39 62 ff fa 3b ac af 7b 3c c5 9a 29 3c
       0.0003425283 0.0076598385 0.015361708 0.010351841
000160 f1 04 33 3c 49 39 77 3b 5e 07 80 39 14 72 3f 3b
       0.010926471 0.0037723354 0.00024419551 0.0029212283
000170 57 6a af 3b cf 91 9b 3b 6e 81 76 3b b2 0d 83 3b
       0.005353253 0.0047476063 0.0037613767 0.0039994353
000180 1f cf 12 ba fa c1 e2 bb 82 88 34 ba 9e b2 02 bb
       -0.00056003215 -0.0069200965 -0.00068867963 -0.001994289
000190 2a 07 0e bb 7d d3 61 bb a2 56 60 38 ea 48 b3 b8
       -0.002167175 -0.0034458332 5.3486445e-05 -8.5489664e-05
0001a0 ef 5f 10 3b db 3b 0d 3b fa 9a 55 3a c1 6b 5c 3b
       0.0022029837 0.002155057 0.00081483985 0.0033633562
0001b0 bd 44 4e b9 62 74 20 bb a6 30 2e bb 52 7a 31 bb
       -0.00019671298 -0.0024483432 -0.002657929 -0.0027080965
0001c0 50 43 1a bb 6a dd d3 ba 8f 1a 0d 39 fa a1 e4 3b
       -0.0023538657 -0.0016164009 0.00013456702 0.006977317
0001d0 50 ce 72 3c 6d a9 3a 3c 4d 7e 29 3c 60 24 ef 3a
       0.014819697 0.011392933 0.010345054 0.0018245094
0001e0 fd 99 71 b9 39 63 ba b8 de b7 88 b9 77 33 3a ba
       -0.00023040916 -8.887653e-05 -0.00026076933 -0.0007103006
0001f0 56 1d 3f b8 17 64 a8 b9 9f 05 fe b9 8b ab ef bb
       -4.556527e-05 -0.0003211803 -0.00048450843 -0.0073141507
000200 40 92 05 bc b1 83 05 bc 10 d1 12 bc d1 8c 3d bc
       -0.0081525445 -0.008149073 -0.008960977 -0.011569218
000210 27 23 f7 38 b5 a1 6b ba bd e2 07 ba c7 b7 8f b7
       0.000117844254 -0.0008988635 -0.0005183628 -1.7132506e-05
000220 6c e7 a7 b9 b6 77 6f ba f0 de 45 b9 e9 b0 24 3b
       -0.00032025145 -0.0009134965 -0.00018870435 0.002512986
000230 8a 96 d3 ba 4d c3 f0 ba d4 e9 19 bb cb b3 12 bc
       -0.0016142887 -0.0018368751 -0.002348532 -0.008953999
000240 39 b5 72 b9 6b 5f 06 bb a4 4e 28 bb c5 24 36 bb
       -0.00023146429 -0.002050365 -0.002568164 -0.0027792912
000250 1c b2 0a bb 3c ec b3 ba 08 de 3a 3a f6 0e 61 3b
       -0.002116329 -0.001372702 0.0007128422 0.0034341193
000260 4a 6e dd bb 52 0a 92 bb 86 0b ba bb 30 38 06 bc
       -0.0067575322 -0.0044567967 -0.005677643 -0.008192107
000270 da 77 b9 b8 ca a8 83 ba ab 97 80 bb 65 51 1f bb
       -8.8438115e-05 -0.001004481 -0.00392433 -0.002430999
000280 2b dd 42 bb f4 04 86 ba a6 ae 61 36 a1 d2 42 ba
       -0.0029733877 -0.0010224865 3.3629271e-06 -0.0007431899
000290 d1 d1 b2 b9 b3 04 10 ba 0a c2 ba ba 9f cc b0 bb
       -0.0003410713 -0.00054938643 -0.0014248502 -0.0053954865
0002a0 04 00 00 00 04 00 00 80 04 00 00 80 04 00 00 80
       6e-45 -6e-45 -6e-45 -6e-45
0002b0 04 00 00 80 04 00 00 80 5c 2f 4d b7 47 ea 7c b8
       -6e-45 -6e-45 -1.2229979e-05 -6.029967e-05
0002c0 44 a6 9c 37 79 be c4 39 73 86 32 38 d3 a8 ff 38
       1.8674073e-05 0.00037525946 4.2563723e-05 0.000121907935
0002d0 97 09 43 39 16 08 13 b9 37 d3 3b bb 3a 90 eb ba
       0.00018600222 -0.00014022025 -0.002865983 -0.001797206
0002e0 03 c6 2a bb f3 77 cb bb 93 4d e2 38 50 a0 88 bb
       -0.0026057966 -0.0062093674 0.00010790969 -0.0041695014
0002f0 3d 49 96 3b b2 5e 9a 3b 86 b1 83 3b 26 cc 86 3c
       0.0045863674 0.0047109956 0.004018965 0.016454767

exp_avg_sq f4 [32, 6]
000000 dd 85 85 36 98 c7 3c 39 0c 6b 92 39 42 72 c4 38
       3.9792926e-06 0.00018003432 0.00027927046 9.3672905e-05
000010 b4 67 4a 39 d9 55 f9 3a 0e 97 37 36 3e 2b 30 39
       0.00019302854 0.0019022777 2.735705e-06 0.00016800777
000020 c9 4e a2 38 7f 55 60 38 ac 2a 15 39 db 01 ea 3a
       7.739437e-05 5.3485386e-05 0.00014225644 0.0017853336
000030 3b 62 1c 38 0e 5a 2a 3b cc 57 23 3b 45 7a cb 3a
       3.7284783e-05 0.0025993618 0.0024924157 0.001552411
000040 90 c4 e8 3a 35 6d 52 3c 5e 58 2d 35 11 87 9b 38
       0.0017758776 0.01284342 6.4576113e-07 7.416134e-05
000050 15 d8 49 38 ec 1a b9 37 0d da 27 38 7e a8 11 3a
       4.8123376e-05 2.2066255e-05 4.001898e-05 0.00055564183
000060 99 34 04 35 86 ea b3 34 c2 82 b5 34 83 7f c8 34
       4.925037e-07 3.3511986e-07 3.3809016e-07 3.734568e-07
000070 a9 1f c3 34 e9 72 64 34 9e ad 88 36 fe 43 88 38
       3.6344616e-07 2.1275959e-07 4.0733275e-06 6.49765e-05
000080 73 5f fb 39 aa 3e 3a 39 d2 d5 13 39 1e 83 ce 3a
       0.00047945566 0.00017761686 0.00014098667 0.0015755629
000090 13 dc 6c 36 6d 09 45 39 d4 05 92 39 8e 40 e3 38
       3.529484e-06 0.00018790895 0.00027851632 0.00010836228
0000a0 de 02 19 39 89 5f 9d 3a 26 4b 87 35 49 76 13 38
       0.00014592285 0.0012006621 1.0080155e-06 3.5157693e-05
0000b0 fd 92 57 38 46 f2 da 37 78 33 74 38 61 ea 43 3a
       5.1396888e-05 2.6100442e-05 5.8222067e-05 0.0007473585
0000c0 e7 25 b9 36 c8 82 bf 39 ea 29 be 39 5a fe 7c 38
       5.517842e-06 0.00036527799 0.00036270852 6.0318365e-05
0000d0 6e fd 6f 39 ea 3a 74 3b cd 5e e7 36 5b 3b fe 39
       0.00022887226 0.003726656 6.8953727e-06 0.00048490879
0000e0 ce de e6 39 32 62 a0 39 e8 cd 9f 39 c1 cf a6 3a
       0.0004403502 0.0003059074 0.00030480255 0.001272671
0000f0 10 5f 26 37 63 88 74 39 62 e6 45 3a 11 a6 bb 39
       9.9165045e-06 0.00023320461 0.00075492833 0.0003579115
000100 d0 1c 95 39 65 10 b2 3a 05 df 79 39 08 b2 99 3c
       0.00028440962 0.0013585208 0.00023829572 0.01876165
000110 72 53 90 3c 35 51 3c 3c d1 a6 41 3c 0e 67 a6 3d
       0.017617915 0.011493971 0.011819557 0.08125125
000120 a5 38 eb 36 9e 06 e1 39 9f 1e 15 3a 2c a4 f8 38
       7.01014e-06 0.00042920274 0.0005688462 0.00011856141
000130 f5 b4 6f 39 04 b6 5e 3b 63 3b 00 37 ea 7b 7c 3a
       0.00022860228 0.0033983001 7.643222e-06 0.0009631502
000140 e2 53 ac 39 dc aa bd 39 c6 b6 d1 39 1a 2f f9 3a
       0.00032868894 0.0003617619 0.00039999763 0.001901123
000150 cb a2 7f 38 73 fc 95 3b b6 34 73 3b 56 53 a2 3a
       6.094835e-05 0.0045772134 0.0037110276 0.0012384455
000160 53 20 19 3b 3b 95 8d 3c 56 ca a2 37 87 3d ec 39
       0.0023365214 0.017283073 1.9406125e-05 0.0004505927
000170 69 82 bb 3a 9b c5 5b 3a c6 20 0f 3a 90 60 27 3b
       0.0014305833 0.00083836325 0.0005459901 0.0025539733
000180 50 c6 0a 38 3a f9 6a 3b 47 ce 2a 3b 75 4d 4f 39
       3.3086457e-05 0.0035854117 0.0026062892 0.00019769913
000190 6f 16 c4 3a 84 1c b3 3c 48 f4 ce 36 17 15 de 37
       0.0014960299 0.021864183 6.1677165e-06 2.6474283e-05
0001a0 cc b7 10 3a 62 2f aa 39 87 d8 c8 38 6f cb c8 3a
       0.0005520552 0.0003246023 9.5770745e-05 0.0015319417
0001b0 67 a8 9b 35 fa ae d3 38 b7 2c fb 38 d6 98 61 39
       1.1597411e-06 0.00010093856 0.000119769415 0.00021514608
0001c0 a4 31 bf 38 88 31 fa 37 7a c7 f6 37 3e e7 42 3b
       9.116836e-05 2.9825387e-05 2.9418374e-05 0.0029739882
0001d0 44 bc 46 3b 91 ad 6e 3a 8b 20 ca 3a 36 75 3e 3c
       0.0030324617 0.0009104843 0.0015421076 0.011624625
0001e0 14 f7 ff 35 10 8e 1c 36 77 a9 19 36 5f 0a 15 36
       1.907089e-06 2.3328503e-06 2.2897418e-06 2.2208767e-06
0001f0 d6 c9 29 36 38 7c 82 35 e5 3a b6 37 4b 9f f8 3a
       2.5300446e-06 9.721907e-07 2.1723516e-05 0.0018968371
000200 8d a2 e5 3a b9 00 97 3a d4 0d ab 3a 2a e2 10 3c
       0.0017519757 0.0011520601 0.0013050386 0.008842984
000210 67 fe 52 36 79 37 1f 39 76 c0 33 36 bb eb f1 37
       3.144052e-06 0.00015184087 2.6785106e-06 2.883921e-05
000220 4b 82 9d 37 e8 be 10 3a a0 b4 9e 37 94 cc 65 3a
       1.877653e-05 0.00055216113 1.8919178e-05 0.0008766141
000230 f9 81 b9 3a 09 a5 d2 39 49 e2 58 3a 40 b0 da 3b
       0.0014153115 0.00040177282 0.0008273465 0.0066738427
000240 c2 f7 5b 36 ef 83 2f 39 57 c4 71 39 19 b2 48 39
       3.2777757e-06 0.0001673845 0.00023056693 0.00019139833
000250 39 a2 15 39 e7 b3 cd 39 33 56 4a 38 1b a7 41 3b
       0.0001427018 0.00039234685 4.8240832e-05 0.0029549066
000260 3f 2f 39 3b 4e 06 81 3a e8 1e 07 3b c1 af 84 3c
       0.002825692 0.0009843798 0.0020617787 0.016197087
000270 87 d2 36 37 e9 34 2f 3a 1f e8 41 3a 37 ad b7 39
       1.0897063e-05 0.00066836044 0.00073969545 0.00035033535
000280 93 aa 02 3a f8 6d 79 3b e9 5a 88 36 df a4 9c 39
       0.0004984524 0.0038059931 4.063699e-06 0.00029877477
000290 39 1b 98 39 a8 29 6f 38 2f d1 4a 39 4f 46 48 3b
       0.00029011982 5.7020836e-05 0.00019342148 0.0030559485
0002a0 39 4f 13 30 1c 04 a0 2f 60 93 9e 2f 8f e8 89 2f
       5.359087e-10 2.910675e-10 2.884475e-10 2.5085398e-10
0002b0 6b 12 ab 2f 48 7c 16 2f e7 47 5e 35 80 3c 92 35
       3.1117806e-10 1.3686574e-10 8.2806076e-07 1.0895455e-06
0002c0 72 6e b8 35 9b 84 bc 37 cd 66 8a 35 97 8d 18 35
       1.3741212e-06 2.2473096e-05 1.031172e-06 5.6830453e-07
0002d0 cc 20 bc 36 78 81 e1 39 43 5b 1a 3a 31 47 80 39
       5.6066547e-06 0.00043011806 0.0005888233 0.00024467104
0002e0 3e 55 b7 39 ea 39 34 3b 15 2b 03 38 e3 2c 05 3b
       0.0003496799 0.002750034 3.1272957e-05 0.0020320944
0002f0 bd 92 c6 3a 42 7f 35 3a 7c e7 81 3a 8e 12 88 3c
       0.0015149933 0.0006923565 0.0009910907 0.01661041

exp_avg f4 [32]
000000 f6 22 6e b7 73 01 6f ba 50 d7 35 bb 45 61 b9 b8
       -1.4194045e-05 -0.00091173424 -0.0027746744 -8.839605e-05
000010 3c 66 bf 39 1e 70 71 b8 fc 71 bb b9 78 56 8e b9
       0.0003650653 -5.7563295e-05 -0.00035752344 -0.00027148775
000020 72 bc 01 b9 d0 f6 53 38 96 05 7e 3a 67 11 ae bb
       -0.000123726 5.0536182e-05 0.00096901634 -0.005312133
000030 66 0b 37 39 67 07 17 ba eb e6 4a 3b 0a 82 4d 38
       0.00017456486 -0.0005761296 0.0030960392 4.8996917e-05
000040 22 ba 87 ba ee aa be 3a 74 37 36 ba ab 44 a8 3b
       -0.0010355155 0.0014546791 -0.0006951012 0.005135139
000050 ab cd da 39 bb 97 14 bb 83 b8 ba 3a 8f ea 4e ba
       0.00041733435 -0.0022673446 0.0014245663 -0.00078932283
000060 af a6 6a ba 24 b4 1f bb c2 27 64 ba 59 55 76 38
       -0.00089512294 -0.0024368847 -0.0008703434 5.8730457e-05
000070 04 00 00 00 31 99 ce 39 b1 83 29 b9 7e 5b d4 3a
       6e-45 0.00039405518 -0.00016166155 0.0016201583

exp_avg_sq f4 [32]
000000 36 5b 90 37 95 0d 4f 37 23 8b 18 39 f9 bc 4b 36
       1.7208611e-05 1.2341324e-05 0.00014547682 3.0359354e-06
000010 54 56 19 36 69 8f 46 37 c1 36 6f 37 7d bb 80 36
       2.2849026e-06 1.183511e-05 1.42582585e-05 3.836524e-06
000020 33 cb 8c 37 fe 31 e3 37 4d a8 2b 38 8c 51 8e 3a
       1.6783923e-05 2.7083788e-05 4.092632e-05 0.0010858043
000030 c8 15 ae 37 b8 98 f4 37 89 1f 5c 39 2b 1b 76 38
       2.0752559e-05 2.9158182e-05 0.00020992583 5.8676273e-05
000040 33 19 d9 38 77 36 bd 37 fc 51 1c 37 fd dd 24 39
       0.0001035206 2.2555918e-05 9.317413e-06 0.00015722956
000050 81 6f 06 37 51 80 cf 38 c8 20 8c 37 77 d0 a4 38
       8.012984e-06 9.89443e-05 1.6704565e-05 7.858959e-05
000060 b7 fc 85 37 23 b2 4e 39 d0 b9 3f 38 c7 0f 79 37
       1.5972515e-05 0.00019712052 4.5711e-05 1.484523e-05
000070 39 4f 13 30 38 b8 40 36 96 b6 d3 37 02 ef cc 38
       5.359087e-10 2.871746e-06 2.5238183e-05 9.771997e-05

exp_avg f4 [16, 32]
000000 04 00 00 00 11 00 00 00 0c 00 00 00 04 00 00 00
       6e-45 2.4e-44 1.7e-44 6e-45
000010 00 00 00 00 04 00 00 00 04 00 00 00 16 00 00 00
       0.0 6e-45 6e-45 3.1e-44
000020 04 00 00 00 0b 00 00 00 04 00 00 00 08 00 00 00
       6e-45 1.5e-44 6e-45 1.1e-44
000030 04 00 00 00 04 00 00 00 04 00 00 00 04 00 00 00
       6e-45 6e-45 6e-45 6e-45
000040 04 00 00 00 00 00 00 00 04 00 00 00 04 00 00 00
       6e-45 0.0 6e-45 6e-45
000050 00 00 00 00 0d 00 00 00 00 00 00 00 0c 00 00 00
       0.0 1.8e-44 0.0 1.7e-44
000060 04 00 00 00 0b 00 00 00 04 00 00 00 04 00 00 00
       6e-45 1.5e-44 6e-45 6e-45
000070 00 00 00 00 04 00 00 00 0d 00 00 00 04 00 00 00
       0.0 6e-45 1.8e-44 6e-45
000080 56 6b 89 3a 58 9f 2b 3a 49 cf 03 3a 58 06 32 3a
       0.0010484259 0.00065468764 0.00050281413 0.00067911064
000090 e8 37 d1 b5 a8 04 d9 38 e5 3d 8c 39 26 86 3a 3a
       -1.5587984e-06 0.000103482336 0.00026748996 0.00071153266
0000a0 fb 87 65 3a 39 2a ce 37 52 31 c8 b5 8e b4 08 3a
       0.00087559194 2.4576775e-05 -1.4915515e-06 0.0005214893
0000b0 42 d0 1f b8 54 f7 1b 37 5e 30 60 37 a9 aa 2a 38
       -3.810251e-05 9.2963055e-06 1.3362702e-05 4.0690098e-05
0000c0 c9 7f fc 38 09 6f 59 38 2c 41 2b 38 20 72 46 38
       0.00012040098 5.184024e-05 4.0830273e-05 4.7313166e-05
0000d0 c9 4c 46 37 14 ab 42 3a 5c d7 5a b5 9e 54 d2 38
       1.1819598e-05 0.00074260053 -8.152472e-07 0.000100293415
0000e0 55 ed f2 38 f2 1b 89 39 55 2c 3c 39 7a 4d 67 3a
       0.00011583666 0.00026151497 0.00017945592 0.00088234956
0000f0 04 00 00 80 e6 b6 c2 38 5e 44 50 3a 11 27 11 39
       -6e-45 9.284708e-05 0.0007944758 0.00013842831
000100 60 23 86 bb 87 ba 97 bb 95 07 89 bb e1 54 ec ba
       -0.0040935725 -0.00463039 -0.004181812 -0.0018030667
000110 69 e4 59 b8 65 1b 02 bb c7 63 b7 ba 5f ed 13 bc
       -5.1949555e-05 -0.0019852754 -0.0013991528 -0.009028762
000120 fd 11 89 bb ae a9 93 bb 49 cb a0 ba 2f fa 01 bb
       -0.0041830526 -0.0045063114 -0.0012267615 -0.001983296
000130 2b ab 03 39 94 7c 9d ba 13 46 ee ba f6 c1 ab ba
       0.00012556899 -0.0012015277 -0.0018178843 -0.001310407
000140 fe 21 09 ba aa ed 6b ba d7 e3 36 ba 50 64 00 bb
       -0.00052312005 -0.0008999953 -0.00069767 -0.001959104
000150 e1 cd b6 b8 34 b2 c6 bb 01 60 a6 b7 0f db 15 ba
       -8.716784e-05 -0.006063724 -1.9833447e-05 -0.0005716541
000160 54 8e 0e bc 86 ee 22 bb b2 a1 2d bb 2a 88 c2 bb
       -0.008700926 -0.002486141 -0.0026494083 -0.005936642
000170 04 00 00 00 d7 6c 41 ba 87 bd 4d bb af 9c 85 ba
       6e-45 -0.0007378584 -0.0031393485 -0.001019379
000180 4b 95 46 3a 59 2e d2 39 c2 b6 3f 39 fc 35 b7 39
       0.0007575347 0.00040088853 0.00018283262 0.00034944701
000190 aa 9f 8f 35 56 3f e4 38 85 4b 3b 39 4d 60 aa 39
       1.0700799e-06 0.000108836844 0.00017861843 0.00032496676
0001a0 6b c9 ae 39 6b 84 07 38 c5 ac 5d 39 0f b4 8b b8
       0.00033337934 3.2309832e-05 0.00021140564 -6.661575e-05
0001b0 40 08 80 b9 18 30 e0 36 65 c5 99 38 5a 86 b2 38
       -0.0002442021 6.681319e-06 7.332376e-05 8.512726e-05
0001c0 0c db 20 39 0e e9 bd 38 41 0c ad 38 15 d0 6a 39
       0.0001534039 9.055632e-05 8.251565e-05 0.00022393496
0001d0 a4 0d ae 37 d4 5e b2 39 77 51 8c b6 15 69 ce 37
       2.0748768e-05 0.00034021458 -4.181809e-06 2.4606046e-05
0001e0 8f 53 dd 38 02 15 c2 37 6b 07 73 39 36 f3 40 39
       0.00010553665 2.3136385e-05 0.0002317705 0.0001840115
0001f0 04 00 00 80 7c 98 82 39 3f cc a3 39 47 f6 da 38
       -6e-45 0.00024909142 0.00031241958 0.00010440923
000200 b4 ae c4 ba 9a 60 e2 ba 2f 24 cc ba bf 27 33 ba
       -0.0015005679 -0.0017271221 -0.0015574748 -0.0006834231
000210 b4 7a cf 38 3e 5a 5d ba 57 82 05 ba bc 90 5b bb
       9.8933844e-05 -0.0008443928 -0.00050929695 -0.0033503016
000220 c3 3e d3 ba 3b 33 d9 ba 77 07 09 ba 4b 66 3b ba
       -0.0016116727 -0.0016571054 -0.00052272476 -0.0007148727
000230 0a c2 97 b6 74 cf e5 b9 de 7a 3a ba d1 d6 19 ba
       -4.52274e-06 -0.00043832848 -0.00071136456 -0.0005868497
000240 72 20 3b b9 9a 10 b9 b9 93 52 80 b9 8e 24 47 ba
       -0.00017845797 -0.0003529832 -0.00024475585 -0.00075966946
000250 b3 f7 0b b6 cd 48 15 bb 8f 84 da b7 b1 3d 4a b9
       -2.0856794e-06 -0.0022778988 -2.6049353e-05 -0.00019287203
000260 a7 75 52 bb 9f 2e 73 ba 43 05 82 ba f1 de 14 bb
       -0.0032113583 -0.00092766614 -0.0009919781 -0.0022715891
000270 04 00 00 00 65 18 4b b9 c4 08 99 ba 53 9c df b9
       6e-45 -0.00019368676 -0.0011675586 -0.00042650345
000280 9d 9f f7 ba 50 9f 18 bb 73 63 31 bb 94 71 bf ba
       -0.0018892173 -0.0023288317 -0.0027067333 -0.0014605992
000290 00 e1 98 39 ba 00 f3 b7 7d 78 52 ba 09 1f b2 bb
       0.00029159337 -2.8968196e-05 -0.00080288184 -0.0054358286
0002a0 5f 9c 4f bb 66 cb 5b bb 59 b5 7e b9 a6 88 cb ba
       -0.0031678898 -0.0033537983 -0.00024290885 -0.0015528395
0002b0 de 8b 1d 3a d6 0c 7b ba 68 c3 09 b9 09 64 5b b9
       0.00060099165 -0.0009576803 -0.00013138133 -0.00020922734
0002c0 ad e5 d2 39 73 0f 71 37 75 b0 c9 b9 78 37 27 ba
       0.00040225443 1.4368316e-05 -0.00038469178 -0.000637881
0002d0 72 81 72 37 0d bf 65 bb dc cd 9d b6 c8 98 f5 37
       1.4454463e-05 -0.0035056502 -4.70293e-06 2.927742e-05
0002e0 8f 15 cd bb fb 5a b1 ba e5 62 a7 ba 33 9f 54 bb
       -0.0062586735 -0.0013531143 -0.0012770562 -0.0032443523
0002f0 00 00 00 00 a4 09 e6 b8 14 0b bc ba d5 09 95 b9
       0.0 -0.0001096905 -0.0014346563 -0.0002842682
000300 31 9b 0e 3b 64 98 5b 3b 25 be 42 3b bf d5 e5 38
       0.0021759982 0.003350758 0.0029715386 0.00010959384
000310 69 b8 f9 37 a8 9b f6 3a aa 0c 8e 3a a1 32 01 3c
       2.9768986e-05 0.00188147 0.0010837514 0.007885606
000320 d7 fb 04 3b 2a ef aa 3b de 5e ad 3a f5 ef 79 38
       0.002029171 0.005216499 0.0013227125 5.9589704e-05
000330 2c df fb 39 d0 91 b2 3a 2a a0 04 3b a9 03 bc 3a
       0.00048040727 0.0013623778 0.0020237067 0.0014344353
000340 aa 04 2f 3a 5e 8d 81 3a b6 fd 4c 3a 9b 0d 0f 3b
       0.0006676415 0.000988405 0.00078197883 0.0021828178
000350 f6 c3 70 38 4a 4d 8e 3b fa 75 61 34 0c 6f df 39
       5.7402962e-05 0.0043427097 2.0997678e-07 0.0004261661
000360 f8 b3 21 3c 54 1b f6 3a 33 a0 4e 3b 0b f9 74 3b
       0.009869568 0.0018776455 0.0031528592 0.0037379886
000370 04 00 00 80 1f fd 48 3a ce 8c 87 3a d6 72 70 3a
       -6e-45 0.00076671125 0.0010341646 0.00091723853
000380 76 b9 80 bb 7c 8d 8d bb f6 ef 83 bb 8e 0d ec ba
       -0.0039283587 -0.004319845 -0.0040264083 -0.0018009411
000390 5d ec 3b b8 d8 93 0d bb cf 07 ae ba a1 33 0e bc
       -4.4804405e-05 -0.0021603014 -0.0013277474 -0.0086793015
0003a0 2f 19 8b bb ea e5 8d bb ce 85 ae ba 97 06 ec ba
       -0.0042449455 -0.0043303864 -0.0013315023 -0.0018007335
0003b0 7e 46 64 b9 cf fd 96 ba 2e c0 ef ba 2a 0f ca ba
       -0.00021770035 -0.0011519733 -0.0018291527 -0.0015415896
0003c0 3a 7a e9 b9 7a 42 5d ba c7 dc 25 ba dd 8c f7 ba
       -0.0004453229 -0.0008440387 -0.0006327149 -0.0018886585
0003d0 18 45 6e 36 67 7c bf bb b6 21 44 37 68 b8 eb b9
       3.5504981e-06 -0.0058436873 1.1690359e-05 -0.00044960086
0003e0 a7 ff 08 bc e4 fd 1b bb af 84 26 bb 1e 85 bd bb
       -0.0083617335 -0.0023802454 -0.0025408675 -0.005783691
0003f0 04 00 00 00 9d 79 02 ba a2 41 46 bb 63 b5 97 ba
       6e-45 -0.0004977228 -0.0030251523 -0.0011574443

exp_avg_sq f4 [16, 32]
000000 55 2d 0e 33 0c a6 98 34 2a dc 9d 33 7b 94 32 34
       3.310318e-08 2.843302e-07 7.35093e-08 1.6631559e-07
000010 00 00 00 00 88 cb f9 30 51 14 23 33 83 bb 9f 34
       0.0 1.8174982e-09 3.7969873e-08 2.975249e-07
000020 1b f5 11 34 6b 39 1c 33 57 c8 bc 2f ed f9 97 33
       1.3593346e-07 3.63738e-08 3.433935e-10 7.076947e-08
000030 b7 64 89 33 52 63 1c 32 73 52 f1 32 5a 1c 75 2e
       6.3978796e-08 9.102978e-09 2.8093586e-08 5.573173e-11
000040 26 ba 10 32 00 00 00 00 ab 7d 89 31 3f 54 c0 30
       8.424228e-09 0.0 4.0015116e-09 1.3993783e-09
000050 00 00 00 00 2c 99 a7 33 00 00 00 00 a9 ca d0 32
       0.0 7.804405e-08 0.0 2.4306546e-08
000060 b2 c4 5c 33 a5 c4 0b 32 a3 a2 f4 33 f8 a0 dc 32
       5.1401635e-08 8.135577e-09 1.1391719e-07 2.5684571e-08
000070 00 00 00 00 76 d3 a2 2f 88 c9 32 34 db 19 70 30
       0.0 2.961788e-10 1.6650858e-07 8.7348234e-10
000080 f6 76 b7 37 3d 95 1c 37 a5 11 96 36 e5 8a 40 37
       2.1870695e-05 9.333072e-06 4.4724025e-06 1.1476431e-05
000090 14 d6 f0 33 fd ec b0 35 27 52 19 36 e1 81 55 37
       1.12148115e-07 1.3181995e-06 2.2846596e-06 1.2726029e-05
0000a0 06 ed 9d 37 bd 7c 2b 35 b5 a3 b3 34 26 b1 20 37
       1.8826231e-05 6.388398e-07 3.346046e-07 9.577989e-06
0000b0 fa a3 ac 37 bb 71 80 33 cd 7c 82 35 85 d5 8b 35
       2.0580355e-05 5.981152e-08 9.722077e-07 1.0418449e-06
0000c0 0a a5 fb 35 57 d6 87 34 11 1b 10 34 5c 7e 12 35
       1.874899e-06 2.5301662e-07 1.3420892e-07 5.4573115e-07
0000d0 94 3a 7d 32 1f c8 50 37 7f 02 81 33 2e 5d a0 34
       1.4739857e-08 1.244436e-05 6.0074846e-08 2.987012e-07
0000e0 8e e4 0d 36 f3 37 d2 35 7f 7a 11 37 d8 88 a2 37
       2.1143674e-06 1.5662503e-06 8.671194e-06 1.9375628e-05
0000f0 20 e9 ab 26 62 36 c0 34 7f 0f 8b 37 96 f2 9a 35
       1.1928697e-15 3.5802356e-07 1.6577307e-05 1.1544496e-06
000100 16 03 13 3b fc 12 fd 3a 90 a2 f1 39 c8 e4 d7 39
       0.002243226 0.0019308026 0.0004608822 0.0004117845
000110 a6 b9 56 36 96 60 b0 39 f6 a2 37 3a c3 51 35 3b
       3.1996547e-06 0.00033641298 0.0007005179 0.0027667142
000120 e0 d9 0c 3a 40 5c ea 39 50 3f eb 38 71 23 c0 39
       0.0005373042 0.0004470069 0.00011217466 0.000366475
000130 c1 1b 20 3a 6d 60 0e 39 1f 42 c0 39 3d de 0f 39
       0.0006107651 0.00013578097 0.00036670358 0.00013720333
000140 09 50 d3 38 ab b3 c4 37 b3 f6 ba 37 db 45 39 39
       0.00010076172 2.3448685e-05 2.2287806e-05 0.00017668998
000150 f2 ad 00 35 7e 60 af 3a 4a 4d eb 35 a1 ce 9f 39
       4.793684e-07 0.0013380197 1.7531358e-06 0.00030480794
000160 99 af 45 3a 2f 3b 1f 39 3c cb 91 3a 85 c0 90 3a
       0.00075411197 0.00015185469 0.0011123191 0.0011043703
000170 42 0e 4e 2c e9 99 53 37 b1 50 b8 3a 33 29 3e 38
       2.9282275e-12 1.2612415e-05 0.0014062134 4.53379e-05
000180 0a 11 d5 38 2c 1a cf 38 b9 6b 9b 37 5e bb 26 38
       0.00010159805 9.875404e-05 1.8527602e-05 3.9751983e-05
000190 09 c9 32 35 c1 ba a0 37 e7 4d 73 37 a6 05 bf 38
       6.660271e-07 1.916045e-05 1.4502067e-05 9.108642e-05
0001a0 0c ef 4a 38 f2 b4 0c 35 47 7d c7 36 ba 9e ad 37
       4.8383183e-05 5.2417374e-07 5.9452464e-06 2.069712e-05
0001b0 62 65 4f 38 e8 35 ef 34 9f 5e e6 37 7c ea 0b 37
       4.9447066e-05 4.455644e-07 2.7462198e-05 8.339641e-06
0001c0 66 61 57 37 3b 87 e6 35 ac 59 1c 34 aa 35 34 37
       1.2837676e-05 1.7175693e-06 1.4561255e-07 1.0741331e-05
0001d0 ef 87 d4 33 31 99 7f 38 c6 19 ba 34 d2 89 13 36
       9.8967455e-08 6.093941e-05 3.4663952e-07 2.198493e-06
0001e0 a2 03 e6 35 27 38 fd 35 b2 b9 64 38 3d 7e 96 38
       1.7137393e-06 1.8866311e-06 5.453238e-05 7.176071e-05
0001f0 6c 36 e3 29 fe 56 0b 36 68 d2 c1 38 df f9 9a 36
       1.0090266e-13 2.076325e-06 9.2421484e-05 4.6186465e-06
000200 55 e1 8a 39 67 f8 68 39 33 9d 5c 38 01 d2 50 38
       0.00026489297 0.00022217781 5.259849e-05 4.9786646e-05
000210 0c f5 33 33 2b f7 18 38 33 03 b1 38 2c 26 b2 39
       4.1899554e-08 3.6469817e-05 8.4406136e-05 0.00033979246
000220 0a 3e 8c 38 fa 37 61 38 fc e6 56 37 c7 b3 37 38
       6.687276e-05 5.3696313e-05 1.2809174e-05 4.379803e-05
000230 b7 4d a1 38 1f 8c 8a 37 ad b8 2a 38 a5 bf 81 37
       7.691554e-05 1.6516131e-05 4.070315e-05 1.546724e-05
000240 c0 3a 4a 37 74 2f 17 36 a2 9d 31 36 8b 8f ae 37
       1.2053817e-05 2.2528375e-06 2.646681e-06 2.0809259e-05
000250 dc b9 a9 30 eb b8 1f 39 6a cc 8d 33 38 e0 19 38
       1.2349193e-09 0.00015232309 6.603007e-08 3.6686863e-05
000260 f3 ce b6 38 14 4e a3 37 e3 b3 03 39 95 e0 04 39
       8.7169836e-05 1.9467472e-05 0.00012560147 0.00012672164
000270 16 b9 4e 27 38 ad 1b 35 f7 c6 2a 39 4c 39 b6 36
       2.8688578e-15 5.7994066e-07 0.00016286584 5.430693e-06
000280 df 53 9d 3a 1d 47 7a 3a 7b 58 7e 39 c4 7d 82 39
       0.0012003145 0.000954734 0.00024256289 0.00024889235
000290 93 e1 fc 34 b0 9a 9d 38 9b de d6 39 19 a8 bb 3a
       4.7102785e-07 7.515156e-05 0.00040983115 0.0014317065
0002a0 08 b8 ad 39 67 5f 8d 39 da dc d9 37 72 06 68 39
       0.00033134245 0.00026964696 2.5971258e-05 0.00022127645
0002b0 d1 a0 bf 39 5a 45 af 38 37 b6 04 39 34 46 09 38
       0.00036550176 8.357568e-05 0.00012656381 3.2728727e-05
0002c0 ae 90 3c 38 2a fb c2 35 4e 20 54 37 b2 30 58 38
       4.4957436e-05 1.4527225e-06 1.2643706e-05 5.1543764e-05
0002d0 3d c5 a2 32 c3 8b 18 3a ce db be 34 9b 04 36 39
       1.8948976e-08 0.0005819166 3.5550187e-07 0.00017358588
0002e0 0d 9f dd 39 01 20 a4 38 02 0c 19 3a d7 26 ff 39
       0.00042270907 7.8260906e-05 0.0005838276 0.00048666328
0002f0 00 00 00 00 6f 0c 36 36 05 38 4c 3a 18 d8 89 37
       0.0 2.712735e-06 0.000779033 1.64323e-05
000300 9e db 10 3b ae 49 f9 3a 5c b3 b8 39 21 59 51 39
       0.0022103558 0.0019019151 0.00035228848 0.00019964996
000310 be 0c 89 36 a7 52 d3 39 e2 75 47 3a 78 5a 45 3b
       4.0844016e-06 0.00040306637 0.00076088135 0.0030113738
000320 8c d7 03 39 c2 a4 0a 3a fd 67 16 39 8c b1 84 38
       0.00012573431 0.0005288833 0.00014343853 6.327321e-05
000330 d3 1c 27 39 53 01 28 39 ef d8 ea 39 66 a1 36 39
       0.00015937099 0.00016022222 0.00044793586 0.00017416998
000340 8f 3b dc 38 8b 40 f8 37 cf 11 e2 37 7a a7 6a 39
       0.00010501511 2.9593959e-05 2.6949592e-05 0.00022378369
000350 3f 93 2a 35 1f d4 96 3a 59 fc 14 36 c3 d8 b6 39
       6.3544206e-07 0.0011507309 2.2200604e-06 0.00034875245
000360 ee 98 65 3a cd b0 06 39 16 91 77 3a 64 5f 3e 3a
       0.0008758445 0.00012845099 0.0009443922 0.0007262139
000370 76 0a ef 2a dd bf 82 37 ad d5 8e 3a 4d c6 23 38
       4.2462187e-13 1.5586551e-05 0.001089742 3.904691e-05
000380 77 1e 0e 3b c0 5c f1 3a 89 34 ea 39 67 a3 cf 39
       0.002168564 0.0018414482 0.000446711 0.0003960386
000390 0f c5 ab 33 a9 7c 9f 39 52 a4 30 3a 8b 85 2c 3b
       7.998653e-08 0.00030419722 0.0006738353 0.0026324715
0003a0 3e 69 06 3a 19 3d e2 39 de be cb 38 c0 28 b9 39
       0.00051273766 0.000431516 9.715346e-05 0.0003531631
0003b0 f6 f3 15 3a bc c6 08 39 19 32 b1 39 87 0a 06 39
       0.0005720252 0.00013044005 0.00033797396 0.00012783158
0003c0 1e 08 be 38 f1 47 84 37 b0 25 b5 37 29 c6 1f 39
       9.061418e-05 1.5769127e-05 2.1594431e-05 0.00015237242
0003d0 55 42 a6 32 67 bc a8 3a ae 06 de 34 37 55 98 39
       1.9355108e-08 0.0012873531 4.1355582e-07 0.0002905519
0003e0 c9 7b 42 3a 52 fb 12 39 0b 6b 8d 3a 96 e4 88 3a
       0.0007418958 0.00014017269 0.0010789348 0.00104441
0003f0 6c 8c 81 2c c3 a9 a2 36 aa d6 b1 3a cd 3d 26 38
       3.6819905e-12 4.847739e-06 0.0013568003 3.963504e-05

exp_avg f4 [16]
000000 08 00 00 00 67 cf fe 38 a8 66 35 bb fa 3b a4 39
       1.1e-44 0.000121502955 -0.0027679596 0.00031325204
000010 ce 2c 8c ba 06 a0 b7 ba 37 74 3d 3b 6d bb 40 bb
       -0.0010694505 -0.0014009483 0.002890838 -0.002940859
000020 04 5b f9 3a 30 35 59 39 01 a7 06 3b 04 00 00 00
       0.0019024317 0.00020714547 0.002054632 6e-45
000030 af f8 ca 38 df f4 fb ba a8 3f 91 ba b4 bd 62 3a
       9.6784315e-05 -0.0019222758 -0.0011081593 0.0008649484

exp_avg_sq f4 [16]
000000 b2 3f d5 32 cd 26 06 36 59 2a 79 39 7e 7a 79 37
       2.4825429e-08 1.999014e-06 0.00023762266 1.48700765e-05
000010 0b 13 cc 37 12 1d ea 38 1d 04 84 39 1b aa 58 39
       2.4327563e-05 0.00011163404 0.00025180067 0.00020662734
000020 66 30 ca 38 50 4a e8 36 d7 23 ac 38 67 b2 8b 31
       9.6411255e-05 6.92279e-06 8.208275e-05 4.0657144e-09
000030 f3 f2 91 37 6d 22 12 39 2e cd 9a 38 60 52 0b 38
       1.7398479e-05 0.0001393647 7.38151e-05 3.32169e-05

exp_avg f4 [1, 16]
000000 07 00 00 80 2c 47 f8 ba 28 ba 67 bc 6a a2 47 ba
       -1e-44 -0.0018942109 -0.014143504 -0.0007615449
000010 61 0c 95 bc 8c 71 0b bc 58 ec 02 bc eb 35 a1 bc
       -0.01819438 -0.008510958 -0.007990919 -0.01967903
000020 35 7d be bb 6e 6a 98 ba 50 b3 cf ba 04 00 00 80
       -0.0058132657 -0.0011628398 -0.0015846286 -6e-45
000030 f3 e0 5d b8 fb 7d a7 bc 39 61 ac bc 23 93 a3 ba
       -5.2900006e-05 -0.020445814 -0.021042453 -0.0012479763

exp_avg_sq f4 [1, 16]
000000 08 80 23 34 99 89 df 39 f7 63 44 3c 99 46 32 39
       1.5227135e-07 0.00042636393 0.011986724 0.00017001703
000010 8b fc 9a 3c 20 6d 9f 3b a5 49 26 3b f0 bc 3d 3c
       0.01891925 0.0048653036 0.0025373485 0.011580691
000020 1c d7 dc 3a 86 8a 98 39 c8 ba 37 3b b9 f4 9c 2f
       0.0016848776 0.00029094907 0.0028034914 2.855012e-10
000030 da 47 67 39 0b 3e 68 3c 0a 99 72 3c 29 08 f7 39
       0.00022056644 0.014174948 0.014806995 0.0004711759
