models/best_model.pth (torch, 16802 bytes, 15 tensors)

model.0.weight f4 [32, 6]
0	0x3e3ab274	0.18232137
1	0x3e9c7f40	0.30565834
2	0xbdf80c3b	-0.12111708
3	0x3ed3b733	0.41350707
4	0x3db1f248	0.086887896
5	0x3e140377	0.14454447
6	0xbe95dc0a	-0.2926944
7	0x3d90cd4f	0.070704095
8	0x3e81bf7c	0.25341403
9	0xbec9c7ff	-0.39410397
10	0x3ec929b8	0.3928964
11	0x3d3acc22	0.045604832
12	0x3e3d1da2	0.18468335
13	0xbda95ea3	-0.08270004
14	0x3d37c789	0.044868026
15	0xbc7b4d5e	-0.01533827
16	0x3ee77004	0.4520265
17	0x3d1afeb9	0.03784058
18	0xbe9b832a	-0.30373508
19	0x3d4ffe64	0.050779715
20	0xbeb8af6a	-0.3607133
21	0xbd356f3e	-0.044295542
22	0xbc3e37c4	-0.011609975
23	0x3eacd146	0.33753413
24	0xbe865716	-0.26238316
25	0xbe729677	-0.2369021
26	0xbe029618	-0.12752569
27	0xbe6b9063	-0.23004298
28	0xbe22df6d	-0.15905543
29	0xbed5309b	-0.41638646
30	0x3ea42e7f	0.32066724
31	0xbed99968	-0.42499852
32	0x3ec47db6	0.3837716
33	0x3d50ff21	0.05102456
34	0xbeafb2a1	-0.3431597
35	0x3db74287	0.08948236
36	0xbc094ab5	-0.008379628
37	0x3e91c598	0.28471065
38	0x3c1c636c	0.009545188
39	0xbd55c712	-0.0521918
40	0x3e96b387	0.29433843
41	0xbda29c70	-0.07939994
42	0x3e375489	0.17903341
43	0x3ed9dde8	0.42552114
44	0x3ea15b43	0.3151494
45	0xbe4dcf9c	-0.20098728
46	0x3de1de27	0.110287
47	0x3d412e1e	0.04716312
48	0x3e2c0d0c	0.16801852
49	0xbec506cd	-0.3848175
50	0xbecb2e6b	-0.39683852
51	0x3bb32801	0.0054674153
52	0xbe0a8b51	-0.13529707
53	0x3ef9482c	0.48687875
54	0x3db2bb51	0.08727134
55	0x3e08afe7	0.13348351
56	0x3e03bc0c	0.12864703
57	0x3d97215f	0.07379412
58	0x3ee95c6a	0.4557832
59	0xbe9da0dc	-0.30786788
60	0x3de88495	0.11353413
61	0xbe67db37	-0.22642218
62	0x3e8c9660	0.27458477
63	0xbccf7c9d	-0.025327975
64	0xbd07b76c	-0.03313391
65	0xbdafaf14	-0.085783154
66	0x3ea112a0	0.31459522
67	0xbea44123	-0.32080945
68	0xbe90f6d1	-0.28313306
69	0xbd5f1eb3	-0.054472636
70	0x3f0e585e	0.5560359
71	0x3e51645f	0.20448445
72	0x3f11fa42	0.5702249
73	0xbe9d32cf	-0.30702826
74	0xbe8c99b7	-0.27461025
75	0xbe3d2fbf	-0.18475245
76	0xbedda271	-0.43287995
77	0x3dae1407	0.08499914
78	0x3e309cca	0.1724731
79	0x3eae0d9d	0.3399476
80	0xbdabb653	-0.08384385
81	0xbe184179	-0.14868726
82	0x3eb37753	0.35051975
83	0xbe349841	-0.17636205
84	0x3e960f2a	0.29308444
85	0x3ddc5645	0.10758642
86	0x3ecf0bd5	0.40438715
87	0xbe04b2b9	-0.12958802
88	0xbe877d82	-0.26462942
89	0x3e1bfb73	0.15232639
90	0x3e0f3392	0.13984516
91	0xbe4f9a18	-0.20273626
92	0x3ec920e5	0.3928291
93	0x3e84d340	0.2594242
94	0xbed32804	-0.41241467
95	0xbca2f310	-0.019891292
96	0x3f13c836	0.5772737
97	0xbdbfbf37	-0.09362643
98	0x3db44c92	0.08803667
99	0xbea0d402	-0.3141175
100	0xbeb2bce6	-0.34909743
101	0x3dfac8b9	0.12245316
102	0x3d3f3f2d	0.04669111
103	0xbe709760	-0.23495245
104	0x3e261cd4	0.16221935
105	0xbe484a97	-0.19559704
106	0xbeff8994	-0.4990965
107	0xbe5a75e1	-0.2133403
108	0xbeaf40fb	-0.34229264
109	0xbe816d38	-0.2527864
110	0x3eb9db8e	0.3630032
111	0x3d8e8854	0.06959596
112	0x3e5e1b40	0.21690083
113	0xbeea3061	-0.45740035
114	0xbe82c478	-0.2554052
115	0x3d592910	0.053017676
116	0x3ebb6467	0.36600038
117	0xbe90a50b	-0.28250918
118	0xbe6c43e8	-0.23072779
119	0xbdfa2690	-0.122143865
120	0xbd8800e2	-0.066407934
121	0xbe442caa	-0.19157663
122	0xbd8fcda3	-0.07021644
123	0xbe804862	-0.25055224
124	0xbeba4e15	-0.36387697
125	0xbe9521dd	-0.29127398
126	0xbe3e20e0	-0.18567228
127	0xbec0d0e2	-0.37659365
128	0x3e8f82f5	0.280296
129	0xbca43d59	-0.020048784
130	0x3f08671a	0.5328232
131	0x3e412613	0.1886218
132	0xbed2125f	-0.4102964
133	0x3ef261c2	0.47340208
134	0xbdc4dcfe	-0.096124634
135	0xbdcc854b	-0.09986361
136	0xbee6fe6d	-0.45115986
137	0xbea0abb3	-0.31380996
138	0xbd33ae30	-0.04386729
139	0x3c1badb2	0.009501861
140	0x3e0b4372	0.13599947
141	0xbe676220	-0.22596025
142	0x3f06ef0a	0.52708495
143	0xbe6a6233	-0.22889023
144	0xbe0af078	-0.13568294
145	0x3d28d93c	0.041222796
146	0x3e0b459b	0.13600771
147	0x3e9b3209	0.3031161
148	0x3f01527c	0.50516486
149	0xbec462cc	-0.38356626
150	0x3e841824	0.25799668
151	0xbe3a1335	-0.1817139
152	0x3d501757	0.05080351
153	0xbe1875fd	-0.14888759
154	0x3f00674a	0.50157607
155	0xbea946ef	-0.3306193
156	0x3e08dfff	0.13366698
157	0x3da0543b	0.07828566
158	0x3d8c7670	0.06858528
159	0xbdd89dd7	-0.105769806
160	0x3f0c645a	0.54840624
161	0x3de67f62	0.11254765
162	0x3d3d4d1c	0.046216115
163	0xbee8ad7f	-0.45444867
164	0x3e1f65ea	0.15566221
165	0x3bbdc1fd	0.0057909475
166	0xbc40e143	-0.011772457
167	0x3ee09c95	0.43869463
168	0x3da41a52	0.08012833
169	0xbe5c3c4d	-0.21507378
170	0xbe485a0d	-0.19565602
171	0xbc84f041	-0.016227843
172	0x3e748e78	0.23882473
173	0xbdbf8359	-0.093512245
174	0xbe4967e6	-0.1966854
175	0xbe771399	-0.2412857
176	0xbebb765c	-0.3661374
177	0x3dde8a80	0.108662605
178	0x3e07f561	0.13277198
179	0xbef5bb9d	-0.479947
180	0xbca57b4c	-0.020200394
181	0x3e70a09b	0.23498766
182	0x3acee71a	0.0015785426
183	0xbd7a63ce	-0.061130337
184	0x3ebcae40	0.36851692
185	0x3e74fa16	0.23923525
186	0x3e947448	0.28994966
187	0xbe5ab281	-0.21357156
188	0x3de992bd	0.11404941
189	0x3dab8d57	0.08376568
190	0xbe9ab076	-0.30212754
191	0x3d983ce5	0.0743349

model.0.bias f4 [32]
0	0x3ea19756	0.31560773
1	0x3ea47cb1	0.32126382
2	0xbd0d0b09	-0.034434352
3	0xbd1a990d	-0.037743617
4	0x3daf97c3	0.08573868
5	0xbd3071b7	-0.043077197
6	0x3e3600c7	0.17773734
7	0x3e178e7b	0.14800446
8	0xbe6d7282	-0.23188213
9	0xbd594f13	-0.053053927
10	0x3ed11786	0.4083826
11	0x3e4014f5	0.18757994
12	0xbb4c61f8	-0.0031186324
13	0xbe0bbae0	-0.13645506
14	0xbe02217f	-0.1270809
15	0xbdc3dd8a	-0.095637396
16	0xbc4aa734	-0.012368966
17	0x3e63cf1c	0.22246975
18	0x3e2bfaae	0.16794845
19	0x3ebacbaf	0.36483523
20	0xbeafec9c	-0.34360206
21	0xbd890dc4	-0.06692079
22	0x3e0e2ec1	0.13885023
23	0x3ede4235	0.43409887
24	0x3ba5c36c	0.0050586965
25	0x3d9d6ca2	0.07686736
26	0x3e852118	0.2600181
27	0xbdb1c5af	-0.08680283
28	0xbe8cddf9	-0.27513102
29	0x3e9ee955	0.31037393
30	0xbe179e64	-0.14806515
31	0x3dce41b2	0.10071124

model.3.weight f4 [16, 32]
0	0xbe3cf13f	-0.18451403
1	0x3dcbe39c	0.099555224
2	0x3dedcdc3	0.116115116
3	0x3d6821a8	0.056672722
4	0xbdfc70b2	-0.123261824
5	0xbe3c5bb7	-0.18394361
6	0xbe223138	-0.15839088
7	0x3dee6887	0.11641031
8	0x3dacde3e	0.08440827
9	0x3dfa2e59	0.12215871
10	0x3d9476bf	0.072492115
11	0x3cdcb32c	0.026940905
12	0xbc9fdb71	-0.019513818
13	0xbe16cc12	-0.14726284
14	0xbe180340	-0.1484499
15	0xbe2950f2	-0.16534784
16	0x3d5fb88c	0.054619357
17	0xbdd5e6d0	-0.104444146
18	0xbd569552	-0.052388497
19	0xbddd1146	-0.1079431
20	0xbd03f1a8	-0.032212883
21	0xbe16165e	-0.1465697
22	0xbdec8fce	-0.11550866
23	0x3cfde786	0.030994188
24	0xbd9d9653	-0.07694688
25	0x3dd41e8d	0.103573896
26	0xbd8e043a	-0.069344
27	0xbe1d2743	-0.15347008
28	0xbcff82c8	-0.031190291
29	0xbdbb9863	-0.09159925
30	0xbd8b846f	-0.06812369
31	0xbe3e7368	-0.18598711
32	0x3d988495	0.07447163
33	0xbd4a8402	-0.0494423
34	0x3e6d87ab	0.23196284
35	0x3dc9ed4b	0.09859713
36	0xbc7dfa4c	-0.01550157
37	0xbe7b6d0c	-0.24553317
38	0x3e0dad54	0.1383565
39	0xbdc4c5eb	-0.09608062
40	0x3eb80b01	0.35945895
41	0x3e956085	0.291752
42	0xbde9ec23	-0.11421993
43	0x3eb992ec	0.36244905
44	0xbe134c7e	-0.14384648
45	0xbe5e9d4f	-0.21739696
46	0xbd72b14f	-0.059251126
47	0xbe7318e6	-0.23739967
48	0xbe23bfa1	-0.1599107
49	0xbda3c501	-0.0799656
50	0x3e9a224c	0.3010429
51	0xbeb0955b	-0.3448895
52	0xbe44018d	-0.19141217
53	0x3e4e7579	0.20162
54	0xbe6716fa	-0.22567359
55	0x3b89dbb2	0.004207098
56	0x3d8dce46	0.06924109
57	0xbe7a2a9f	-0.24430321
58	0x3d9750db	0.07388469
59	0x3d86a7aa	0.06574948
60	0xbd93fd5b	-0.07226058
61	0xbd5d54d9	-0.054035995
62	0xbdfc3b29	-0.123159714
63	0xbdba4f43	-0.09097149
64	0x3e1c65ae	0.15273163
65	0x3d1bf3c4	0.03807427
66	0x3dafce14	0.08584228
67	0x3ceef282	0.029168371
68	0xbe2857d1	-0.1643975
69	0xbe80928a	-0.251118
70	0x3dbd1c0d	0.09233866
71	0xbdb7b1ec	-0.08969483
72	0x3e3aeaff	0.18253706
73	0x3dca46d5	0.098767914
74	0xbdef7ab0	-0.11693323
75	0x3e95e4fe	0.2927627
76	0xbc882e96	-0.016623776
77	0xbd80b39f	-0.0628426
78	0xbe2856de	-0.16439387
79	0xbe19d208	-0.15021527
80	0xbe8461b9	-0.25855806
81	0x3dd58ca9	0.104272194
82	0x3ce91b2b	0.028455338
83	0xbd8e1531	-0.06937636
84	0xbe16c952	-0.14725235
85	0x3e00917b	0.12555496
86	0x3c940d60	0.018072784
87	0x3e712db6	0.23552594
88	0xbd6e2e73	-0.058149766
89	0x3e6d73d1	0.23188712
90	0x3e766cc1	0.24064924
91	0x3e286e24	0.16448265
92	0x3de13996	0.10997312
93	0x3e3c081b	0.18362467
94	0x3cfaa36c	0.030595504
95	0xbe116f77	-0.14202677
96	0xbe20c5c2	-0.15700439
97	0xbdbba82a	-0.09162934
98	0x3dcffd7b	0.101557694
99	0x3ccfe27c	0.02537655
100	0xbde188b6	-0.11012404
101	0xbe132074	-0.14367849
102	0xbe260874	-0.16214162
103	0xbe4fc921	-0.20291568
104	0xbdf69c0a	-0.12041481
105	0xbd8c4d87	-0.06850725
106	0x3dab197c	0.0835447
107	0xbd60139a	-0.054706194
108	0xbe07c3e5	-0.13258322
109	0xbe25ec68	-0.16203463
110	0x3dc59e44	0.096493274
111	0xbdbab947	-0.0911737
112	0x3c157140	0.009121239
113	0x3deb465d	0.1148803
114	0xbd00a0a0	-0.031403184
115	0x3b5c0aba	0.003357573
116	0x3d379b7e	0.044826023
117	0xbd8fc4d0	-0.07019961
118	0xbd2de91d	-0.042458642
119	0xbe2a10b5	-0.16607936
120	0xbe241bc2	-0.16026214
121	0xbe38c3dd	-0.18043466
122	0x3de8c145	0.11364988
123	0xbdfec01c	-0.12438986
124	0xbde6d29e	-0.11270641
125	0x3ccd07c4	0.025028117
126	0x3c4257e3	0.011861774
127	0x3e0da710	0.1383326
128	0x3e0a7c8f	0.13524078
129	0x3e355eb3	0.17711906
130	0xbd3e4f69	-0.04646245
131	0x3e059a63	0.13047175
132	0x3d949dd9	0.072566696
133	0xbde1fa17	-0.11034029
134	0xbd967657	-0.0734679
135	0x3e34de5e	0.17662951
136	0x3e895e9a	0.26829988
137	0x3cef1b0e	0.029187705
138	0xbe625c87	-0.22105609
139	0x3ecb0b87	0.39657232
140	0x3c908c82	0.017645124
141	0x3c31e2a7	0.010857261
142	0xbd8d6203	-0.0690346
143	0xbe3f4939	-0.18680276
144	0xbea4019f	-0.32032487
145	0xbd8d404d	-0.0689703
146	0x3e90fc89	0.2831767
147	0xbda6d39a	-0.081458285
148	0xbe8e5601	-0.2779999
149	0x3dd4584c	0.10368404
150	0xbeaea831	-0.34112695
151	0x3db39393	0.08768382
152	0x3e1018c3	0.14071946
153	0x3e66d3a3	0.2254167
154	0x3e6aea6c	0.22940987
155	0xbd08be27	-0.03338447
156	0x3dd978fc	0.10618779
157	0xbdcad604	-0.099041015
158	0x3e085814	0.13314849
159	0xbd8d0092	-0.068848744
160	0x3c18e89b	0.009332801
161	0x3e730d83	0.23735623
162	0xbcc4dfd8	-0.024032518
163	0x3d0c218a	0.034211673
164	0x3e047d4f	0.12938426
165	0xbdf7b71a	-0.12095471
166	0xbbeba049	-0.0071907383
167	0xbd8445dd	-0.06458638
168	0x3ee34062	0.44385058
169	0x3e54666f	0.207422
170	0x3cdfbcf4	0.02731178
171	0x3e8ec304	0.2788316
172	0xbda217c8	-0.07914692
173	0xbc36943d	-0.011143741
174	0xbd514dd3	-0.05109961
175	0xbe1776c9	-0.14791407
176	0xbdfbe11e	-0.12298797
177	0x3df8d43e	0.12149857
178	0x3e0920f5	0.13391478
179	0xbdbae02d	-0.091247894
180	0xbe26b008	-0.16278088
181	0xbd06ab39	-0.032878134
182	0xbeb630fd	-0.3558425
183	0x3dadb1b6	0.08481161
184	0x3cb8f543	0.022577887
185	0x3e899a8c	0.26875722
186	0x3cfa0010	0.030517608
187	0x3d57e796	0.052711092
188	0x3e267104	0.1625405
189	0x3de76b91	0.112998135
190	0x3e41da18	0.18930852
191	0xbe75118f	-0.2393248
192	0x3c05bb54	0.008162338
193	0x3da226f0	0.07917583
194	0xbde3bbdf	-0.11119818
195	0xbeaf9476	-0.34292954
196	0xbc85045a	-0.016237427
197	0x3e0288e3	0.1274753
198	0xbe079308	-0.13239682
199	0x3e11c9de	0.14237162
200	0x3d06aa80	0.032877445
201	0xbd731ec5	-0.059355516
202	0x3e0221b4	0.12708169
203	0xbea0439f	-0.3130159
204	0xbd14623c	-0.036226496
205	0xbd8cc2f1	-0.068731196
206	0x3e742da3	0.23845534
207	0x3e448c27	0.19194089
208	0x3d5c3216	0.053758703
209	0x3ddacf0a	0.10684021
210	0xbd8570e1	-0.065156706
211	0x3e72e501	0.2372017
212	0x3d0eedfb	0.034894925
213	0x3d98e88e	0.07466231
214	0x3e03aba8	0.1285845
215	0x3d6c2a62	0.057657607
216	0xbce3ada8	-0.027792767
217	0xbd876efa	-0.06612964
218	0x3c1363be	0.008995948
219	0x3e5acdb0	0.21367526
220	0x3e352917	0.17691456
221	0xbd81d66c	-0.06339726
222	0xbe02bcc4	-0.12767321
223	0x3ea6314a	0.3245948
224	0x3e10fe41	0.1415949
225	0xbd95fcba	-0.073235944
226	0x3dac7658	0.0842101
227	0xbd98afc7	-0.07455402
228	0xbe6fdd89	-0.23424353
229	0xbd1d082e	-0.03833788
230	0x3d91a1cf	0.07110941
231	0x3d3805af	0.044927295
232	0x3e709f40	0.23498249
233	0x3e8a3e87	0.2700083
234	0xbd0829a0	-0.03324282
235	0x3e6872d2	0.2270005
236	0xbd61f3d9	-0.055164192
237	0x3c971824	0.018444128
238	0xbd0738f2	-0.03301329
239	0xbe2c5323	-0.16828589
240	0xbda00baf	-0.078147285
241	0xbe44806b	-0.19189613
242	0xbd763a02	-0.060113914
243	0xbe9d3c19	-0.30709913
244	0x3d3c9cd2	0.046047993
245	0x3e8488a7	0.25885507
246	0xbe1b0541	-0.15138723
247	0x3e817cf8	0.25290656
248	0x3e621e55	0.22081883
249	0x3d51abfa	0.0511894
250	0xbcee8e08	-0.02912046
251	0x3e51409b	0.20434801
252	0xbdcb1bc4	-0.09917405
253	0xbdd3c3d6	-0.10340087
254	0xbae736d3	-0.001764024
255	0xbe2e1d7d	-0.17003436

model.3.bias f4 [16]
0	0xbe238bb8	-0.15971267
1	0xbd24d831	-0.04024524
2	0x3e2b9f2c	0.16759938
3	0x3dce38c2	0.100694194
4	0x3e444d1c	0.1917004
5	0x3e04abe8	0.12956202
6	0x3e313c23	0.17308097
7	0x3e680cc8	0.22661126
8	0xbe0a3867	-0.13498078
9	0x3d37ac86	0.044842266
10	0x3e396696	0.1810554
11	0xbe0fe707	-0.14052974
12	0xbe045c11	-0.12925746
13	0x3e550811	0.20803858
14	0x3de4d966	0.11174278
15	0x3db621b1	0.08893145

model.5.weight f4 [1, 16]
0	0xbda862f7	-0.08222001
1	0x3e6cb277	0.23114954
2	0x3ebac5f1	0.36479142
3	0xbda85499	-0.08219261
4	0x3dbf62c8	0.09345013
5	0x3e885c8e	0.26633114
6	0xbedc1f12	-0.42992455
7	0x3eb46c4c	0.35238874
8	0xbda9013f	-0.08252191
9	0xbe756739	-0.23965158
10	0xbe6a5d36	-0.2288712
11	0xbe161d9a	-0.1465973
12	0xbe600b18	-0.21879232
13	0x3e902d09	0.2815936
14	0x3e7c9005	0.24664314
15	0xbe8ad384	-0.271145

exp_avg f4 [32, 6]
0	0x3a33270d	0.0006834127
1	0x3c2269dd	0.009912935
2	0x3baafae0	0.005217895
3	0x3c1ebf2e	0.0096891355
4	0xbb18c82f	-0.0023312678
5	0x3a71c31b	0.00092224934
6	0xb8811e95	-6.156896e-05
7	0x3c088516	0.008332511
8	0x3ab39408	0.0013700733
9	0x3b9195de	0.0044429144
10	0xbaf8f944	-0.0018995185
11	0x3b94c4eb	0.004540076
12	0xba3836e5	-0.0007027223
13	0x3c8680cf	0.016418843
14	0x3bdb08b7	0.0066843885
15	0x3bc04830	0.0058679804
16	0xbb811385	-0.0039390945
17	0xbb57c8d1	-0.0032926092
18	0xba320c11	-0.0006791959
19	0x3b804b49	0.0039152247
20	0x3c7d7bc5	0.0154714035
21	0x3bb82acf	0.0056203376
22	0xbb687e6c	-0.0035475744
23	0x3cafdb28	0.021466807
24	0xb9205a51	-0.00015292435
25	0x3a29e746	0.0006481301
26	0x39476b21	0.00019018028
27	0xb92de903	-0.0001658537
28	0x3a39439c	0.00070672645
29	0xb9d01450	-0.00039687986
30	0x3ad7cbe5	0.0016463964
31	0x3b788d57	0.0037926042
32	0xbb3aabbf	-0.0028483716
33	0x3a4c7960	0.00078000687
34	0x3bc488ca	0.005997752
35	0xbb914645	-0.0044334256
36	0xb96cf53d	-0.00022598072
37	0x3bd1fb1b	0.006408108
38	0x3b7117e6	0.0036787926
39	0x3b8af5a6	0.0042407094
40	0xbaf8d746	-0.0018985055
41	0xbb304c09	-0.002690079
42	0x3a6a8a9f	0.0008947048
43	0xbc3ddb16	-0.011587879
44	0xbab75323	-0.0013986569
45	0xbbefb5fe	-0.0073153963
46	0x3ba9ab58	0.0051778965
47	0x3aae23fd	0.0013285872
48	0x3b2487b3	0.0025105297
49	0x3d21dd35	0.0395176
50	0x3d072f4f	0.0330041
51	0xbb877d12	-0.0041347826
52	0x3b9b7a91	0.0047448357
53	0x3d89d9c0	0.06730986
54	0xb9f440cd	-0.00046587587
55	0x3b4327ec	0.0029778434
56	0x3b1109c1	0.0022131058
57	0x3b0e1b42	0.0021683727
58	0xbc3b302c	-0.011425059
59	0xbce87eff	-0.028380869
60	0x3ab5a8b9	0.0013859487
61	0xbb1c1657	-0.0023817027
62	0xbbb5ac83	-0.0055442466
63	0xbb000a9c	-0.0019537574
64	0x3b9e4e91	0.004831143
65	0xbab328c5	-0.0013668766
66	0x3baf998e	0.0053588813
67	0x3d2c95c8	0.04213503
68	0x3b424e74	0.0029648812
69	0x3b5bfa9a	0.0033566118
70	0xbd035322	-0.032061704
71	0x3c4a681f	0.012353926
72	0xba0cc11b	-0.0005369351
73	0x392b86bc	0.00016358023
74	0x39a3e763	0.0003126218
75	0x3944a5a4	0.00018753723
76	0x383a0e3f	4.4359123e-05
77	0xbabfc71b	-0.0014631482
78	0xb8333c0d	-4.2732852e-05
79	0xbb901247	-0.00439671
80	0xbb045865	-0.0020194289
81	0xbb4659dc	-0.0030265963
82	0xbb1129d5	-0.0022150178
83	0xbb1c05d8	-0.0023807194
84	0x39aa7460	0.00032511633
85	0xbcbae41a	-0.022813845
86	0xbc436e5e	-0.011928169
87	0xbc9ea0c0	-0.019363761
88	0x3b94ce1d	0.004541172
89	0xbb9256b6	-0.004465903
90	0x3aa7c1da	0.0012798861
91	0xbc06b92e	-0.008222861
92	0xbc29edaa	-0.010371605
93	0xbc1364c6	-0.008996194
94	0xbaab1381	-0.0013052077
95	0xbb3f28bf	-0.0029168574
96	0x39bf4d74	0.00036488066
97	0x3b82c81b	0.0039911396
98	0x3c5a7422	0.013333352
99	0x3b6b8fae	0.0035943794
100	0x3c0feef3	0.008784997
101	0x3bc46bff	0.0059943195
102	0xba25f977	-0.00063314236
103	0x397e7f0e	0.00024270659
104	0x39ed7b27	0.00045295918
105	0xb89b67db	-7.4103205e-05
106	0x3a4eb126	0.00078846735
107	0xb9f524a8	-0.00046757353
108	0x39331fa8	0.00017082563
109	0x3c0b8f19	0.008518004
110	0x3be90c4f	0.007112063
111	0x3c2a5520	0.010396272
112	0x3b83ebdc	0.0040259194
113	0xbb2d7b79	-0.00264713
114	0xba73f3f5	-0.0009306067
115	0xba1e9914	-0.0006050032
116	0x3c88d1d0	0.016701609
117	0xb9a61964	-0.00031680905
118	0x3c5db42f	0.013531729
119	0x3ca53868	0.020168498
120	0xb9c63226	-0.00037802866
121	0x3a028c72	0.00049800344
122	0x39d4d916	0.00040597533
123	0x392a04e6	0.00016214288
124	0x3a036197	0.00050117954
125	0x39894a87	0.00026186203
126	0xbaa20510	-0.0012361128
127	0x3cbf2e2b	0.023337444
128	0x3c77d14a	0.015125582
129	0x3c472cad	0.012156648
130	0xbbbc26a2	-0.00574191
131	0xba2cf6f2	-0.0006598077
132	0xb075f7d9	-8.9482693e-10
133	0xbb6d9b59	-0.0036255924
134	0x3b4dda74	0.0031410726
135	0x3a5b7b50	0.0008372562
136	0x3b219f8c	0.0024661748
137	0xbc0bb0e1	-0.008526058
138	0x3b03c0d8	0.0020103958
139	0xba7014df	-0.00091583835
140	0x3c37e2a0	0.011223465
141	0x3c6166b1	0.013757394
142	0xbc70a0cb	-0.0146867735
143	0xbcbe1bb1	-0.023206564
144	0xbb1525e5	-0.0022758183
145	0x3c7314d1	0.014836506
146	0x3ad6248b	0.0016337795
147	0x3b457035	0.0030126695
148	0xbb6c7403	-0.003607989
149	0xbc4c5a92	-0.0124727655
150	0x3b3a1e9a	0.0028399588
151	0x3c0206d4	0.007936198
152	0x3a6a67da	0.00089418667
153	0x3b74872f	0.003731202
154	0xbb944675	-0.0045250007
155	0xbc5b5588	-0.013387091
156	0x3a2b765a	0.0006540768
157	0x3c82d5e2	0.015971128
158	0x3c05a279	0.008156412
159	0x3c0d40b7	0.008621386
160	0xbb45e4a6	-0.00301961
161	0x3ba3b7da	0.004996282
162	0xbb62c13f	-0.0034600047
163	0x3c8463ce	0.016160872
164	0xbbd343dd	-0.006447299
165	0xbc289a79	-0.010290735
166	0xbc738102	-0.014862301
167	0x3bf56b92	0.00748963
168	0x148ea0f1	1.4401816e-26
169	0x94544287	-1.0716385e-26
170	0x945b3407	-1.1066935e-26
171	0x940a200f	-6.973542e-27
172	0x94534cdc	-1.06679355e-26
173	0x93f6da75	-6.2314546e-27
174	0x39096938	0.00013104535
175	0xb8da1cbf	-0.000104004044
176	0xb79b6ffc	-1.8529587e-05
177	0x39e0df98	0.000428912
178	0xb8ceeb05	-9.866621e-05
179	0x37e3370c	2.7086142e-05
180	0xb8d5a4b3	-0.00010187309
181	0xb9d2ab8a	-0.00040182128
182	0x3b36f69a	0.0027917982
183	0x398e44e1	0.0002713567
184	0xbb07be1e	-0.0020712684
185	0xbae0b4c3	-0.0017143715
186	0x3bb0b6dc	0.0053928923
187	0x3bfe518d	0.0077611865
188	0x3b758692	0.0037464243
189	0x3c957517	0.01824431
190	0x3c1bb417	0.009503386
191	0xbbc5eeac	-0.006040415

exp_avg_sq f4 [32, 6]
0	0x37c292cf	2.3194965e-05
1	0x3aa7c9e4	0.0012801257
2	0x3a87d62a	0.0010363508
3	0x3a1fd66a	0.0006097319
4	0x3a6de522	0.0009074976
5	0x3b53bb2c	0.0032307608
6	0x3691db93	4.3468985e-06
7	0x39ca0eb7	0.00038539406
8	0x392ddef9	0.0001658163
9	0x388e367a	6.781235e-05
10	0x392fdf20	0.00016772421
11	0x3a3ba463	0.00071579794
12	0x378f458f	1.707932e-05
13	0x3a08a88c	0.0005213104
14	0x3a67788e	0.0008829915
15	0x39c35d07	0.0003726261
16	0x39f9bc6a	0.0004763336
17	0x3ad99d50	0.0016602669
18	0x3781c207	1.546835e-05
19	0x395c469f	0.00021007143
20	0x3a8688c4	0.0010264148
21	0x397f97ed	0.00024375292
22	0x39cd5f29	0.00039171547
23	0x3b06873b	0.002052738
24	0x35b2f346	1.3332835e-06
25	0x354b2211	7.5672966e-07
26	0x352b0ba7	6.371942e-07
27	0x358f1c77	1.0662615e-06
28	0x3546c04f	7.4040594e-07
29	0x34fe2658	4.7339086e-07
30	0x3807397e	3.2240052e-05
31	0x3912e6c2	0.00014009609
32	0x3ae15533	0.0017191529
33	0x3a144a1f	0.0005656797
34	0x3a2f22f3	0.0006680928
35	0x3b5ae6c9	0.0033401719
36	0x3730465b	1.0506798e-05
37	0x3a00a5da	0.00049075263
38	0x39e2180f	0.00043124004
39	0x397ccb6d	0.00024108375
40	0x39acc0d3	0.00032950062
41	0x3a8eec4f	0.0010904166
42	0x37a8f9b0	2.014343e-05
43	0x39d4dbae	0.00040599465
44	0x39eba14e	0.00044942874
45	0x393ec5d9	0.00018193516
46	0x399dc283	0.00030090296
47	0x3a62f9c1	0.0008658432
48	0x37f37272	2.902115e-05
49	0x3b341070	0.0027475618
50	0x3ad80911	0.0016482194
51	0x3a4b213c	0.0007748788
52	0x3ae1ccbb	0.0017227152
53	0x3c3ade47	0.011405534
54	0x38a0bf6a	7.665048e-05
55	0x3b157f47	0.002281146
56	0x3b00c4fe	0.0019648666
57	0x3af33c47	0.0018557393
58	0x3abbef78	0.0014338335
59	0x3b55c880	0.0032620728
60	0x37ce8925	2.4620977e-05
61	0x392f6a84	0.0001672898
62	0x3a48c339	0.0007658485
63	0x399ee966	0.00030310004
64	0x399d6da5	0.00030027065
65	0x3a588a7d	0.00082603825
66	0x394469b5	0.00018731396
67	0x3bfe00e7	0.0077515724
68	0x3c026f20	0.007961065
69	0x3b1214e0	0.0022290275
70	0x3badfbe2	0.005309568
71	0x3cb7d352	0.022439633
72	0x35990dce	1.1403406e-06
73	0x34dff494	4.171494e-07
74	0x35213d72	6.006659e-07
75	0x355e6903	8.2854257e-07
76	0x35363cfc	6.788903e-07
77	0x36f76bb8	7.3737137e-06
78	0x3639536b	2.7615704e-06
79	0x391c8f1a	0.00014930629
80	0x385e6133	5.301945e-05
81	0x380d6e90	3.371999e-05
82	0x388523b9	6.348588e-05
83	0x393f4671	0.00018241421
84	0x388cd7bb	6.715903e-05
85	0x3ac7505b	0.0015206443
86	0x3b1e257a	0.0024131224
87	0x3a0f6776	0.0005470434
88	0x3aac1073	0.0013127461
89	0x3ba0dd8a	0.004909222
90	0x37eeb689	2.845681e-05
91	0x3933ca29	0.00017146081
92	0x3ad20181	0.0016022177
93	0x3a94664b	0.001132199
94	0x39c62665	0.0003779411
95	0x3ae47ac7	0.001743161
96	0x379de3a4	1.8821862e-05
97	0x3786cf19	1.6070482e-05
98	0x398fdf11	0.00027441283
99	0x374acd5d	1.2087953e-05
100	0x3852d538	5.0266477e-05
101	0x3a0c7be1	0.00053590356
102	0x36eae4d7	7.000384e-06
103	0x363dd5d5	2.8287661e-06
104	0x3633fb52	2.6819366e-06
105	0x3688ce73	4.0771497e-06
106	0x35f05a92	1.7907753e-06
107	0x36a72424	4.981195e-06
108	0x361e908c	2.3627972e-06
109	0x3902d87f	0.00012478417
110	0x396e42c0	0.00022722315
111	0x39655c76	0.00021873586
112	0x3918e4ce	0.00014581086
113	0x38e5e69d	0.00010962526
114	0x36cf91a9	6.186038e-06
115	0x39036400	0.00012530386
116	0x3a0b541c	0.00053149625
117	0x37fa827b	2.9863082e-05
118	0x39265de4	0.0001586597
119	0x39fc1334	0.00048079493
120	0x34803105	2.3877524e-07
121	0x34adbacb	3.235967e-07
122	0x34b2644e	3.3228065e-07
123	0x34984474	2.8362012e-07
124	0x34a61284	3.093338e-07
125	0x340d5912	1.3164052e-07
126	0x383802e2	4.3871703e-05
127	0x3b6afefd	0.0035857551
128	0x3ae728ea	0.0017636095
129	0x3aacfb87	0.001319752
130	0x3af1d0e7	0.0018449099
131	0x3bddc88d	0.0067682923
132	0x33269849	3.878839e-08
133	0x38d6c0fa	0.0001024026
134	0x3783ef03	1.5727715e-05
135	0x37180aca	9.062418e-06
136	0x380e2f93	3.3899745e-05
137	0x3886400c	6.4015476e-05
138	0x38d01633	9.922348e-05
139	0x3b3fc0d9	0.0029259233
140	0x3b66c77f	0.0035214124
141	0x3a65f0c5	0.0008771534
142	0x3b2c9ab8	0.0026337337
143	0x3bf59f43	0.007495792
144	0x38469ff7	4.7355858e-05
145	0x3aa09936	0.0012252692
146	0x3ad428de	0.0016186496
147	0x3a9640cc	0.0011463403
148	0x3a68ffa1	0.00088881893
149	0x3b0f5a4f	0.0021873896
150	0x37eb00cc	2.8014554e-05
151	0x39300c9d	0.00016789367
152	0x3988d3dc	0.0002609779
153	0x38ec37d4	0.00011263756
154	0x393f254f	0.00018229078
155	0x38ddec60	0.000105821295
156	0x37b15867	2.114121e-05
157	0x3a90afe4	0.0011038748
158	0x3a5dff1d	0.0008468496
159	0x3a1b83fa	0.0005932447
160	0x3a2db535	0.0006626428
161	0x3b1aa1cb	0.0023594971
162	0x37b197ac	2.1170672e-05
163	0x3b21f8a1	0.0024714845
164	0x3a3232b5	0.0006797717
165	0x39fc31af	0.00048102203
166	0x3a6a79bf	0.0008944533
167	0x3b9511ed	0.004549256
168	0x3154d504	3.0971146e-09
169	0x30f66ae3	1.7929235e-09
170	0x30f02437	1.7472591e-09
171	0x30c2e80b	1.4181308e-09
172	0x30eb6583	1.7127352e-09
173	0x3025ef43	6.036666e-10
174	0x359223dd	1.0888285e-06
175	0x360594f5	1.9905249e-06
176	0x3601e7f1	1.9357506e-06
177	0x380e008e	3.3855955e-05
178	0x361451c6	2.2101317e-06
179	0x3534174a	6.7089115e-07
180	0x3657d648	3.2162225e-06
181	0x388e8c54	6.797226e-05
182	0x3971e908	0.00023070362
183	0x38e227c9	0.0001078393
184	0x38ce69ce	9.842553e-05
185	0x39ce9299	0.00039400606
186	0x38994ed4	7.3102914e-05
187	0x38f24f7e	0.00011554266
188	0x3b029cd3	0.00199299
189	0x3b0ce2dc	0.0021497523
190	0x39ca0736	0.00038533815
191	0x3b308e38	0.0026940238

exp_avg f4 [32]
0	0x3b7dd63c	0.003873243
1	0x3a88d5c1	0.001043968
2	0x3b85a2b3	0.004078233
3	0x3b90f27b	0.004423437
4	0x39b6933f	0.00034823452
5	0xbbcb60cf	-0.006206609
6	0x3a405706	0.0007337186
7	0xb8e58fd4	-0.00010946361
8	0x3c94a7a6	0.018146347
9	0xbb7bd836	-0.0038428432
10	0xbb1ef7eb	-0.0024256657
11	0x3c8bca63	0.017064279
12	0xba664949	-0.0008784724
13	0xba867fc4	-0.0010261466
14	0xbbc391a9	-0.005968292
15	0xbc0386a7	-0.008027709
16	0xba937f44	-0.0011253138
17	0x39a847bf	0.00032096912
18	0x3b032568	0.002001131
19	0x3b2c1b57	0.0026261413
20	0xba3fdbe4	-0.0007318838
21	0x3b25f636	0.0025323755
22	0xba2666d7	-0.0006347722
23	0x3b953bfd	0.0045542703
24	0x3a89faf3	0.0010527059
25	0xbb0a8659	-0.0021137206
26	0x3b5057f0	0.0031790696
27	0x3b61f782	0.0034479802
28	0x148ea0f1	1.4401816e-26
29	0x399f7c36	0.00030419388
30	0x3a3eebe0	0.0007283073
31	0xba78f510	-0.00094969664

exp_avg_sq f4 [32]
0	0x38d11d4f	9.971356e-05
1	0x37b0da44	2.1082473e-05
2	0x3881318d	6.160429e-05
3	0x3880b47c	6.1371335e-05
4	0x36fa695b	7.4628456e-06
5	0x38d72989	0.000102597354
6	0x383c5a66	4.4906883e-05
7	0x385332e1	5.0353705e-05
8	0x3950f61f	0.00019928113
9	0x3958d826	0.00020679887
10	0x38a997ad	8.0868e-05
11	0x3a3a33cd	0.0007103056
12	0x365a0baf	3.2491332e-06
13	0x37212ba0	9.606505e-06
14	0x39292f0c	0.00016134622
15	0x38c502fc	9.394248e-05
16	0x383e11f9	4.531627e-05
17	0x37b89111	2.2002061e-05
18	0x37db05b7	2.6109496e-05
19	0x381dbfb0	3.761024e-05
20	0x35a6e390	1.2434193e-06
21	0x395338ad	0.00020143641
22	0x37c0d82e	2.298885e-05
23	0x39c2c2f1	0.00037147806
24	0x39182d28	0.00014512672
25	0x386eccca	5.6934347e-05
26	0x38a8dba1	8.051773e-05
27	0x38c35e27	9.315862e-05
28	0x3154d504	3.0971146e-09
29	0x369be0bb	4.645522e-06
30	0x3759a098	1.2971599e-05
31	0x396c42cb	0.00022531596

exp_avg f4 [16, 32]
0	0x2b8c53f7	9.970903e-13
1	0x337c26a5	5.870847e-08
2	0x330e7978	3.3172427e-08
3	0x336f884e	5.5770492e-08
4	0x00000000	0.0
5	0x140d2495	7.125895e-27
6	0x320da4f3	8.244785e-09
7	0x33369db6	4.2518614e-08
8	0x3387b226	6.3188324e-08
9	0x3003d690	4.7962434e-10
10	0x2c428f4f	2.764861e-12
11	0x33a4badc	7.6708346e-08
12	0x2d06800a	7.6454485e-12
13	0x326d1dbb	1.3801976e-08
14	0x321d02b3	9.1392165e-09
15	0x00000000	0.0
16	0x2c8fca36	4.0867544e-12
17	0x2c024ae9	1.8515695e-12
18	0x1c09e50c	4.5625534e-22
19	0x2b4ef775	7.352932e-13
20	0x00000000	0.0
21	0x31ad4a30	5.043397e-09
22	0x00000000	0.0
23	0x321d617e	9.16077e-09
24	0x1cbbb826	1.2422223e-21
25	0x11ca7078	3.1939295e-28
26	0xad4f8ea4	-1.179826e-11
27	0x338ae84f	6.4683825e-08
28	0x00000000	0.0
29	0x12ee20bf	1.5027984e-27
30	0x33a7e82f	7.8187774e-08
31	0x2c2f8244	2.4941308e-12
32	0x3c8f8a5f	0.017522035
33	0x3af30a83	0.0018542561
34	0xbb03c43f	-0.0020105985
35	0x3b912890	0.0044298843
36	0x3785e219	1.596012e-05
37	0x3b8ca5dc	0.004292233
38	0x3bb2fff0	0.005462639
39	0x3c169276	0.009190192
40	0xb9137f38	-0.00014066405
41	0x3bbead17	0.0058189738
42	0x3b5fb9c3	0.0034137822
43	0xbc099f0d	-0.008399737
44	0x3a256c21	0.0006310363
45	0x3b7975fa	0.0038064704
46	0x3bf80aaf	0.007569633
47	0x3bb09553	0.0053888946
48	0x39e4744f	0.00043574205
49	0x389c8ff0	7.46547e-05
50	0x3b9798d4	0.004626373
51	0x39174175	0.00014424867
52	0x2d0bfa1f	7.956773e-12
53	0xbb37c305	-0.0028039825
54	0x39c8fb9f	0.00038334445
55	0x3a49aa20	0.0007692892
56	0x3c231d51	0.00995572
57	0x3a93787f	0.0011251121
58	0x3a438d17	0.00074596837
59	0xbb24bc6c	-0.0025136722
60	0x00000000	0.0
61	0x38b7cd61	8.764375e-05
62	0x3bb2e2be	0.0054591587
63	0x3ab7403b	0.0013980934
64	0x3cde7ced	0.027159179
65	0xbb528d22	-0.0032127579
66	0xbb8c5eea	-0.0042837756
67	0x3bed38a4	0.007239418
68	0x395527a5	0.00020328032
69	0x3bc7a348	0.0060924627
70	0x3bbc8e73	0.005754286
71	0x3c14e5ad	0.009087962
72	0x3ab95eb2	0.0014142601
73	0x3c0ba8d7	0.008524141
74	0x3b931753	0.0044888644
75	0xbc4e97eb	-0.012609462
76	0x3b654c25	0.0034988013
77	0x3bbc6755	0.005749623
78	0x3bff513e	0.0077916672
79	0x3c02ae90	0.007976189
80	0x3b264809	0.0025372526
81	0x3a61d1a7	0.00086143095
82	0x3be1957e	0.006884276
83	0xbb0ad5ca	-0.0021184557
84	0x39839987	0.00025100654
85	0xbc2af34e	-0.010433985
86	0x398cbafe	0.000268422
87	0xbaa23afe	-0.00123772
88	0x3c810a18	0.015751883
89	0x3ada22ac	0.0016642413
90	0x3a67de0a	0.0008845037
91	0xbbc3fbc7	-0.005980942
92	0x12578db1	6.8016686e-28
93	0x39eb45b0	0.00044874614
94	0x3b7bb8f2	0.0038409797
95	0x3b4caf4e	0.003123242
96	0xb88dd290	-6.762624e-05
97	0x37e67b0e	2.7475438e-05
98	0xb6b1ab7d	-5.294975e-06
99	0xb6baa1c4	-5.562064e-06
100	0xb8372b50	-4.3670938e-05
101	0xb91c0066	-0.00014877468
102	0x37b91ac4	2.2066182e-05
103	0xb6bcd9a0	-5.6281715e-06
104	0xb8aaf1db	-8.151281e-05
105	0xb6b293cb	-5.3220188e-06
106	0xb934f683	-0.0001725797
107	0xb8a4603b	-7.838054e-05
108	0xb84511b3	-4.6984944e-05
109	0xb5bb476d	-1.3953373e-06
110	0xb7195c75	-9.1410375e-06
111	0xb8ee854b	-0.00011373552
112	0xb8d2669f	-0.00010032695
113	0xb95005f4	-0.00019838643
114	0xb81f6f11	-3.8011993e-05
115	0x38126f42	3.491273e-05
116	0xb7933cce	-1.755208e-05
117	0xb68e9008	-4.248697e-06
118	0x37f279df	2.8905399e-05
119	0xb817dd69	-3.620741e-05
120	0xb502ab56	-4.86781e-07
121	0x3395124d	6.941682e-08
122	0x362df98f	2.592427e-06
123	0xb8f2c81e	-0.00011576734
124	0x91555d95	-1.6831574e-28
125	0xb8d3baba	-0.000100960446
126	0xb371abd6	-5.626847e-08
127	0xb932650a	-0.00017013043
128	0x3be25553	0.006907144
129	0xba70a10e	-0.00091792725
130	0xbac1d649	-0.0014788593
131	0x3af5e720	0.0018760897
132	0x38269c3f	3.9723e-05
133	0x3a3ce3c0	0.0007205568
134	0x3abc4786	0.0014364577
135	0x3b0b4850	0.0021252818
136	0x3962ed2c	0.00021641393
137	0x3acc8e3e	0.0015606356
138	0x3a383b1e	0.0007027852
139	0xbb61732d	-0.0034400926
140	0x3a4a386a	0.0007714095
141	0x3ac5a621	0.0015079417
142	0x3add78db	0.001689698
143	0x398503ac	0.00025370473
144	0x39d7b461	0.00041142388
145	0x392d52cb	0.00016529408
146	0x3ac19014	0.001476767
147	0xba19abf4	-0.000586211
148	0x3818cf00	3.6432408e-05
149	0xbb3c4648	-0.0028728414
150	0x388840cb	6.497054e-05
151	0xb9ad09a9	-0.0003300433
152	0x3b148bf5	0.0022666429
153	0x39d92d13	0.00041423048
154	0x38a51107	7.870985e-05
155	0xbae82e34	-0.0017713965
156	0x1013ff71	2.9187423e-29
157	0x381fe27f	3.8119495e-05
158	0x3a65eaa4	0.0008770621
159	0x37a9a134	2.0221436e-05
160	0x3c9b6700	0.018970013
161	0xbb3d2c25	-0.0028865424
162	0xbb6ada5d	-0.003583572
163	0x3bad43fb	0.005287645
164	0x389a5f34	7.361025e-05
165	0x3b62f08f	0.0034628247
166	0x3b86975a	0.004107398
167	0x3bbc78bd	0.005751698
168	0x3a35dda1	0.00069376273
169	0x3bcff561	0.00634639
170	0x3b326d13	0.0027225658
171	0xbc1b9c72	-0.009497749
172	0x3b12606b	0.0022335302
173	0x3b89de75	0.004207427
174	0x3b980cce	0.0046401983
175	0x3ba65256	0.005075733
176	0x3ab0b298	0.001348096
177	0x39efb274	0.0004571859
178	0x3ba4cdc9	0.0050294143
179	0xbaeda36d	-0.001813037
180	0x39378bee	0.00017504368
181	0xbc0456dd	-0.00807735
182	0x3946a33c	0.00018943561
183	0xba77b829	-0.0009449744
184	0x3c3792df	0.01120445
185	0x3a964939	0.0011465914
186	0xb975bea2	-0.00023436037
187	0xbb9e32ee	-0.0048278486
188	0x112910c7	1.3336919e-28
189	0x39761667	0.00023468734
190	0x3b077409	0.0020668528
191	0x3ae5e8af	0.0017540659
192	0xbc1eb0d3	-0.009685713
193	0x3ba65ee0	0.005077228
194	0x3b66bf80	0.0035209358
195	0xba8902d1	-0.001045311
196	0xb8e0b129	-0.00010714151
197	0xbb43663b	-0.0029815573
198	0xb9001cc7	-0.00012217752
199	0x3b4fd2ed	0.0031711415
200	0xb9dd32c7	-0.00042190237
201	0xbb512d59	-0.0031917898
202	0xbb2e47b9	-0.0026593043
203	0x3bfed847	0.007777247
204	0xbb2b85da	-0.002617231
205	0xbafdef10	-0.0019373614
206	0xbb1288bd	-0.0022359334
207	0x3a6ec094	0.0009107676
208	0xbaa42efc	-0.001252621
209	0xba061c80	-0.0005115941
210	0xbb74bbfb	-0.003734349
211	0x3b3d1628	0.0028852317
212	0xb9938481	-0.00028136748
213	0x3a91981e	0.0011107957
214	0xb7b1165b	-2.1110454e-05
215	0xb9b05763	-0.00033634444
216	0xbb8039cc	-0.00391314
217	0xbaa444ad	-0.0012532674
218	0x3b0d07b1	0.0021519477
219	0xbae48739	-0.0017435319
220	0x92039853	-4.1524066e-28
221	0xb98072d4	-0.00024499616
222	0x3901c2c7	0.00012374959
223	0x39cee078	0.00039458624
224	0x3cd3afd2	0.025840674
225	0xbb61a81a	-0.0034432472
226	0xbbbd288a	-0.005772655
227	0x3be5d970	0.007014446
228	0xb6194ab5	-2.2842262e-06
229	0x3b29743f	0.0025856642
230	0x3baef325	0.0053390437
231	0x3bfc5d90	0.007701583
232	0x3a4d6dfd	0.0007836519
233	0x3bbc1901	0.0057402854
234	0x3b45ec4d	0.003020066
235	0xbc554b99	-0.013018512
236	0x3b24af41	0.0025128874
237	0x3bb61c6e	0.0055575883
238	0x3bcce4b0	0.0062528476
239	0x3a6795f5	0.0008834296
240	0x3ad200ef	0.0016022007
241	0x3a30dd79	0.0006746869
242	0x3bb81121	0.0056172763
243	0xbb00eb87	-0.0019671635
244	0x37f357eb	2.9008797e-05
245	0xbc352aed	-0.011057598
246	0x3a0d9e15	0.0005402279
247	0xbaa74a25	-0.0012763186
248	0x3c09fb25	0.008421694
249	0x3ace3847	0.0015733325
250	0x390d8b34	0.00013498665
251	0xbbde764c	-0.0067890044
252	0x11f06969	3.7930287e-28
253	0x3952b9a1	0.00020096313
254	0x3b44a4a0	0.003000535
255	0x386dabe9	5.6665307e-05

exp_avg_sq f4 [16, 32]
0	0x3591d903	1.0866501e-06
1	0x358b5b86	1.0382944e-06
2	0x34fc0e71	4.6949165e-07
3	0x34c03759	3.5803058e-07
4	0x00000000	0.0
5	0x31168d3a	2.190815e-09
6	0x3461e1e9	2.1036944e-07
7	0x35faac20	1.8676546e-06
8	0x32bfbb14	2.23204e-08
9	0x3381f228	6.0510786e-08
10	0x3134a7ad	2.628876e-09
11	0x32ee3fce	2.7735862e-08
12	0x2cafab92	4.9928473e-12
13	0x335d4022	5.15139e-08
14	0x30cae415	1.4762259e-09
15	0x00000000	0.0
16	0x2bc8c666	1.4265921e-12
17	0x2aa4d9ef	2.9283474e-13
18	0x32995156	1.7848532e-08
19	0x2e18e74c	3.476623e-11
20	0x00000000	0.0
21	0x32d72e4c	2.5050348e-08
22	0x00000000	0.0
23	0x330248e0	3.0334263e-08
24	0x34681d87	2.1617426e-07
25	0x2dcca731	2.3266363e-11
26	0x3576ca79	9.193678e-07
27	0x32a100b0	1.874318e-08
28	0x00000000	0.0
29	0x2f9e59df	2.880389e-10
30	0x359c71da	1.1656041e-06
31	0x2b158fca	5.313498e-13
32	0x3a25b7b4	0.00063216244
33	0x39b27697	0.00034039162
34	0x3939ba3f	0.00017712357
35	0x38e426e2	0.0001087913
36	0x31e9f295	6.808771e-09
37	0x3848ed63	4.79048e-05
38	0x393c7542	0.00017972759
39	0x3a01a441	0.0004945435
40	0x388066f2	6.122691e-05
41	0x38a05816	7.645802e-05
42	0x37b317ab	2.1349484e-05
43	0x392207c5	0.00015452418
44	0x34b80537	3.4276465e-07
45	0x386db5ff	5.66747e-05
46	0x391e297a	0.00015083505
47	0x37f0134c	2.8619215e-05
48	0x3543bddf	7.291946e-07
49	0x33640009	5.308542e-08
50	0x376c9410	1.410117e-05
51	0x36000fae	1.9082613e-06
52	0x2eff99de	1.162339e-10
53	0x3a017aee	0.00049392774
54	0x337fefd4	5.9589937e-08
55	0x38b4341b	8.592774e-05
56	0x3922dff4	0.00015532953
57	0x356fee65	8.938135e-07
58	0x3a22011a	0.0006179974
59	0x397589f9	0.0002341642
60	0x00000000	0.0
61	0x3517707e	5.641558e-07
62	0x3a1bf249	0.0005948884
63	0x36184cfc	2.2694576e-06
64	0x3b95210f	0.00455106
65	0x3b41a900	0.0029550195
66	0x3a95e0d7	0.0011434805
67	0x3a46f5f3	0.000758975
68	0x3635c49d	2.7085546e-06
69	0x39cea10a	0.00039411365
70	0x3aba4a26	0.0014212772
71	0x3b6c1d61	0.0036028253
72	0x398b35ba	0.00026552175
73	0x3a06c5d6	0.0005141174
74	0x3901c9d2	0.00012377583
75	0x3a448172	0.00074960955
76	0x376100ea	1.3411258e-05
77	0x3a0a627a	0.00052789564
78	0x3a5dcc25	0.0008460901
79	0x38fbfd9c	0.00012015851
80	0x37829684	1.5567297e-05
81	0x373f7eff	1.1414056e-05
82	0x38a7e0d1	8.005056e-05
83	0x37393c5a	1.1040911e-05
84	0x3431edfa	1.6570985e-07
85	0x3b35fff8	0.0027770977
86	0x3599a5b7	1.1447618e-06
87	0x39e17634	0.00043003412
88	0x3aab3a1b	0.0013063581
89	0x3680195c	3.8176495e-06
90	0x3b8d514f	0.0043126713
91	0x3aa7019f	0.0012741572
92	0x2dbd494f	2.1519368e-11
93	0x37692e07	1.3898599e-05
94	0x3b97e4d8	0.0046354346
95	0x37849bda	1.58082e-05
96	0x35d9145e	1.6173688e-06
97	0x36426362	2.89661e-06
98	0x35d5be91	1.5925199e-06
99	0x356f931e	8.924852e-07
100	0x34c2e982	3.6305215e-07
101	0x35808cee	9.577759e-07
102	0x357e7ea2	9.480665e-07
103	0x361f0636	2.3696462e-06
104	0x34859292	2.4879824e-07
105	0x3360a44d	5.2303495e-08
106	0x35ac0006	1.2815005e-06
107	0x35aa76ec	1.2700598e-06
108	0x35b50187	1.3485995e-06
109	0x33afceae	8.186667e-08
110	0x34dc3ee3	4.102395e-07
111	0x32fae95c	2.920995e-08
112	0x35352ab5	6.74899e-07
113	0x35cb429a	1.5144062e-06
114	0x346d93b3	2.2126078e-07
115	0x354993c0	7.509334e-07
116	0x32bfdfe1	2.2337135e-08
117	0x360ead34	2.1260466e-06
118	0x33ec6fac	1.10099194e-07
119	0x3540243c	7.15783e-07
120	0x342c10c8	1.6024853e-07
121	0x3231ead1	1.0356147e-08
122	0x36b5fce9	5.423663e-06
123	0x34e025b7	4.1750693e-07
124	0x2d0c3181	7.969071e-12
125	0x35364676	6.790282e-07
126	0x36a897de	5.02447e-06
127	0x34c2ed57	3.6308003e-07
128	0x39670ef0	0.00022035441
129	0x390bc0bc	0.00013327872
130	0x385ea23d	5.308002e-05
131	0x3824a620	3.9255363e-05
132	0x339b3954	7.228178e-08
133	0x379bb1b9	1.8560198e-05
134	0x388c6926	6.695306e-05
135	0x393e4ab1	0.00018147637
136	0x376d0acf	1.4128817e-05
137	0x37b8a4aa	2.2011187e-05
138	0x36dfedd8	6.6736065e-06
139	0x382690bd	3.9712282e-05
140	0x35153c2c	5.5594387e-07
141	0x37e97c7a	2.7833728e-05
142	0x38403589	4.5826226e-05
143	0x36ea971a	6.991334e-06
144	0x354ff632	7.747177e-07
145	0x34b1da35	3.3127586e-07
146	0x3678e074	3.7085529e-06
147	0x35138351	5.495286e-07
148	0x30f01534	1.7468325e-09
149	0x390e2859	0.00013557206
150	0x3330f76d	4.1203226e-08
151	0x37b7c806	2.1908443e-05
152	0x385a0be6	5.198633e-05
153	0x3477cc3e	2.307797e-07
154	0x395c035d	0.00020982088
155	0x388a07ae	6.581783e-05
156	0x27d87eef	6.0089665e-15
157	0x35173097	5.632259e-07
158	0x39766124	0.00023496576
159	0x3580dd9b	9.601239e-07
160	0x3b052e8d	0.0020321936
161	0x3aa75c50	0.00127686
162	0x3a0175cc	0.00049385126
163	0x39bc763c	0.00035946246
164	0x3597a5c2	1.1298619e-06
165	0x392b02b6	0.0001630884
166	0x3a2705c4	0.00063714036
167	0x3ad6412c	0.0016346327
168	0x3907f54a	0.0001296598
169	0x39626049	0.00021588909
170	0x38755e8a	5.85006e-05
171	0x39be4a68	0.0003629506
172	0x36bc388a	5.6094186e-06
173	0x3983a0bc	0.00025106024
174	0x39d1bb3f	0.00040003096
175	0x3859bc3c	5.191214e-05
176	0x36f092df	7.1696554e-06
177	0x3689c951	4.1063545e-06
178	0x380f7c49	3.4209606e-05
179	0x36aa58dc	5.0767394e-06
180	0x3382bdba	6.088108e-08
181	0x3aa35b71	0.0012463165
182	0x34f4e812	4.5617395e-07
183	0x3955b906	0.0002038219
184	0x3a0707dd	0.0005151013
185	0x36059b6e	1.9909016e-06
186	0x3b00029c	0.0019532805
187	0x3a1a777e	0.00058924395
188	0x2cb00b11	5.0034495e-12
189	0x36bde10e	5.6588387e-06
190	0x3b0cec1a	0.0021503032
191	0x36ec7263	7.0466645e-06
192	0x3abd1436	0.0014425579
193	0x3ab666d4	0.0013916143
194	0x3a12d160	0.00056006573
195	0x382f4548	4.1787775e-05
196	0x36471665	2.9666346e-06
197	0x39d56368	0.0004070059
198	0x39bc7050	0.00035941834
199	0x3ace25ce	0.0015727819
200	0x38d553cf	0.00010172242
201	0x397e0810	0.00024226331
202	0x391e99c8	0.00015125342
203	0x39952ad9	0.0002845142
204	0x37865b17	1.6016462e-05
205	0x38ba3e34	8.8807574e-05
206	0x3a4c8285	0.00078014313
207	0x3912a426	0.00013984795
208	0x37ab47bb	2.041819e-05
209	0x373db322	1.13069855e-05
210	0x385fdc24	5.3372365e-05
211	0x375c2609	1.3121878e-05
212	0x34479f28	1.859122e-07
213	0x3b091716	0.0020918301
214	0x35a0be29	1.1976273e-06
215	0x39c0854f	0.00036720416
216	0x3a059625	0.00050959206
217	0x369bb24f	4.640118e-06
218	0x3aea6bc9	0.0017884906
219	0x3a9a6eb8	0.0011782264
220	0x2d3f09ab	1.085924e-11
221	0x373218f5	1.06154375e-05
222	0x3abd4a13	0.0014441632
223	0x37b9ff4a	2.2172597e-05
224	0x3b9923d0	0.0046734586
225	0x3b4d3f41	0.003131822
226	0x3aa0910d	0.001225026
227	0x3a48df52	0.0007662672
228	0x3537ae58	6.8426516e-07
229	0x39e1fd17	0.0004310391
230	0x3ac06b13	0.0014680348
231	0x3b72a8eb	0.0037026952
232	0x398ccecf	0.00026856965
233	0x3a1006f1	0.00054941984
234	0x39021b6d	0.00012407983
235	0x3a467031	0.00075698184
236	0x3761f40f	1.3467869e-05
237	0x3a0afa23	0.00053015555
238	0x3a61603c	0.0008597409
239	0x39040806	0.0001259149
240	0x37900e75	1.717287e-05
241	0x36d086e1	6.214585e-06
242	0x38b9acbd	8.8536624e-05
243	0x370c22ab	8.352722e-06
244	0x326465f1	1.32945255e-08
245	0x3b3fe53e	0.0029280926
246	0x35102cf4	5.3709596e-07
247	0x39e353d3	0.00043359268
248	0x3ac2c9ff	0.0014861225
249	0x36637ec7	3.389943e-06
250	0x3b90f390	0.004423566
251	0x3aa90de5	0.0012897818
252	0x2dce77d7	2.3472708e-11
253	0x3758b871	1.2917547e-05
254	0x3b9a8bff	0.004716396
255	0x378e98e6	1.6998918e-05

exp_avg f4 [16]
0	0x3359ddb4	5.0725887e-08
1	0x3b930a49	0.00448731
2	0x3c0fb25a	0.00877055
3	0xb9a97cf8	-0.000323273
4	0x3ac53d27	0.0015048132
5	0x3bba1a0f	0.005679376
6	0xbb97a621	-0.0046279584
7	0x3bbc316a	0.0057431953
8	0xba08bc34	-0.0005216033
9	0xb8f54f7b	-0.00011697315
10	0xbb5ffa6f	-0.003417637
11	0x21c1131a	1.3083245e-18
12	0xb996787c	-0.00028699997
13	0x3b89d319	0.004206073
14	0x3b79963d	0.0038083934
15	0xb8df3580	-0.00010643434

exp_avg_sq f4 [16]
0	0x3404a2e7	1.2352722e-07
1	0x38af0bd4	8.3468534e-05
2	0x3a16a362	0.0005746392
3	0x36de9702	6.633695e-06
4	0x37e45a62	2.7221806e-05
5	0x398922bf	0.00026156564
6	0x39daea2d	0.00041754675
7	0x3a1e9f58	0.0006050966
8	0x369f170e	4.741253e-06
9	0x38bba3e2	8.9473804e-05
10	0x38eb14d2	0.00011209551
11	0x3426a7a3	1.552094e-07
12	0x388c02ae	6.676219e-05
13	0x39a96770	0.0003231126
14	0x39400134	0.00018310995
15	0x39454c04	0.00018815702

exp_avg f4 [1, 16]
0	0xb2c44a8a	-2.28513e-08
1	0xbc836626	-0.01603992
2	0xbc6411c2	-0.013920249
3	0x38f346de	0.00011600343
4	0x3bf9ba98	0.0076211207
5	0xbb2b5719	-0.0026144444
6	0x3b5dee47	0.0033863948
7	0x3b49ed01	0.0030811431
8	0x3ac9316a	0.001534981
9	0x3ba87fe7	0.0051422003
10	0x3d46456d	0.048406053
11	0x9faac1ee	-7.231863e-20
12	0x386123e8	5.367762e-05
13	0xbb2e84bd	-0.002662941
14	0xbc5715fd	-0.013127801
15	0x3c60e43c	0.01372629

exp_avg_sq f4 [1, 16]
0	0x34608eab	2.0913528e-07
1	0x3b973b0a	0.0046151923
2	0x3c8295f4	0.015940644
3	0x36c436d6	5.847639e-06
4	0x3d15d8a5	0.03658356
5	0x3c1dbb78	0.009627216
6	0x3b18a755	0.0023293097
7	0x3c985bcc	0.01859846
8	0x383e1124	4.5315493e-05
9	0x3ac4d5db	0.0015017347
10	0x3bf010c9	0.0073262197
11	0x321f04e0	9.2561265e-09
12	0x39365f0a	0.00017392277
13	0x3c96dd18	0.018415973
14	0x3cc0fbd2	0.023557577
15	0x3a3c8b42	0.0007192382
