models/best_rolling_model.pth (torch, 71930 bytes, 19 tensors)

model.0.weight f4 [128, 36]
00000000: bdbc c43d 68c5 f43c 83aa 0bbd 010a 1e3d
00000010: 9e5a 41bd 927f 91bd e33a 98bd 3a87 0c3e
00000020: 8aef 193e 00b8 18be cc1f 113e a434 893d
00000030: 1f29 203e 7101 0b3d 1442 153e cae5 873c
00000040: 5970 1e3e 9888 773d 1079 e6bd 6af6 e13c
00000050: dd9e 27bd d396 f6bb e19a 38bd 1b05 23bd
00000060: e581 32be dac1 f7bd 5efa 94bd 0a48 31be
00000070: 11da 503c aa29 14be 3c85 033e 792e 0cbe
00000080: e204 293e 7557 803d 7209 9bbd 5029 653d
00000090: cc8d 62ba f93e c43d e7d4 023e 0b49 8cbd
000000a0: f717 9b3d faaa 8cbd e200 813d 9d76 e03d
000000b0: 4c8a 2e3e 2aa6 a8bd be2e 453e 80b7 853d
000000c0: 1a77 cb3d f0d8 ffbd 581f 02be 32f6 a4bd
000000d0: 81b0 40be a8e0 973d f76f 753c bb7b 143c
000000e0: 2844 a83d 0ec5 6abc a7bb 41bc 1c35 41be
000000f0: 3271 a93d 60fd 6ebd 81f7 583d 4b43 f5bd
00000100: d371 fe3c 0288 01bd 0c0c 0d3e 2e59 c6bd
00000110: 98f9 0abe c798 cfbd bc61 3f3e 9990 933d
00000120: 63e7 5e3d b780 dcbd ccb8 abba eb19 d3bd
00000130: a413 e8bc bf0a dd3d a729 893d 42db 71bc
00000140: 10f5 093d 30ee 8bbd 3b0b 693e 2115 273d
00000150: e78d 023e d4bc 783d 388c 053e b6ca c4bc
00000160: 21e5 8abd 6296 a93d 170f 5b3d e039 043d
00000170: 5e84 343d a45d 873d c241 2abd c35a 9bbe
00000180: 3eba e23d 68f4 c6bd 5ff7 33bd ffea 8ebe
00000190: 67d3 00be cff4 283d 7887 183d 5c2f 8dbd
000001a0: 88c5 783d e465 5fbd e9ee 8cbd 8fc5 b93c
000001b0: 6043 47be 060f 75be 192e ce3d bcc3 bfbd
000001c0: 61c6 143e 7477 97be afbe 1ebe e293 18be
000001d0: 534f afbc c2cf d3bc 0970 83bc 4e89 88bd
000001e0: 45b6 213d f3f1 4f3c 423c 393d a941 88bd
000001f0: d522 efbc 97d1 babc 5dfa e9bb c4e0 a6bd
00000200: 7f91 843d a3bd 99bd c701 1e3e 78ee 333e
00000210: 9822 02bd ea65 623e 6625 da3c da2d a03c
00000220: eb09 00be 2e0f 0cbe b0d0 083e 4c4d 0e3c
00000230: 9ac8 d13d e56f cebd 2059 1b3e 1c6f 7abd
00000240: 17b5 3dbc e77f 2a3d 0187 b53d f3f3 f33d
00000250: 6d2a 363e 0045 f6bd 4c1f 363d 91b0 8fbc
00000260: fcb1 f7bc ee1f 75be 7e97 0e3e 841a 04be
00000270: 1bfc 113e 0a64 b23d b5da 273d 324b 36bd
00000280: 63c8 b63d f70d 833d 2e8c 103d 9986 d6bd
00000290: b599 413d 21e5 85bd ddb9 42bd 6f78 0b3d
000002a0: d714 1e3d fb92 cabd aa3f 32be 757d 8ebd
000002b0: 3ab9 843d dbb0 56bd ac3e ecbd 3d9d dabd
000002c0: 2254 20be 2c03 293d 725d b13d 3822 ebbd
000002d0: f3d7 30bc 497e 9d3d 6c76 043c 8263 c9bd
000002e0: 155e 5e3d bdec a33d 895b 553d d1b7 713c
000002f0: a09f 17bd 5305 27bb 9a11 e33c a5b0 c13c
00000300: 5517 253e af2b 403e 3691 9c3d 3eb0 60bb
00000310: 2ca6 143d dab3 a93c ac8b 773d 2bdf 173d
00000320: e313 a5bd 20ee dfbc 5d2a a53d d91d 2cbd
00000330: 5626 1bbc c6ab d2bd ec4e d4bd de04 46be
00000340: 23ba 81bc 75a4 dc3d 232e e73d 1841 6d3d
00000350: 986f c3bd a79f 1abd 979a 18bd 97cf 0c3e
00000360: f7e9 babc e8e1 82bd de1d f73c 08e8 dcbd
00000370: b8f4 08bd 2c56 c13d f93f 483d c61c aabd
00000380: 4c45 c3bd 2f41 1d3e 7dea 263e 2735 1e3e
00000390: e4d4 da3c 124f 92bd 26c1 893c 2261 aa3d
000003a0: 7647 8d3c ee79 e83d efbc ad3d c83a 943d
000003b0: f334 813c bb89 5abd cb2e 7cbd 0930 afbe
000003c0: 7cd5 8b3d e4de a5bd b3ef 8ebd ecaf 59be
000003d0: 2c76 97bd 9f33 fcbd ef56 abbd 79c1 5c3d
000003e0: e036 56bd abac e53d e93a 193c b1fa 3ebd
000003f0: 7fad d03c 732b 90bc 6bdd b03c 71b0 fcbd
0.096063115 0.029879287 -0.03409816 0.03858376 -0.04720556 -0.0710441 -0.07433107 0.1372346
0.15032783 -0.1491394 0.14172286 0.066994935 0.15640686 0.03393692 0.14575988 0.016589064
0.15472545 0.060433 -0.112535596 0.02758332 -0.04092299 -0.007525304 -0.04506958 -0.03979979
-0.17432363 -0.12097521 -0.07274316 -0.17312637 0.012747304 -0.14469019 0.12843794 -0.13689603
0.16505769 0.06266681 -0.07570161 0.0559476 -0.0008642345 0.095823236 0.12776528 -0.06849869
0.0757293 -0.06868549 0.062989965 0.10960124 0.17044944 -0.08234818 0.19256112 0.065291405
0.09934826 -0.124925494 -0.12707269 -0.080547705 -0.18817331 0.07415897 0.014980308 0.009062703
0.08216125 -0.014329208 -0.011824525 -0.18867916 0.082735434 -0.058347106 0.052970413 -0.11975726
0.031060135 -0.031623848 0.13774127 -0.096849784 -0.13571775 -0.10136562 0.18689626 0.07205314
0.054419886 -0.10766738 -0.0013101338 -0.10307678 -0.028329678 0.10793065 0.06697398 -0.014761748
0.033680975 -0.0683254 0.2275819 0.040791634 0.12749444 0.060726956 0.1304177 -0.024022441
-0.06781984 0.08280636 0.053481188 0.032281756 0.044071548 0.066096574 -0.041566618 -0.30342683
0.11070679 -0.097145855 -0.043937083 -0.27913663 -0.12580644 0.041249093 0.037238568 -0.06893799
0.060735255 -0.05454053 -0.06881506 0.022677211 -0.19459295 -0.23931512 0.10067386 -0.09363505
0.145288 -0.29583323 -0.15502428 -0.14900163 -0.02140013 -0.025855903 -0.016044633 -0.06666814
0.039480466 0.0126919625 0.045223482 -0.06653149 -0.029191414 -0.022805018 -0.0071404413 -0.081483394
0.06473064 -0.075068735 0.15430366 0.17571437 -0.031771272 0.2210919 0.026629161 0.019553114
-0.12503783 -0.13677666 0.13360858 0.008685421 0.1024334 -0.10079936 0.15170717 -0.06114112
-0.01157882 0.041625883 0.088636406 0.11911764 0.17789622 -0.120248795 0.04446344 -0.017540248
-0.030236237 -0.23937961 0.13924977 -0.1290074 0.14256327 0.08710487 0.04098006 -0.044505306
0.089249395 0.06399148 0.035289936 -0.10474891 0.047265727 -0.065378435 -0.047540534 0.0340504
0.038594093 -0.098913155 -0.17407098 -0.06957523 0.06480642 -0.052414756 -0.11535391 -0.10674522
-0.15657094 0.04126279 0.086604014 -0.11481136 -0.010793674 0.076901026 0.008084875 -0.09833433
0.054288942 0.080041386 0.052089248 0.014753298 -0.037017465 -0.0025485351 0.027718354 0.023643801
0.16122182 0.18766664 0.07644884 -0.0034284736 0.036291286 0.020715643 0.060435936 0.037078064
-0.08060434 -0.027335227 0.08064721 -0.042020652 -0.009469589 -0.102866694 -0.10366616 -0.19337794
-0.015835827 0.10773555 0.11288097 0.057923406 -0.09542769 -0.037749913 -0.037256803 0.13751064
-0.022816641 -0.063907444 0.030165609 -0.10786444 -0.033436507 0.09440264 0.048889134 -0.08306269
-0.09534702 0.15356897 0.16300388 0.15449964 0.026712842 -0.07143988 0.016815733 0.08319308
0.01724599 0.11351381 0.08483302 0.07237774 0.015772318 -0.053354006 -0.061568063 -0.34216335
0.06827828 -0.08099154 -0.06979313 -0.21258515 -0.07395586 -0.123145334 -0.08366191 0.053895447
-0.052298427 0.112145744 0.009352424 -0.046625797 0.025473354 -0.017598843 0.021589955 -0.12338341

model.0.bias f4 [128]
00000000: 8c03 30bc 879b 1cbe e24a 363e 3354 36be
00000010: 1332 8cbd 7911 443e a252 443e 50da d93d
00000020: bc39 07be 3d44 0fbd 9574 3cbe fab6 58bd
00000030: fc90 063e 006a 54be c1c5 033e 76af b13c
00000040: fefd 42bc 88e4 ff3c 7619 563e 2dfc 81bb
00000050: e2ce 53be eaf2 ddbc 8730 833d 3414 e93d
00000060: f199 15bd 8a5f bebd b342 66be 684c 1d3e
00000070: 08b9 c23d b14b 953e 55cb 37be 3e5d a63d
00000080: 490b 0f3c b7ec a43d da76 1f3e cd46 0bbd
00000090: 4bad f03c 3780 843d c546 06be cd7f 873e
000000a0: ed4c 4c3e 681c 5f3e 5a20 a9bc 34e3 41be
000000b0: b4fa f73c 9f0c d73d 805c 79bd 0827 d23c
000000c0: 0def ed3d cf71 bb3d 2f74 3abe 1bd3 223e
000000d0: 7e80 983d b123 48be f498 f0bd 8f1b e0bd
000000e0: d6af 82bb a0ce 68be 4d62 083e b213 1a3e
000000f0: 8ef9 7bbd a042 13bd df97 a53c 7b24 a9bd
00000100: 66cc 3c3e 6bc5 8c3d 6170 233c b428 283e
00000110: 538c 4c3e 9950 d43d e0b0 82be 7f6d 7f3d
00000120: 78f0 febd 6424 963d b26c 33be 451b 7cbd
00000130: 7826 c03d c433 a9bd 3ee5 3f3e a433 eb3d
00000140: 84bd 87be 60c3 c9bd eef4 b8bd 03ff 07be
00000150: 88a2 0d3b 2360 493c a686 343d 7553 22bc
00000160: 439c 833e 7a96 75be 52ef fcbc 0544 f1bc
00000170: d6e4 593e 44e3 cd3d 492d 1e3e 0a89 7d3c
00000180: aa21 073e 9464 123d 0460 f13c 5c30 533e
00000190: e01c 5037 3dea d6bd e716 d43d 66da bcbc
000001a0: e039 8cbe 8fbb 013e 735e 6cbe 1f13 93be
000001b0: 3ce7 a03c a375 143e 7123 bbbd 2fc4 4fbd
000001c0: 129b 0c3e e949 943e 5033 02be 6b07 93bd
000001d0: 17e0 913b 99da 373d 075d 293a 11d4 b7bb
000001e0: c027 a73d 39af 81bc 350c a8bd f381 493e
000001f0: 0000 613d 42c3 5b3d 9eda 90be 51d8 46be
-0.010743033 -0.15293704 0.17802003 -0.17805557 -0.068454884 0.1914729 0.19172147 0.10637343
-0.13205618 -0.034977186 -0.18403848 -0.052908875 0.13141245 -0.20743561 0.12868406 0.021690112
-0.011901377 0.031236902 0.2090815 -0.0039668293 -0.20684388 -0.02709337 0.0640574 0.113808066
-0.036523763 -0.092955664 -0.22486381 0.15361178 0.09507948 0.2915931 -0.17948659 0.08123253
0.008730718 0.08052962 0.15572682 -0.034003068 0.029379508 0.064697675 -0.13112934 0.26464692
0.1995122 0.2178818 -0.02064531 -0.18934327 0.030270912 0.10500454 -0.06087923 0.025653377
0.11617861 0.09152567 -0.18208383 0.15900843 0.07446383 -0.19544865 -0.117479235 -0.109427564
-0.0039882464 -0.22735071 0.13318749 0.15046576 -0.06151729 -0.03595221 0.02021402 -0.08258911
0.18437347 0.06873592 0.009975524 0.16421777 0.19975404 0.10366935 -0.2552557 0.062360283
-0.124482095 0.0733116 -0.17521933 -0.061549444 0.09382337 -0.08261827 0.18739793 0.11484459
-0.26511776 -0.09851718 -0.09031092 -0.13280873 0.0021611769 0.012290987 0.044073723 -0.009907593
0.25705156 -0.23983184 -0.030875836 -0.02945138 0.212787 0.10053113 0.15446962 0.015474567
0.13196436 0.03574045 0.02946473 0.20623916 1.2404489e-05 -0.10493896 0.10355931 -0.02305336
-0.27387905 0.12669204 -0.23082905 -0.28725526 0.019641511 0.14498 -0.09137619 -0.050724205
0.1373103 0.2896264 -0.12714887 -0.07179149 0.0044517624 0.044886205 0.00064607005 -0.005609997
0.081618786 -0.015830623 -0.08205453 0.19678478 0.05493164 0.05365301 -0.28291792 -0.19418456

model.2.weight f4 [128]
00000000: 2aa3 723f 8ac6 823f 16e3 873f 8161 6f3f
00000010: 87c9 7d3f 2d01 713f 7402 823f 5407 793f
00000020: 5a7a 713f 5ec5 6d3f d0b9 7b3f 9c37 6f3f
00000030: 2d05 643f 720a 6d3f 5464 843f 058e 783f
00000040: f258 7a3f 761d 823f 4a75 843f d693 663f
00000050: dcf8 783f 0bee 7b3f 13a1 833f aeaf 5f3f
00000060: 7fbe 613f 36f4 753f 7f23 753f ce5d 6b3f
00000070: ea6c 7b3f 471a 813f 277a 6f3f 9c4e 873f
00000080: 8f6b 703f 2576 6e3f 1809 723f 42cb 7b3f
00000090: 2eb7 743f 7cb1 7a3f 55ee 6c3f 27c0 743f
000000a0: 7c8c 833f 63dc 7b3f b092 713f 3497 823f
000000b0: e960 7b3f 1572 803f c23d 713f dffe 583f
000000c0: 06c5 673f cf56 833f efdf 763f 191f 713f
000000d0: 80f2 833f e2d9 693f 4750 783f 81c2 793f
000000e0: 8a0a 753f f022 803f 0519 813f 3634 5c3f
000000f0: 2b18 7d3f 49c9 713f 063c 633f f498 7b3f
00000100: d440 803f 1f34 733f 6015 803f 6ebc 7c3f
00000110: 4318 893f ac2b 683f f901 833f ae13 543f
00000120: c63e 543f c865 793f 13fa 743f f418 833f
00000130: 457c 683f 8edf 603f 74cd 803f 427c 7c3f
00000140: 9539 773f a110 7c3f 69d2 6c3f 3c7a 753f
00000150: 017a 6f3f ed5b 803f 13bc 823f 0779 713f
00000160: b0a7 883f 6cc9 663f a497 703f b4e6 6b3f
00000170: 920e 833f 5bb5 823f 0f08 6c3f 0dcc 6c3f
00000180: 45b7 7b3f 6050 7f3f 000c 823f 6b83 743f
00000190: c304 893f cfcc 7e3f 8be3 7a3f 96d5 773f
000001a0: cb9e 6d3f 1ff3 7e3f 860f 763f 8086 703f
000001b0: 3ce2 653f 7f68 783f b95c 683f c82c 753f
000001c0: 454f 713f 017f 803f 53d2 613f e99d 7d3f
000001d0: 83d3 803f 2571 6c3f c007 683f 3856 7a3f
000001e0: 4477 7b3f da15 5a3f e0f2 8d3f db24 753f
000001f0: e94b 793f 11bb 713f bd2f 6f3f 20df 7a3f
0.9478022 1.0216839 1.0616176 0.93508154 0.9913563 0.9414242 1.0156999 0.97276807
0.9432732 0.92879283 0.983304 0.9344423 0.890704 0.92594063 1.0343118 0.97091705
0.9779197 1.0165241 1.0348294 0.9006933 0.9725473 0.984101 1.0283531 0.8737744
0.881813 0.9607576 0.9575729 0.9194001 0.98213065 1.0086144 0.93545765 1.0570865
0.9391412 0.93149024 0.94545126 0.9835702 0.9559201 0.9792707 0.92551166 0.956057
1.0277247 0.9838316 0.9436445 1.0202394 0.9819475 1.0034815 0.9423486 0.847639
0.9053501 1.0260867 0.96435446 0.94188076 1.030838 0.9134809 0.96997494 0.97562414
0.95719206 1.0010662 1.008576 0.8601717 0.98865 0.9444776 0.88763463 0.9828026
1.0019784 0.95001405 1.0006523 0.9872502 1.0710529 0.9069164 1.0234977 0.8284253
0.82908285 0.9742093 0.9569408 1.024199 0.9081462 0.8784112 1.0062699 0.986271
0.9657224 0.98462874 0.9250856 0.9588964 0.9354554 1.0028054 1.0213646 0.943253
1.0676174 0.90151095 0.93981385 0.921489 1.0238822 1.0211595 0.92199796 0.92498857
0.9832652 0.9973202 1.0159912 0.9551303 1.0704578 0.99531263 0.98003453 0.9681028
0.92820424 0.99589723 0.96117437 0.9395523 0.8979833 0.9703445 0.90766484 0.95771456
0.9426158 1.0038759 0.88211554 0.99069077 1.0064548 0.92360145 0.90636826 0.9778781
0.9822886 0.8518959 1.1089745 0.9575936 0.97381455 0.94426066 0.9343222 0.9799671

model.2.bias f4 [128]
00000000: e5ae 143d ae69 953c f5ef 203e 24c1 1ebd
00000010: 014a f93d a2f6 bc3d e091 403e ed5b a13c
00000020: 13bf e7bd c658 bd3c 76f9 2fbe a01d 873d
00000030: bb29 44bc c687 1ebe 0dd2 14be 2f72 ae3d
00000040: a769 7e3d f3f9 80bd 7d29 a23c cf3f 5abd
00000050: 6caf 4cbb 47db 9b3b c7a0 44be 46d0 453b
00000060: d926 f5bd 5d66 cf3d 508a e03d 9ac0 a83c
00000070: 1c18 143e 3702 0fbe 4c0d b0ba 18c0 d13d
00000080: 8819 263c 56d0 26be 6d0b 553d 1b2f e7bc
00000090: 7ba2 e9bd 2d5a 60bd 5b85 94bc 2b9e b3bd
000000a0: aaf6 743e 86e8 67bd 4e60 dfbd d187 b43d
000000b0: ce79 803d 5724 7abb 097f d0bc 6930 77bd
000000c0: 3cf9 a1bd 0fb8 ebbc 4648 96bd ae37 debd
000000d0: 59a7 d73d f4b8 82bd 9d91 0bbe a6c9 2d3d
000000e0: d7f5 af3d ae84 3dbe 9593 88be 8c74 c7bd
000000f0: d1f3 c73d 8b69 c3bc 55b4 e23d a2f1 4b3d
00000100: 62af da3d 106b 85bd 7873 93bc c15c 03bd
00000110: 656b a43d b1b2 e83d d9fb bbbd 9a28 013d
00000120: 8802 80bd e022 123e a307 2c3c e6d6 143e
00000130: eff0 23bd 8ba8 62bc 1b52 163e 7bd4 0a3d
00000140: d4e1 f83d 824a 35bd 8898 0d3c 3b65 debc
00000150: 9c60 503d 31a8 afbd 8efe f63b 398a babd
00000160: 84cf 5cbe 0132 b1bd 3019 973d 41c0 94bb
00000170: cc75 bfbd ed90 95bc ec67 003e fe9a 9a3d
00000180: c8f0 1f3e 0515 153e f57c 2e3e 3aad 273d
00000190: 1fea 22be f8ec bb3d c7de 763d b40e 11be
000001a0: dbf2 eabd c87a 083e 990a cdbb 83a7 c3bd
000001b0: 49ea 3d3c 0d71 35bd d317 a0bd 6264 23be
000001c0: 8b38 d6bc 8d31 e7bd 356c 4f3c e7c1 08be
000001d0: 6099 9c3d d9a2 233e 0b27 37bd d735 6c3d
000001e0: 1617 97bc a661 e23d 66b2 6b3e 0586 c83d
000001f0: 4bf9 c73d 1af6 263d 5025 c0bd e11a 9c3b
0.036299605 0.018238869 0.15716536 -0.038758412 0.12172318 0.09226729 0.18805647 0.019697154
-0.113157414 0.02311362 -0.17185006 0.065974474 -0.01197284 -0.15481481 -0.14533253 0.085178725
0.062112477 -0.06297674 0.019795174 -0.05328351 -0.003123249 0.0047563645 -0.19201957 0.0030183955
-0.119703 0.10126946 0.10963881 0.020599652 0.14462322 -0.13965689 -0.0013431697 0.10241717
0.010137923 -0.16290411 0.05201285 -0.028220704 -0.11407944 -0.0547735 -0.018129995 -0.087704025
0.2392222 -0.056618236 -0.109070405 0.088149674 0.062732324 -0.0038168633 -0.0254512 -0.060348902
-0.07908866 -0.02877429 -0.07338004 -0.10850464 0.10529966 -0.06382933 -0.13629766 0.042428635
0.08591812 -0.18507645 -0.26675096 -0.097390264 0.09763301 -0.023854038 0.11069552 0.049790986
0.10677983 -0.06514561 -0.017999396 -0.03207088 0.080282964 0.11362208 -0.091788955 0.03153286
-0.06250483 0.14271116 0.010499868 0.14535102 -0.040024694 -0.013834129 0.14679758 0.033894043
0.12152448 -0.04426051 0.008642323 -0.02714788 0.050873384 -0.08577002 0.0075376695 -0.09108395
-0.21563536 -0.086521156 0.07377851 -0.00453952 -0.0934864 -0.018257583 0.12539643 0.07549094
0.15619195 0.145588 0.17039855 0.040936686 -0.15909623 0.091760576 0.06027105 -0.14165765
-0.11472102 0.13328087 -0.006257367 -0.09553435 0.011591502 -0.044297267 -0.07817044 -0.15956262
-0.026150009 -0.11288748 0.012660076 -0.13355218 0.076464415 0.1598009 -0.04471497 0.057668533
-0.018443625 0.11053781 0.23017272 0.09791187 0.09764346 0.040762044 -0.09382117 0.0047639464

model.2.running_mean f4 [128]
00000000: 0bab 143e e7cf 383d 75e9 a53e f191 2b3e
00000010: a5ca 853d 449b 953e f7e3 9b3e f0d7 503e
00000020: 29a3 e53d 4fc4 603e d7c5 2c3e c47f 883e
00000030: 131d af3e c960 973e 8c74 0f3e 87a8 373e
00000040: 74ac 253e 8777 3d3e e8b4 b03e 4ae0 353e
00000050: affb 013e c0e8 a73d 8340 653e 1d45 7d3e
00000060: 7b84 153e cfc1 c83d bcc3 143e 7031 ac3e
00000070: 1f17 593e 2f68 303e 2177 753d 710f 513e
00000080: 1588 4c3e 778b 4e3e 82b3 7b3e 5ee1 643d
00000090: 4ca9 bc3d 6dad 453e 66c2 933d 23cd 8c3e
000000a0: 5c21 c13e 3121 863e 304c 0a3f 12de 443d
000000b0: 2106 a23d c306 1a3e a6b0 0e3e f553 1b3f
000000c0: 4f89 4f3e bf26 343e 22c5 c43d 90e6 7f3e
000000d0: 9357 4f3e 8b5b e23d c19b 9e3d ef81 e83d
000000e0: 92c2 323e 67e8 1b3e f377 fb3d 1571 053f
000000f0: ae25 9a3d ff37 503d 431d 8e3e 954e 633e
00000100: 58ab 6c3e 309e 6c3e dcf4 ce3d 037d 633e
00000110: 0242 773e d605 3a3e 7515 053e 1f3f ad3e
00000120: ebc0 af3e 9fff 303e 062e 9b3d b4c1 183e
00000130: ac5f b33e 1ebf 363e 0c41 9c3e ec0f 053e
00000140: 3d57 2c3d e366 ab3e d4c4 d23d fb6b 6c3e
00000150: c8ab dc3d 0471 463d f6fa b23d e36c 143e
00000160: d4b3 2e3e b1da 6b3e d71c 443e fa28 d93e
00000170: 79d4 393e 3462 053e a3ad 1c3e 27f6 863e
00000180: 8a07 ad3e 440b dc3d 8a6e 1f3e bf48 7e3e
00000190: f81e 913e e277 af3d c32e a03e 6909 713e
000001a0: 221a d03d 8977 433e 1f0d a73d e551 163e
000001b0: 2184 ea3d 2479 e43e 0d63 a23e 3e01 4d3e
000001c0: b37e d93e db35 963e 2f36 fb3e 5db3 103e
000001d0: 0655 2d3e c57b 9b3d c117 943d a168 ec3d
000001e0: ece1 da3e fcde 993e 0630 973d 396c 133e
000001f0: 5276 e73d 2c0a 053e 750d 4d3e 48a4 143e
0.14518373 0.045120146 0.32404676 0.16754891 0.06532792 0.2922002 0.3044736 0.20394874
0.11212761 0.21949886 0.16872345 0.26659977 0.3420187 0.2956603 0.14009303 0.17935382
0.16179067 0.18502627 0.3451302 0.1776134 0.12693666 0.081986904 0.2238789 0.24733396
0.14601319 0.09802591 0.14527792 0.33631468 0.21200226 0.17227243 0.059928063 0.20416047
0.19973786 0.20170389 0.24580196 0.05587899 0.09211978 0.19304438 0.07214813 0.27500257
0.37720764 0.26197198 0.540225 0.048063345 0.07911325 0.15041642 0.13934574 0.60674983
0.20267223 0.17592905 0.096079126 0.24990296 0.2024825 0.11052617 0.077445515 0.11352908
0.17457035 0.15225373 0.12278738 0.52125674 0.07526718 0.050834652 0.277567 0.22197945
0.23112237 0.23107219 0.10105297 0.22215657 0.24146274 0.18166289 0.12996466 0.3383722
0.34326872 0.17285012 0.07577138 0.14917642 0.3503393 0.17846343 0.30518377 0.12994355
0.042075384 0.33476934 0.10291448 0.23088066 0.10774952 0.048447624 0.08739273 0.14494662
0.17060786 0.23032643 0.19151627 0.42414075 0.18147458 0.13025743 0.15300612 0.26359674
0.33794814 0.10744336 0.15569511 0.24832438 0.2834394 0.08567788 0.31285676 0.23538746
0.101612344 0.19088568 0.081567995 0.14679678 0.11450983 0.44623673 0.31716195 0.20020005
0.42479476 0.29337963 0.49064776 0.14130922 0.16926965 0.075919665 0.07231093 0.11543394
0.4275049 0.30052936 0.073822066 0.14396752 0.11301865 0.12992162 0.20024665 0.14515793

model.2.running_var f4 [128]
00000000: 8832 e83c cd97 5b3c b967 0e3d f36d 4b3e
00000010: 61c9 7b3c 52bc 323e 771d f23c 71ee 413d
00000020: cf5f ab3d 7696 6a3e 7e1d 2e3e c3e1 183e
00000030: 9d85 d53e 15ad e03e c68e 553d 05dc 5c3d
00000040: 41fc d03d 5fb3 243d 6e43 fb3d 2a18 443d
00000050: b40f 233e 9754 bd3c 3c8a d53d 8c70 953d
00000060: 05c5 003e 41f2 de3c c2ff 413d c882 933d
00000070: ba2f 823d abac 6c3c 255c b23c 741e 2e3d
00000080: df4c 343e 3865 173e 0113 153d fd2c 413c
00000090: beb2 fe3c 8b47 673d 9f05 cc3c 88df 543d
000000a0: 257a 083e e911 303e 6f0e 8c3f 9f2f 203c
000000b0: e33e 223c c888 b63c 7e40 1b3d fc5e ac3f
000000c0: f19a 013e 7071 093d 75c8 c83d 9e3a 253e
000000d0: b403 863d 7c0c 893d 43d8 633d ab67 013d
000000e0: 969c 293d e450 373e 4a99 073d c6b4 4c3f
000000f0: fc1d 4b3c 5a0d d13c 32b0 f13d 0e74 d63d
00000100: a473 013d 53a4 2f3e 2cf7 9d3c 41d6 313d
00000110: e921 b63c 5313 353d 5fc3 2a3e 413f eb3e
00000120: 22cc 303f 3f85 b13c bbc9 7f3d 5508 123d
00000130: 629f d43e 56ba 923d df0f 6a3d be01 883d
00000140: dfc0 263d a2da 063f 0b4f ac3d 34a8 d03e
00000150: 3c58 183d e18f 253c a737 193c c472 1b3e
00000160: 0915 b63c 71ec d23e db2f 793d 81f8 513f
00000170: c826 273d 8be2 2c3d 79ef b53c 4412 d13d
00000180: 7ffb cf3d d787 d13c 493d b73d 2bb7 973d
00000190: 90aa 2b3e c2e4 073d d5c1 843e b513 bb3e
000001a0: 1cf1 de3d fa4b 203d 72a7 b03d 6954 273e
000001b0: 9176 213d 7ee1 363f f1fe ca3e 5b8d 5d3e
000001c0: 1c45 213f 708a 843d 887a 8e3f 1888 9a3d
000001d0: f530 893d fb44 203c 71c9 003d c8a0 e23c
000001e0: f7a8 523f 5ad5 363e fab9 e83c 70d6 aa3c
000001f0: a48a ca3c 976b a43d d71d 993e 2952 263e
0.028344408 0.013402891 0.034766886 0.19866161 0.015367837 0.17454651 0.029555066 0.047346536
0.083678834 0.22908959 0.17003438 0.14929871 0.417035 0.4388205 0.052138112 0.053920764
0.102043636 0.040210124 0.122687206 0.047874607 0.15923959 0.023111625 0.10426757 0.07296857
0.12575157 0.027215125 0.04736305 0.07202679 0.06356759 0.014445464 0.021772454 0.04250951
0.17607449 0.14784706 0.036395077 0.011790511 0.03109109 0.056464713 0.024905024 0.05197099
0.13327844 0.17194332 1.0941905 0.009776979 0.009902689 0.02228202 0.0379033 1.3466487
0.12656762 0.033555448 0.09803859 0.16135642 0.06543675 0.06691834 0.055626165 0.031593006
0.041409098 0.17901951 0.033105172 0.7996334 0.012397286 0.025519062 0.11801185 0.104713544
0.031604424 0.17152528 0.0192829 0.04341722 0.022232966 0.044207882 0.1667609 0.45946696
0.6906148 0.021669982 0.062448245 0.035652477 0.4152785 0.07164447 0.057144042 0.06640957
0.04071128 0.5267736 0.08413514 0.4075333 0.03719352 0.010105104 0.009351647 0.15180498
0.022226827 0.41196015 0.060836654 0.8201981 0.04080847 0.042208236 0.022208916 0.10208562
0.10155391 0.025577469 0.08947236 0.074079834 0.16764283 0.033177145 0.25929132 0.36538473
0.10885832 0.039134957 0.08625688 0.16340794 0.039419714 0.71437824 0.3964763 0.21635954
0.6299608 0.06471717 1.1131144 0.07545489 0.06698791 0.009782071 0.03144211 0.027664557
0.8228907 0.17854825 0.028408993 0.020854205 0.024724312 0.08028334 0.29905578 0.16242279

model.4.weight f4 [64, 128]
00000000: bd3f a43d c3c8 bb3c 7c7e ba3d e7b5 2abe
00000010: 48ed 203e 0437 2dbd 16e7 2c3d 76eb 1cbb
00000020: dcc4 98bc dbaf e3bd f4b7 c6bc ac06 b53d
00000030: a492 bbbc e3c3 923d ae71 f33c 7d54 9e3d
00000040: 2652 c2bb d2d2 393d a113 d03d 4e7c 14be
00000050: ac8a 94bc b752 5a3d 5b00 18bd 3f11 ee3c
00000060: 62d0 3d3d d033 38bd 5e90 823c 1e94 08bd
00000070: 9d5b e83c 65fc 30bd 8c15 edbb 9d43 8a3c
00000080: 88fc a63d 2ffe 4e3d b09a c4bd e5fc 23bd
00000090: a0e6 ccbd 92c2 9938 cdc8 b13d c4fe fbbd
000000a0: d9ba 83ba 697f 08bd 2e24 0cbd 1482 803d
000000b0: 92e6 febc 1a6e fa3d 7440 603d 184f bd3c
000000c0: a8ce 55bc 0181 79bd 3edc 0ebd 8c66 9f3c
000000d0: 1b70 a73d 40e6 acbd 28b3 8c3c 3eae 703d
000000e0: 1101 ecbc 54c0 863d d145 053d 50e1 2bbc
000000f0: f797 b0bc 5abb 27bd ac0d c4bd b599 6b3d
00000100: d685 33bd 8fea 4d3c ce43 8d3d 841e 3ebd
00000110: 1bc0 143e 84ed e63c 994f 453d 666e 0e3d
00000120: 7e77 583c be73 0e3d 62a8 a4bd aef2 e93d
00000130: 4ba6 aabc 49af 803b b2ad bc3d 2dcd 863d
00000140: 3880 e23d a299 44bb 99ad 95bd 29d0 a43d
00000150: b69a 9cbc 567f ed3c 2803 b63d 8378 9f3c
00000160: abb8 95bd 85ce 16bc 7fa1 b7bd c9e6 20bc
00000170: a85c 78bd 78cd e8bc aaf2 cd3d c34c 303d
00000180: 7234 61bb 0d2c 483d 9b8d bc3d 1ba4 07bd
00000190: 1514 c53c f997 d43d 8553 afbd bbf0 c9bc
000001a0: 020e 713d 0b07 673d 4135 a83d 1428 6ebd
000001b0: c9ed 653d c091 f93b 673c 5cbc a0b0 c43d
000001c0: bb49 e1bc 5c50 d5bd 9810 10bc a491 2a3d
000001d0: 9baf ec3d dc0f 4d3d f36a f7bb 5579 143e
000001e0: f181 6a3d ddd0 6cbd a7db 4a3d dd1c 5a3c
000001f0: 18be cabc 40ac b53d d036 803d 55c9 c3bc
00000200: 22f3 013e 985c 243d 931b 653e 1b06 0a3c
00000210: c9b4 dbbd 6788 153d 5ce6 583d 7e0d 923c
00000220: 2470 7d3c 96d9 95bd 9c12 f4bd b493 7dbc
00000230: 832a 153c b9b2 7a3d 9c74 403a 0ee7 933d
00000240: 7479 bd3b 4b9f 973d 0848 dfbc b05f 72bc
00000250: ad32 2dbd ba3c 8abc e862 0fbd 0f1a 5b3d
00000260: 6894 3c3d e64b 75bd 975e a1bb b141 673d
00000270: e0e6 adbc 4d60 abbc 8014 ad3c cc2b c8bc
00000280: 4aac 77bd c84d 88bc 3a0c 043d 81cf aa3b
00000290: 4471 ec3b 16ae 83bc 8973 2a3d ebfd 6abd
000002a0: e232 0d3d 028e 18be 6351 1e3d e49b 49bd
000002b0: f4ac 453c 5071 b8bd 55b0 513d 9b7f 8a3d
000002c0: 0367 593d 1d01 5d3d 98e1 17bd 291c 54be
000002d0: 8d64 993c 6953 48bd aaf5 6ebd d2b3 4abd
000002e0: f2e9 b7bd 2180 1bbe b9f9 86bd c1eb f53c
000002f0: 046b 213d a94d 2dbd 8523 f43c 2b09 373e
00000300: 57bf 913d 9032 33be fe35 5cbd 0d13 c6bd
00000310: 4c14 a73c fe6a 9d3d 4ffd f4bd fe45 a0bd
00000320: 4c31 40bc 5eb6 ae3d 0343 48bd 28d7 9c3b
00000330: 9169 01bd 0c1f 853c 1c3a 2f3d 05ca 743d
00000340: 4e26 103e 172f 89bd 2d97 ab3c adf7 a8bd
00000350: 81e1 263c f268 04bd 945f 2abc a93b d3bc
00000360: 2ff1 6b3d 8f85 85bb 5509 3e3d fa3f a73c
00000370: 11ec 123d 5673 573d 4d6d b13c cf5a 7bbd
00000380: 4159 733d 9d24 d93c 6481 4b3c 78bf 973d
00000390: 2d8d 18bc 82af 47bd e591 73bd aa47 bf3d
000003a0: e4ef 3dbc 0c63 3d3d 9c7d 02be e22e 3a3d
000003b0: 6720 fe3c 79b1 7fbd 79cb dcbc d486 873d
000003c0: a9da c53a 7737 a5bd 8beb 55bd 5e0b ac3d
000003d0: 5046 0dbc 8e51 f13d 09b5 973c f185 09bd
000003e0: 38ad 07be 3655 d53d 4564 1c3d 1879 24bc
000003f0: 2fc4 9d3d 56a0 afbd 261c 08bd dba2 fe3c
0.080199696 0.02292288 0.09106156 -0.16670953 0.15715516 -0.042288795 0.04221257 -0.0023944057
-0.018648557 -0.11117526 -0.024257638 0.08839163 -0.022897072 0.07166269 0.029717293 0.077309586
-0.005930203 0.04536707 0.10159994 -0.14500543 -0.01813253 0.05330154 -0.037109714 0.029060958
0.046341307 -0.044971287 0.01593798 -0.03334438 0.028363997 -0.043209452 -0.0072352346 0.016877944
0.08153635 0.050535377 -0.09599817 -0.0400361 -0.10004926 7.33185e-05 0.08680878 -0.12304452
-0.0010050192 -0.033324633 -0.03421419 0.062748104 -0.031115804 0.122280315 0.054748967 0.023109004
-0.013049759 -0.060914043 -0.034878008 0.019458078 0.08175679 -0.08442354 0.017175272 0.05875992
-0.028809102 0.065796524 0.032537285 -0.01049073 -0.021556837 -0.040950157 -0.0957292 0.057519633
-0.043828808 0.01256813 0.06897698 -0.04641582 0.14526407 0.028189428 0.048171613 0.034773253
0.013212083 0.03477835 -0.08039929 0.114232406 -0.020831248 0.0039271456 0.09212817 0.06582103
0.11059612 -0.00299988 -0.07308502 0.08047516 -0.01911674 0.028991383 0.08887321 0.019466644
-0.07310613 -0.0092045115 -0.0896635 -0.0098206485 -0.06063524 -0.028418288 0.1005605 0.043041956
-0.0034363535 0.048870135 0.092066966 -0.033115488 0.024057427 0.10380549 -0.08560852 -0.024650922
0.05885125 0.0564032 0.082132824 -0.05814369 0.056134973 0.0076162517 -0.013442135 0.09604001
-0.027500978 -0.10415718 -0.008793019 0.0416428 0.115569316 0.050063953 -0.007550591 0.1449941
0.057252828 -0.057816375 0.049525883 0.013312546 -0.024748847 0.08870745 0.06260455 -0.023899714
0.12690404 0.040127367 0.223738 0.008424307 -0.107278414 0.036507037 0.052954063 0.0178287
0.015468631 -0.07316892 -0.11917612 -0.01547711 0.009104374 0.0612056 0.0007341595 0.072218046
0.0057823006 0.074034296 -0.027256027 -0.0147933215 -0.042284656 -0.01687466 -0.035006434 0.05349165
0.04603997 -0.059886836 -0.004924606 0.056459133 -0.021228254 -0.020919943 0.02112794 -0.024434946
-0.060467042 -0.016638651 0.032238223 0.0052127247 0.0072156508 -0.016074222 0.04161409 -0.05737106
0.034472354 -0.14897922 0.038651835 -0.049220935 0.012065161 -0.09005988 0.051193554 0.0676262
0.053076755 0.05395614 -0.037080377 -0.20713867 0.018724704 -0.04890767 -0.058339752 -0.049487896
-0.089801684 -0.15185596 -0.065905996 0.030019643 0.0394087 -0.04231039 0.029802093 0.17874591
0.07116573 -0.17499757 -0.05376243 -0.096716024 0.02039542 0.07686423 -0.11962377 -0.0782585
-0.011730503 0.085308775 -0.048892032 0.004786391 -0.031594817 0.016250156 0.042780027 0.059762973
0.14077112 -0.06698435 0.02094611 -0.082503654 0.0101856 -0.032326646 -0.010398764 -0.025785284
0.057603057 -0.0040747593 0.04639562 0.020416249 0.03586966 0.052600227 0.021658564 -0.0613659
0.05941129 0.026506716 0.012420986 0.07409567 -0.009311003 -0.04875136 -0.059465308 0.09339841
-0.011592839 0.046237037 -0.12743229 0.045454867 0.03102131 -0.06242511 -0.026952492 0.06617513
0.0015095073 -0.0806722 -0.052226584 0.084006056 -0.008622721 0.117831334 0.018518941 -0.033575002
-0.13249671 0.10416643 0.038181562 -0.010038637 0.07703435 -0.085755035 -0.03322997 0.031083515

model.4.bias f4 [64]
00000000: 48d5 b83c 6b7b 333e 896b a9bd 12e1 de3d
00000010: a533 473e 3632 583d 92bc 8abe 93fc 2fbd
00000020: c48e 2dbe 19b4 e13c a120 48bd e708 1e3e
00000030: 0bb7 413d 0316 cc3d e573 01be 64a2 433d
00000040: 96cc 0b3d 4240 35bd 55c0 003d 0acd b9bd
00000050: fe84 c3bd 6b2e 0a3d 0e0f 4c3e f4e3 1a3e
00000060: ea2a 8e3d 8151 243e a4ab ac3d bc04 24bd
00000070: f94e 85bd 5fdc 1a3d cba8 8abc 65b0 a43c
00000080: c8f3 103e 9338 02bd 01fa 0dbc cac4 073d
00000090: 6c6f fa3c d82d 41bd 297e fe3d de2a bebd
000000a0: 1c5e c33c 6966 a43d 5ffb 2c3d 6e8e cfbd
000000b0: 64a2 c6bb a173 0f3c 8257 343c c55a eabd
000000c0: ef3a 1abc c761 bcbd 62d2 e93d 4ab4 6a3d
000000d0: 19e9 8e3d cedd 9b3d 888b 403c 774e 463d
000000e0: b46a e8bc 4e87 473e 8a4c 17bd 9ed2 183d
000000f0: b680 423d 4de9 55bd 9de8 1e3e a836 653c
0.022562638 0.17527549 -0.08272464 0.108827725 0.19453295 0.05278226 -0.27096993 -0.042965483
-0.16948992 0.027551698 -0.048859242 0.15433083 0.047293704 0.09965136 -0.12641867 0.04776229
0.034130655 -0.044250734 0.031433422 -0.09072311 -0.095468506 0.033735674 0.19927618 0.1512602
0.06941779 0.16046716 0.08431175 -0.040043578 -0.065092035 0.03780782 -0.01692619 0.020103643
0.14155495 -0.031792235 -0.008665563 0.033146657 0.030570708 -0.04716286 0.12426407 -0.0928552
0.023848586 0.08027346 0.042231914 -0.10134588 -0.006061839 0.008755595 0.011007192 -0.11443094
-0.009413465 -0.09198337 0.114170805 0.057300843 0.069780536 0.07610665 0.011752017 0.048414674
-0.028371193 0.19485208 -0.036938228 0.037310235 0.04748603 -0.052224446 0.15518422 0.013990082

model.6.weight f4 [64]
00000000: 6e37 773f 7e51 6e3f 274a 713f c64b 6d3f
00000010: d565 653f bb4e 6c3f cb53 843f 67c5 823f
00000020: f2e0 803f 0a26 893f 7438 823f 09a7 6e3f
00000030: d573 833f 1f7c 753f c694 813f cf4c 6f3f
00000040: fa01 743f 26d1 743f 073e 763f 2be5 853f
00000050: 3fbe 803f 14b2 703f cf31 5e3f 084e 763f
00000060: e50a 6a3f 7aeb 683f b951 5b3f 26e9 803f
00000070: 5159 743f 9336 7e3f 3629 7b3f 324f 5f3f
00000080: d3e9 673f f191 7d3f 7c8d 603f 92be 663f
00000090: 089d 743f c56b 833f e802 733f bc90 713f
000000a0: b6a2 513f 187a 8a3f 1f71 7f3f d938 8c3f
000000b0: 9cad 6d3f 06d4 803f 78e1 713f bf85 6e3f
000000c0: e292 773f 6bec 933f 2256 6e3f 4230 683f
000000d0: 2529 753f 8e19 723f 9abd 6f3f c2bd 7c3f
000000e0: bf7d 673f 5c5a 633f a749 803f 4ec8 693f
000000f0: 64fa 623f ca85 863f 03af 6f3f 23a2 713f
0.96568954 0.930931 0.9425377 0.92693746 0.8960851 0.92307633 1.0338072 1.0216492
1.0068648 1.0714734 1.0173478 0.93223625 1.0269724 0.9589252 1.0123527 0.93476576
0.95315516 0.95631635 0.96188396 1.0460562 1.0058059 0.94021726 0.8679475 0.96212816
0.91422874 0.9098431 0.85671574 1.0071151 0.95448786 0.99302024 0.9810976 0.8723022
0.9059116 0.99050814 0.8771589 0.9013454 0.9555211 1.0267264 0.9492631 0.9436147
0.818889 1.081851 0.99781984 1.0954849 0.9284303 1.0064704 0.94484663 0.9317283
0.967085 1.1556524 0.9310018 0.90698636 0.95765907 0.94570243 0.93648684 0.9872705
0.9042625 0.8880975 1.0022477 0.91321266 0.88663316 1.0509579 0.9362642 0.94388026

model.6.bias f4 [64]
00000000: 8740 163e 67f0 2f3e 4488 e9bd d8f5 553e
00000010: 0b92 5d3e 4e26 003e bf9e 54be 2332 7b3e
00000020: bcb7 27be a9fd 87bd 2266 183e 329b 03be
00000030: c975 2a3e a352 be3d 057b 26bd c368 88bd
00000040: 11df 6f3e abf3 5cbd 09ff d73d f659 d93d
00000050: a6b1 a6bd 4616 393e bd80 2fbe 6bf7 91bd
00000060: da06 533e d197 4c3e 8ada 44bc 458a 053e
00000070: 38de 363e c0fc 1f3d 07ef 663d 09e8 3c3d
00000080: 5a37 0dbe 74d6 95bd 9dbc 7dbd e33e 56bd
00000090: 3f88 733e c0c7 d9bd fe62 2ebd 53b4 10bd
000000a0: beb8 dcbd c961 1b3d c3c1 b9bd 3a41 5c3d
000000b0: ebca 63bd 6e50 753d be61 1cbe 20de e63d
000000c0: 04c7 d7bd 881e 073d 919e 343e a6be 32be
000000d0: de6a 343d 43d2 473c 540f 83be 3a78 59be
000000e0: 4aff 95bb d16b 9ebd f563 d0bb 5593 4cbd
000000f0: 95fe ea3d 211e c03d ba7d dd3d 6139 a9bd
0.14673053 0.1718155 -0.11402944 0.20894563 0.21637742 0.12514612 -0.20763682 0.24530844
-0.16378683 -0.06640179 0.1488271 -0.12852171 0.16646494 0.092931055 -0.040644664 -0.06660607
0.23424937 -0.053943317 0.10546691 0.10612862 -0.081393525 0.18074903 -0.17138954 -0.07127269
0.20608082 0.19979788 -0.012014994 0.13041027 0.17858207 0.0390594 0.056380298 0.046119723
-0.13790646 -0.07316294 -0.061947454 -0.052306067 0.23782443 -0.106338024 -0.042574875 -0.03532822
-0.10777424 0.037935052 -0.0907016 0.053773142 -0.05561344 0.059891157 -0.1527166 0.11272836
-0.10536006 0.0329881 0.17638613 -0.17455539 0.04404723 0.012196126 -0.25597632 -0.21237269
-0.004577552 -0.07735408 -0.006359572 -0.049945194 0.11474339 0.09380747 0.10814996 -0.08262897

model.6.running_mean f4 [64]
00000000: 96ed 1b3f 7fb3 643f e36b 0d3f 0d4f 933f
00000010: 825a 6e3f d5f2 603f aeda bd3e e759 0b3f
00000020: cac7 d63e e0b7 303f 5aa9 1c3f 0b57 2c3f
00000030: 3d5a 293f 801f 4a3f c234 a43e 1ebc 203f
00000040: b5d2 1c3f c52c b53e 7b3a 7e3f ce99 103f
00000050: 28e5 073f 68a9 203f a5b7 f53e af01 0e3f
00000060: d322 883f e88c 6e3f be58 083f e5c4 003f
00000070: 5995 223f 277e 1b3f 308b 353f 3597 d83e
00000080: 3861 153f 9dab ce3e 2ef3 f03e f2c2 e03e
00000090: 0b6d 2f3f d5b6 0c3f 5cd3 263f 3978 bf3e
000000a0: 330c c73e 6c0b 303f 363c c63e 0762 0d3f
000000b0: a620 c83e 4a68 5b3f 6712 0f3f 7768 033f
000000c0: e531 0c3f 0d52 c13e 9115 5c3f 1796 fc3e
000000d0: e433 2b3f ab6e 0d3f c226 ed3e a421 db3e
000000e0: 36a9 183f 8497 f83e 07c4 dc3e 5aa0 0a3f
000000f0: df9f 193f ed0e 093f af7a 6b3f bd6c 183f
0.609094 0.8933639 0.5524275 1.1508499 0.93106854 0.8787053 0.37080902 0.54434055
0.41949302 0.6903057 0.6119591 0.6732032 0.6615332 0.78954315 0.320715 0.62787044
0.61259013 0.3538572 0.99307984 0.5648469 0.5308404 0.62758493 0.47991672 0.5547132
1.0635628 0.93183756 0.5326041 0.5030044 0.63509136 0.6073937 0.7091551 0.42302862
0.5835147 0.40365306 0.4706053 0.4389873 0.6852576 0.5496648 0.6516626 0.3739641
0.38876495 0.6876743 0.38717812 0.552277 0.3908741 0.8570601 0.55887455 0.51331276
0.54763633 0.37757912 0.8597041 0.4933326 0.66876054 0.5524699 0.46318632 0.42799103
0.59633195 0.48553097 0.43118307 0.5415093 0.6000957 0.535384 0.91984075 0.5954092

model.6.running_var f4 [64]
00000000: b88c 8b3f 9cf4 1e3f 8986 e23f 4617 8b3f
00000010: f756 3c3f 54ea 3f3f 6fc4 b63f 1a66 513f
00000020: fce0 bf3f 7850 153f b95a 3d3f 7ebe 9a3f
00000030: 0715 003f bca9 3e3f 991c cd3e 27de 1b40
00000040: efa5 473f 9f77 833f 8fed b33f fe1e 5f3f
00000050: d9b4 0d40 a59c 273f b5d8 313f 879c 863f
00000060: 1782 853f 7a79 1c3f 50a6 123f 7103 fe3e
00000070: 401d 1e3f 6b1b 8d3f f526 543f 922f 9f3e
00000080: d1c1 653f 91b4 463f f9ea 693f 10b4 653f
00000090: a957 313f 2f7c 1d40 3262 973f 0146 2c3f
000000a0: c8d7 bd3e 879f 5d3f 6d48 0f3f c50e 083f
000000b0: 4edd a13e d1f8 053f d4a7 963f 6ba4 9f3e
000000c0: a4cf d73f 2e41 103f 0f33 403f 6e92 943f
000000d0: 0ea5 d93e d017 023f 91eb 673f 5b29 1b3f
000000e0: f41d 7d3f b5a1 053f 4965 f03e 2eae b03f
000000f0: 3eac db3e 8c60 203f cca0 2e3f c547 333f
1.0902319 0.62091994 1.7697307 1.0866477 0.735702 0.7496693 1.4278697 0.8179642
1.4990535 0.5832591 0.73966557 1.2089384 0.50032085 0.74477744 0.4006088 2.435434
0.7798757 1.027088 1.4056872 0.87156665 2.214163 0.65473396 0.69471294 1.0516518
1.0430325 0.6112286 0.5728502 0.49612 0.6176338 1.1023992 0.82871944 0.3109098
0.89748865 0.7761927 0.91374165 0.8972788 0.69274384 2.4607046 1.1826842 0.6729432
0.3707869 0.86571544 0.5596989 0.53147537 0.31614155 0.5233279 1.1769967 0.31180128
1.6860242 0.56349456 0.7507791 1.1607187 0.4250874 0.50817585 0.9059382 0.6060998
0.9887383 0.5219987 0.46952274 1.3803155 0.42904848 0.6264732 0.68214107 0.70031387

model.8.weight f4 [32, 64]
00000000: 6acf 6bbd 8b9c 99bd b74a 093e ccbb c6bd
00000010: 7202 883d dbaa 91bd 4286 5a3e 2453 a239
00000020: 0ff7 3d3d bd63 31bd dfc5 8f3b dceb 8a3c
00000030: 5220 cfbc 2a3a d2ba 011b 9e3d 5841 0abd
00000040: f4f7 64b8 04a5 883d 16ab be3d 9f06 a33c
00000050: 8ade 1d3d ef92 2dbd e105 28bd 92ad 92bb
00000060: a2af 19bc 5cde 16bc f5bf 5e3d e7ee 5fbd
00000070: ac35 80bc dc55 1a3e 61ab b0bd 9771 123d
00000080: 18f4 033a f49f fa3c afca 9e3c 76a9 adbc
00000090: 901f 67bd 033f 2a3e 6c87 d23c db57 13bc
000000a0: 61f1 1b3c 37e5 f2bb 4ff2 8fbd 222a f4bc
000000b0: 3cf6 63bd 6631 a13b 5e87 c83d 3d64 233d
000000c0: 5f5a 2f3d a841 55bc 87a7 a9bd 7d3a 963d
000000d0: acfe a93d 553d 943d f29e df3d 6fca e3bd
000000e0: f7f0 96bd e508 963c d2bc 843d 63b2 0b3e
000000f0: b41d cbba 9392 e2bd 4afb 073c 3e1a 243b
00000100: c4cb a63a 8f39 3bbd 174a 023c bc23 b83d
00000110: d76d 023e 663a 9d3d 7f63 f83d 3562 a13c
00000120: 7513 08bd f881 1c3b 5640 2abd 2b3a adbd
00000130: 8bac 34bd a71a a83d 8a6d 9ebd c8eb cdbc
00000140: 8ae9 8e3c 3a4a 043e e68f ae3c 302c 3a3d
00000150: 6d06 df3d ce85 043e 6fe2 16bd 3617 a6bd
00000160: 38d9 58bc 8536 b038 a0a1 2abd 9685 fabd
00000170: 1932 3d3d 0235 b8bd 559d f23d afec a13d
00000180: d051 3f3c 071f 25bd 5d93 9dbd c00e efbd
00000190: 2705 b9bd 5fb5 84bc 951e adbb caa4 2a3d
000001a0: 9397 d13d 4ff9 f63c 7d98 1ebe 8f2a 28be
000001b0: f0d7 073c cda9 33bd ae6a 94bc 94ad 153e
000001c0: 1dea f93d a43e b7bd 184e 46bd 2847 16bc
000001d0: 8bbf cc3d 2fc0 4abc 2140 2d3d e7f7 2cbe
000001e0: e640 25bd c5b2 d33c 7e84 d53b b565 483d
000001f0: 1788 ffbc be8c 96bd 5a56 943c b48b 8a3d
00000200: 978a 323d 153e 083d 4eb5 fc3d d2d4 1cbd
00000210: 58b3 afbd 6b54 f5bd 3621 183e 1e7c cdbc
00000220: 8757 e13d 54aa d5bd fa8f b3bd 4119 88bc
00000230: 59d4 4fbd fbcf d33d 6c92 393d 2404 3e3e
00000240: 3541 913d ff11 953d 2ff0 8a3b 67af 1c3d
00000250: 1a71 2d3e 0c61 403d b02d 6e3b 0356 b33c
00000260: 29c0 cdbd 6128 0abd 3b91 753b 5d8a 1ebe
00000270: b4ed d73d 3e63 183d 5479 393d 70d4 57bc
00000280: 3b77 b13c f91e 39bd 9dcb 0bbd c8ae 55bc
00000290: e96e d93c a0ce 453e 1eba cdb9 3bdb 0f3e
000002a0: 5e25 a43d c1ad 663a 7a54 cebd 13cc a4bd
000002b0: 0f36 4d3d e8e2 9b3c 39ac 75bd 4dfa 81bb
000002c0: d135 abbc 6871 e6bd 15aa cebd 4751 b43d
000002d0: 0023 0a3c d218 a3bd 1e6b 953b c682 fabc
000002e0: 4a95 f33d cfc6 dc3d 8aec 24bc 710f b7bd
000002f0: cbac c1bd de75 30bd 6e5e d6bd f341 e63d
00000300: 159f d53d b0f8 faba 396e 5d3b 38b2 fdbc
00000310: 928e fc3c d012 49bc 5017 f0bc f725 393e
00000320: b4b5 2fbe 2d87 513d fcaa cd3c 847e 22bd
00000330: fd82 6c3d 478d 6a3d f4ec 00bd 14d8 a1bd
00000340: 5959 5c3d 0bf1 163c c0bc 613d b469 1b3e
00000350: 0b8c 0fbd 3dfb 273d ea77 20bd bf96 22be
00000360: 5f7d 8a3d cfa7 00bc 954a ea3d 3142 7bbd
00000370: 536c d9bc 5a64 013e 46d2 7cbd 2b92 9a3d
00000380: 8e77 85bd 77e1 0fbe b8fc fa3d bbc5 1abc
00000390: 6e84 993c 6dc6 0fbe 307b b0bc 0bd1 e1bc
000003a0: 6a2a bfbd 9536 b23d 1d2b b6bd bd7b a2bd
000003b0: 36fd 15be 3595 a53d cb83 3abd 7b72 2b3d
000003c0: 07e2 4fbe 2b33 aebd b049 debd 455e 32be
000003d0: 7aab 9eb8 f759 403d 7cdc 80bd 0199 75bd
000003e0: 3ab1 ae3d e124 bdbc cfd9 3fbe 121a 2a3d
000003f0: 00fd 82bc 2ca5 1e3e c46f b73c b5e0 4ebc
-0.057570852 -0.07500561 0.13407408 -0.09703788 0.066410914 -0.07112666 0.21340278 0.00030960992
0.04637819 -0.04330801 0.0043876017 0.01695817 -0.025283966 -0.0016039063 0.07719994 -0.033753723
-5.459036e-05 0.06672099 0.09309976 0.019900618 0.038542308 -0.042376455 -0.04102123 -0.0044762576
-0.009380253 -0.009208288 0.054382283 -0.054671194 -0.015650593 0.15071815 -0.08626438 0.03575286
0.0005033626 0.03059385 0.019383756 -0.02119897 -0.056426585 0.166256 0.02569934 -0.008993114
0.009517998 -0.0074125784 -0.070286386 -0.029805247 -0.05565475 0.004919219 0.09791444 0.039890517
0.042810794 -0.013016142 -0.082839064 0.073353745 0.08300528 0.07238261 0.10918988 -0.111225955
-0.07370179 0.018314788 0.06481327 0.13642268 -0.0015496523 -0.11063113 0.008299658 0.0025040056
0.0012725522 -0.04570919 0.007952235 0.08991191 0.12737213 0.07677154 0.121283524 0.01970015
-0.03322168 0.0023881178 -0.04156526 -0.0845836 -0.044109862 0.082082085 -0.07735737 -0.025136843
0.017445344 0.1291894 0.02130885 0.045452297 0.108898975 0.12941667 -0.036837038 -0.08109896
-0.013235383 8.402489e-05 -0.041658044 -0.12232511 0.046190355 -0.089944854 0.11846415 0.07906472
0.01167722 -0.040312793 -0.07694123 -0.11672735 -0.09034186 -0.016199766 -0.0052831867 0.04166106
0.102339886 0.030148176 -0.15487857 -0.16422485 0.00829123 -0.043863107 -0.018117275 0.14616996
0.12202857 -0.089474946 -0.04841432 -0.009172238 0.099974714 -0.012374922 0.042297486 -0.16891442
-0.040345095 0.02584208 0.0065160384 0.04892512 -0.031192822 -0.07351063 0.018107582 0.067649275
0.0435892 0.03326233 0.123392686 -0.0382889 -0.08579129 -0.11978992 0.14856419 -0.025083598
0.11003023 -0.10432878 -0.08767696 -0.016613605 -0.05073962 0.103424035 0.045305654 0.18556267
0.070925154 0.07278823 0.004240058 0.038253214 0.16937676 0.04696755 0.003634315 0.0218916
-0.10046417 -0.033729915 0.0037470597 -0.15482469 0.10543385 0.03720402 0.045281723 -0.013173208
0.021663299 -0.045195553 -0.034129728 -0.013042159 0.026542144 0.19317102 -0.00039239315 0.14048474
0.0801494 0.0008799695 -0.100747064 -0.080467366 0.050100382 0.019029096 -0.059978697 -0.0039666058
-0.020899685 -0.11252099 -0.10091034 0.08804565 0.008431196 -0.079637185 0.0045598885 -0.030579936
0.11893709 0.10780107 -0.010066161 -0.08938492 -0.09456786 -0.043081157 -0.1046723 0.112430476
0.10430733 -0.0019147601 0.0033787622 -0.03096877 0.030829702 -0.012272552 -0.029307991 0.18080889
-0.17159158 0.051154304 0.025105946 -0.039671436 0.057742108 0.05726364 -0.031475976 -0.07902542
0.053796146 0.009212743 0.055111647 0.15177041 -0.035045665 0.041011084 -0.03917686 -0.15877818
0.06762194 -0.007852509 0.11440007 -0.061342422 -0.02654091 0.12635937 -0.06172397 0.075474106
-0.06516944 -0.14050852 0.122552335 -0.009446557 0.018739905 -0.14040537 -0.021543115 -0.0275655
-0.09334262 0.08701817 -0.08894942 -0.079337575 -0.14647374 0.080850996 -0.045535844 0.041857224
-0.20301066 -0.08505853 -0.108538985 -0.17418773 -7.565967e-05 0.046960797 -0.06292054 -0.05996037
0.08529897 -0.023088874 -0.18735431 0.04152877 -0.01598978 0.15492696 0.022392161 -0.0126268165

model.8.bias f4 [32]
00000000: a6cb aabd d52f 173e 7e93 23bd e254 82bd
00000010: 933c df3d b870 94bd 1de6 a13c ba1c 55bd
00000020: eced ac3e 63fa 98bd 0b6c 673b 2dda a8bd
00000030: 5b4d e73d 4411 2abc e80b f73c 471b d03c
00000040: eeca db3d 3c6c 823d d12f 83bd 5b74 c83d
00000050: 422d 75bc 671a 3e3e 1890 0abe 5045 393e
00000060: 7903 f53d a2d5 a8bd e4cc 0fbe f670 083e
00000070: 024a 05bc 1487 98be f5ac 6ebd e1b8 273e
-0.08339624 0.1476434 -0.03993558 -0.06363846 0.109002255 -0.07248062 0.019763047 -0.05202935
0.3377527 -0.074696325 0.0035312201 -0.08244739 0.11294051 -0.010380093 0.030157045 0.025403632
0.10732065 0.063683 -0.06405605 0.09787818 -0.014964404 0.18564759 -0.1353153 0.18092847
0.11963553 -0.08243872 -0.14043003 0.13324341 -0.008135321 -0.29790556 -0.058270413 0.1637912

model.10.weight f4 [32]
00000000: 7644 663f 14f5 613f 7d57 713f a69d 6a3f
00000010: c2bf 633f 8a5b 5b3f 4d98 743f 1d14 673f
00000020: fb89 6f3f aeee 693f 1140 7d3f 03ab 653f
00000030: 37cb 643f e4ce 683f 702b 693f f4c7 803f
00000040: 6045 773f f780 623f e821 6c3f 518b 653f
00000050: 961c 7a3f b95f 633f a253 733f 98c7 643f
00000060: 3254 6f3f 6d07 813f 54ae 663f 62fb 673f
00000070: d25c 633f 4cdd 823f 7186 7b3f 7362 643f
0.89948213 0.88264585 0.9427412 0.916468 0.88964474 0.8568655 0.9554489 0.90265065
0.93569916 0.9137982 0.9892588 0.8971407 0.8937258 0.9094069 0.91081905 1.0061021
0.9659023 0.88478035 0.92239237 0.89665705 0.9769987 0.88817936 0.9504949 0.89367056
0.93487847 1.0080391 0.90109754 0.90617955 0.8881351 1.0223784 0.98252016 0.8921272

model.10.bias f4 [32]
00000000: 0215 923d 7c80 48bd 16cd 953d 81a2 343d
00000010: 64b5 6f3d d6ca 503d 1995 943d 423f 7e3d
00000020: f23a 82bd c47d 9f3d 2c6f 983d 82fe 8d3d
00000030: f6b6 51bd 09f4 a63d 7625 71bd 156b 8a3d
00000040: 4b98 763d ecbc 5dbd b77f b23d 4c62 ddbc
00000050: 4388 8a3d f5e1 95bd 1fa6 6b3d d3e1 60bd
00000060: 8338 3dbd 76ec 8e3d acf4 61bd 7cce a43d
00000070: c645 a5bd 6ff7 933d 5175 7a3d 9358 53bd
0.07132913 -0.048950657 0.07314508 0.04410029 0.058522597 0.05097469 0.072550006 0.062072046
-0.06358899 0.0778766 0.07443079 0.06933309 -0.051199876 0.08152015 -0.058873616 0.067587055
0.06020383 -0.054135248 0.08715766 -0.02702441 0.06764271 -0.073184885 0.057531472 -0.054902863
-0.046196472 0.06978695 -0.055164978 0.08047196 -0.08069949 0.072249286 0.061147038 -0.051598143

model.10.running_mean f4 [32]
00000000: a63b 9a3e 7ffa 073f 1c9f d03e 635c 2a3f
00000010: a35d c33e e5ab 053f 0cbf d93e 53b8 a83e
00000020: 5d2c 573f 0ed0 c93e de2e bf3e bc2f 183f
00000030: eb2a 043f dd7f 093f 220b f63e e032 de3e
00000040: 0b6e 0c3f c9cc 013f 0a9a bf3e 2709 1a3f
00000050: ecce db3e 3fc5 433f eb47 903e cd78 373f
00000060: 46b3 093f c586 d73e 90e3 c43e b8b4 ef3e
00000070: c570 0e3f c409 b03e 7c34 eb3e 9b25 0c3f
0.30123633 0.531166 0.4074639 0.6654722 0.38157377 0.52215415 0.4252857 0.32953128
0.8405207 0.39416546 0.37340444 0.59447837 0.5162799 0.5371073 0.4805537 0.4339819
0.5485541 0.507031 0.3742221 0.60170215 0.42931306 0.7647285 0.2817987 0.716687
0.53789175 0.42095008 0.38454866 0.46817565 0.5564082 0.3438245 0.4593848 0.5474488

model.10.running_var f4 [32]
00000000: 1e87 473f 62bd ac3e cdb7 993f 509f 0c3f
00000010: 3f2c 8a3e bee3 6f3e ea85 373f a062 a73e
00000020: 6bc9 ba3e 05d3 5b3f fa0f 0a3f 2ca3 d23e
00000030: 36e6 f53e f6b0 8a3f 3151 123f 4b45 ac3f
00000040: 973f 8b3f 0193 da3e ec50 713f 3ebf 013f
00000050: 297b 463f a02b ef3e 294e 9c3e 6360 243f
00000060: 27f2 e53e 9e0c 483f 5e9f 103f 0e79 763f
00000070: 3a76 033f 8af1 bd3e 1720 313f 50f8 ae3e
0.7794055 0.33738238 1.2009217 0.5493059 0.26986882 0.2342672 0.7168871 0.32692432
0.36481795 0.85868865 0.5393063 0.41140115 0.480272 1.0835254 0.5715514 1.3458647
1.0878781 0.4269028 0.942641 0.5068244 0.7753168 0.4671297 0.3052838 0.64209574
0.4491131 0.7814425 0.56493175 0.96278465 0.51352274 0.37098342 0.6918959 0.34173822

model.12.weight f4 [1, 32]
00000000: fa35 dd3d aaff 57bd 08eb d43d 88f5 233d
00000010: 0767 8b3c 9e1f 203c 1740 bf3d cdd3 893d
00000020: a272 c9bd 747f ef3d 8f7d bf3d 1459 f93c
00000030: 427c 19bd ac75 ee3d 4daf 4ebd 2682 a93d
00000040: 64d9 ab3d 197c 7fbd d7b5 f33d 72d3 65bd
00000050: 5782 8d3d 0b57 b2bd 89cc 633d 020c 88bd
00000060: 08e3 44bd 6858 9d3d ce65 21bd 6b9c ce3d
00000070: 7618 93bd ad2f bd3d 8af5 b13d c41f 6bbd
0.10801311 -0.052734055 0.10396391 0.04002908 0.0170169 0.009773163 0.09338396 0.06729851
-0.098363176 0.11694232 0.0935012 0.030437984 -0.037472017 0.11643538 -0.05046015 0.08276777
0.08391073 -0.062374208 0.118999176 -0.056109853 0.06909626 -0.087080084 0.05561498 -0.06642915
-0.048068076 0.07682878 -0.03940373 0.10088428 -0.071824 0.09237609 0.08689411 -0.05740334
