models/ensemble_nn.pth (torch, 12720 bytes, 5 tensors)

net.0.weight f4 [64, 5]
-0.4190891 -0.3952585 0.1467213 -0.24770431 -0.06957233 0.3089 -0.22783734 -0.21388508
0.45947438 0.09079406 -0.24007066 -0.29106984 -0.106307864 0.15096374 -0.60550356 0.28803664
0.45243883 -0.1374336 -0.18595797 0.005641951 0.02550751 0.0465506 0.10490006 -0.4139872
-0.20435241 0.05653088 0.42795646 -0.052253667 -0.086635984 -0.43472084 -0.31365687 0.119373865
-0.21560146 0.47032332 -0.2262149 0.32233188 -0.08472238 -0.29367962 -0.26008877 0.03256177
0.08476053 -0.34313592 0.028215475 -0.034502655 0.46316823 0.34384996 -0.24750881 -0.25579074
0.22040658 0.18119994 0.36481082 0.117982425 -0.08343796 0.124641255 -0.4001364 -0.113165095
-0.0952502 0.23966123 0.006703814 0.1476284 -0.40523124 -0.14674842 -0.07109217 0.21719037
0.23470214 0.20771624 0.18460663 -0.12764275 -0.5175752 -0.085379265 -0.16082714 -0.40492043
-0.27732322 -0.58647025 0.16452771 0.01366535 -0.2511661 0.088560306 -0.40679136 -0.15071857
0.17056234 0.021197127 -0.29218295 0.26646882 -0.6971838 -0.13553233 0.3486785 0.28115845
-0.40418324 0.2577681 0.15544695 -0.13850501 -0.3149173 0.29624376 0.0919747 0.089435525
0.39089274 0.38304904 -0.15270677 -0.05420912 0.17032209 0.30773738 0.42645434 -0.33596703
-0.25510427 -0.060555905 -0.4100002 0.32175696 -0.40259504 0.11754012 -0.2634281 -0.45309177
-0.36967292 0.021979187 0.34427333 -0.24717061 0.3095816 -0.057427492 -0.105781965 0.40498656
-0.023142476 0.19664262 0.17865187 0.06431499 0.010624333 0.051491678 0.27557126 -0.18780455
0.20635928 0.39870048 0.08623609 -0.16719858 -0.34364012 -0.40633342 0.3885646 0.077307485
-0.29290035 0.28985545 0.3750643 0.4892896 0.38382703 -0.3882689 -0.118689306 -0.0913511
0.3727376 0.17140909 0.053979788 -0.4564897 -0.27594066 0.21482205 -0.44457054 -0.26674062
-0.15411347 0.01157853 0.053537607 0.067807876 0.10490003 -0.07520097 -0.42656627 0.40746245
-0.4171331 -0.31701103 -0.12039334 -0.03576218 0.2775574 0.017658124 -0.084160596 -0.27320257
0.24494116 0.40839398 -0.13710314 -0.09631757 0.15042649 0.042174395 0.38408923 -0.042718105
0.083289124 -0.013445438 0.28963134 0.12734795 0.20414141 0.28429258 -0.4254813 0.037614267
0.43263572 0.2676723 -0.32855234 0.27555898 0.3025406 -0.046166304 -0.41021326 0.33749145
-0.26623356 -0.09683838 -0.41774163 -0.24715152 0.45243067 -0.1650775 0.14387202 0.3198015
-0.16330886 -0.2932708 -0.2589476 0.4227928 0.2215284 -0.27251244 0.35187867 0.042312983
0.17781368 -0.052212052 -0.1902923 0.3779815 -0.26813754 -0.4234269 0.43456268 -0.12989905
0.23013937 -0.27698833 0.24984726 0.2476828 0.15715058 -0.19633624 -0.16524547 -0.3489291
-0.18649219 -0.3331309 -0.4927923 0.034107286 -0.26747203 0.18201557 -0.17670672 -0.062512174
0.002160879 -0.0057200845 0.085301176 -0.5113828 -0.2532567 -0.3672807 0.1724121 0.25816506
0.19149202 0.34774262 -0.22000009 0.3506037 -0.07245932 0.2862035 -0.14620872 0.4280302
0.24763657 -0.39236757 -0.28560883 0.46749282 -0.24527521 0.14914802 -0.1330763 0.43341497
00000000: d992 d6be 525f cabe 1c3e 163e 33a6 7dbe
00000010: f07b 8ebd 2428 9e3e 314e 69be b104 5bbe
00000020: 3a40 eb3e 3cf2 b93d 15d5 75be 1b07 95be
00000030: f0b7 d9bd 3d96 1a3e 4802 1bbf 8a79 933e
00000040: 10a6 e73e 65bb 0cbe c46b 3ebe 1ee0 b83b
00000050: 20f5 d03c d8ab 3e3d d8d5 d63d 21f6 d3be
00000060: c241 51be ed8c 673d 1c1d db3e f107 56bd
00000070: 356e b1bd bb93 debe a297 a0be 497a f43d
00000080: a1c6 5cbe 38ce f03e e1a4 67be af08 a53e
00000090: ed82 adbd 2d5d 96be 5b2a 85be 7e5f 053d
000000a0: ee96 ad3d 83af afbe 2424 e73c a852 0dbd
000000b0: 6324 ed3e 1a0d b03e f372 7dbe 01f7 82be
000000c0: 43b2 613e 7a8c 393e 7cc8 ba3e c5a0 f13d
000000d0: 85e1 aabd ea43 ff3d aede ccbe 1ac3 e7bd
000000e0: 8912 c3bd c169 753e abab db3b e62b 173e
000000f0: 787a cfbe 3845 16be c698 91bd 2767 5e3e
00000100: c255 703e 91b3 543e 8509 3d3e c8b4 02be
00000110: cf7f 04bf 53db aebd dfaf 24be bb51 cfbe
00000120: 4ffd 8dbe ea22 16bf f479 283e a2e4 5f3c
00000130: d898 80be 1b5f b53d f546 d0be f855 1abe
00000140: e5a7 2e3e 99a5 ad3c 0199 95be 9a6e 883e
00000150: a37a 32bf fdc8 0abe fd85 b23e 00f4 8f3e
00000160: 1bf1 cebe 2efa 833e 7c2d 1f3e 42d4 0dbe
00000170: d73c a1be 43ad 973e 3b5d bc3d f929 b73d
00000180: 1823 c83e 011f c43e 2a5f 1cbe 620a 5ebd
00000190: ea68 2e3e c18f 9d3e 3958 da3e df03 acbe
000001a0: 079d 82be 7809 78bd 8ceb d1be 54bd a43e
000001b0: f020 cebe e0b8 f03d 0ce0 86be a5fb e7be
000001c0: c545 bdbe b20d b43c 9844 b03e 4b1a 7dbe
000001d0: 7b81 9e3e 1739 6bbd 37a4 d8bd 665a cf3e
000001e0: 4a95 bdbc af5c 493e 84f0 363e 94b7 833d
000001f0: af11 2e3c f0e8 523d ad17 8d3e d64f 40be
00000200: d94f 533e 7822 cc3e 8c9c b03d 1b36 2bbe
00000210: 99f1 afbe ef0a d0be f0f1 c63e 6353 9e3d
00000220: 09f7 95be ef67 943e 6e08 c03e 2b84 fa3e
00000230: fa84 c43e 2ecb c6be 6113 f3bd 4916 bbbd
00000240: 76d7 be3e dd85 2f3e e919 5d3d 05b9 e9be
00000250: 1848 8dbe 50fa 5b3e c09e e3be 3a92 88be
00000260: eccf 1dbe e0b3 3d3c 404a 5b3d dbde 8a3d
00000270: d4d5 d63d f702 9abd e566 dabe eb9e d03e
00000280: 7892 d5be 454f a2be c990 f6bd 5d7b 12bd
00000290: 011c 8e3e c5a7 903c 645c acbd 35e1 8bbe
000002a0: dbd1 7a3e 0419 d13e c464 0cbe 2542 c5bd
000002b0: 6709 1a3e 0fbf 2c3d 58a7 c43e 2ef9 2ebd
000002c0: 7d93 aa3d 414a 5cbc 8f4a 943e 8067 023e
000002d0: 720a 513e cc8e 913e afd8 d9be 6b11 1a3d
000002e0: 6e82 dd3e 580c 893e 0338 a8be 1116 8d3e
000002f0: 9ae6 9a3e e118 3dbd 7907 d2be aecb ac3e
00000300: c44f 88be 3353 c6bd 3be2 d5be 4a15 7dbe
00000310: fea4 e73e 130a 29be 3053 133e 06bd a33e
00000320: 703a 27be 9727 96be c894 84be 4c78 d83e
00000330: 57d8 623e c086 8bbe 7129 b43e 6150 2d3d
00000340: ca14 363e 4edc 55bd fcdb 42be cb86 c13e
00000350: 5349 89be 69cb d8be 007f de3e 4204 05be
00000360: a8a9 6b3e 6ad1 8dbe f6d7 7f3e 8fa0 7d3e
00000370: 15ec 203e 5e0c 49be 1c36 29be d6a6 b2be
00000380: cff7 3ebe 2290 aabe 464f fcbe 15b4 0b3d
00000390: 18f2 88be 4a62 3a3e 9bf2 34be 6206 80bd
000003a0: 899d 0d3b 8c6f bbbb 62b2 ae3d fce9 02bf
000003b0: ddaa 81be 370c bcbe cc8c 303e 362e 843e
000003c0: 7c16 443e 520b b23e b447 61be 5482 b33e
000003d0: 8d65 94bd 4489 923e bdb7 15be c626 db3e
000003e0: 7194 7d3e 67e4 c8be 523b 92be 385b ef3e
000003f0: 6d29 7bbe 42ba 183e 2745 08be 91e8 dd3e

net.0.bias f4 [64]
-0.31984496 -0.38451523 0.45869216 -0.22293274 -0.28303808 0.37369606 0.28377905 0.1981584
-0.18085128 -0.027636088 0.06286693 0.14691316 0.3198949 -0.31513163 0.26256546 0.41375607
-0.03949355 -0.21392564 -0.015110951 0.1641289 -0.3072194 -0.40624613 0.21689454 0.27882022
0.31309375 0.4172641 0.12621295 0.1271525 -0.20391828 0.18860799 -0.06531158 0.3286522
0.2386529 -0.055417515 -0.08509564 -0.22129396 -0.3147971 0.30939806 0.2609239 -0.056077346
0.22712846 -0.24307787 0.044321872 0.07947985 0.45554575 0.40452695 0.4040307 -0.02234972
0.059976548 0.19693947 -0.4208074 -0.22577953 -0.068638146 0.20105326 0.3017906 0.07032592
0.17714144 -0.09454085 0.40941513 -0.23434219 -0.34610516 0.23958842 0.3351099 0.3738792
00000000: b8c2 a3be 2edf c4be b3d9 ea3e 7b48 64be
00000010: 5eea 90be 1755 bf3e 7d4b 913e 09ea 4a3e
00000020: 1431 39be 1465 e2bc 61c0 803d 6770 163e
00000030: 44c9 a33e ef58 a1be fb6e 863e d6d7 d33e
00000040: fdc3 21bd 530f 5bbe ec93 77bc 6811 283e
00000050: dc4b 9dbe 7eff cfbe 9a19 5e3e 86c1 8e3e
00000060: d34d a03e a4a3 d53e f83d 013e 4434 023e
00000070: f4cf 50be 7422 413e 14c2 85bd 1a45 a83e
00000080: 6d61 743e 7afd 62bd 9f46 aebd e29a 62be
00000090: 162d a1be 6c69 9e3e d197 853e 5cb1 65bd
000000a0: 5d94 683e 68e9 78be da8a 353d 55c6 a23d
000000b0: 4b3d e93e 281e cf3e 1ddd ce3e c316 b7bc
000000c0: f8a9 753d 80aa 493e 1174 d7be c032 67be
000000d0: 2892 8cbd e8e0 4d3e 4c84 9a3e 0907 903d
000000e0: 9164 353e a29e c1bd dc9e d13e 66f7 6fbe
000000f0: b234 b1be ab56 753e 8693 ab3e 186d bf3e

net.3.weight f4 [32, 64]
0.12039547 0.09533692 -0.10878982 0.07079357 -0.04237801 0.0064335014 -0.04812294 -0.031428605
0.016555604 -0.1371166 0.015091631 0.052488767 0.049307548 -0.12891312 -0.058170814 0.08992412
-0.06277986 -0.055396777 -0.110916466 0.045691215 0.0023768246 -0.048981115 0.114947535 -0.005336796
-0.11366573 -0.02958707 0.029893307 -0.08716591 0.05352033 0.119504556 0.060143486 -0.059502997
-0.003079325 -0.017357428 0.04986676 0.07350742 0.09669105 0.011890551 -0.013340615 0.082464725
0.025914602 -0.0011919258 0.00067460065 -0.05111744 -0.044555496 -0.007520351 -0.01551594 0.07906575
-0.11457231 -0.14237487 -0.11393062 -0.102634184 -0.06122698 -0.09246368 0.030059122 0.041278083
0.061778095 0.018782541 -0.05898547 -0.14473774 -0.093236 -0.12366014 0.05337415 -0.08535971
0.046892703 0.119492486 -0.04182394 0.06108579 -0.12307787 0.04815863 -0.16409831 0.061830174
0.1011617 0.11730629 -0.15750152 0.048955947 0.031296358 -0.0013753304 -0.22739215 0.066841386
-0.15380344 0.03312044 -0.0055574654 -0.016851513 -0.11293666 0.0850395 -0.185804 0.012909188
-0.018186463 -0.051611587 -0.1952616 -0.011128252 0.1819493 -0.16754153 0.06222734 0.23252788
-0.0983237 0.07161374 0.09739272 0.059602547 -0.054774314 -0.009209678 -0.018146632 0.1132115
0.1326996 -0.020458736 0.1315912 0.022002803 -0.0922565 -0.10186912 0.11272523 0.020529928
0.025349174 -0.033463966 -0.09842439 0.002368938 -0.116406396 0.017232144 0.1437458 0.04314249
0.12825707 -0.093729384 -0.011238541 0.058871765 0.025168836 0.068286344 0.0197886 -0.041703887
-0.11648972 0.026324792 -0.10180372 0.060896497 0.004080951 -0.020671213 -0.23735395 0.12577677
0.058559127 0.025498638 0.032715254 0.03854029 -0.0378309 -0.06276756 0.021469997 -0.043824147
-0.22277763 0.039066304 0.082919784 0.110517 -0.026920302 0.116906956 -0.10153013 -0.04673733
-0.005673029 0.09679757 -0.17763004 0.0690374 0.020029793 0.041231133 0.11145125 0.12003637
-0.17067045 -0.07553433 0.0541683 0.027814543 -0.064220786 0.06785377 -0.12694448 0.09978666
-0.06460389 0.07506182 0.12044917 0.14714168 -0.0069531207 0.020805638 0.14296329 0.013647215
0.08588178 -0.06088239 -0.14519095 0.094944075 0.039072305 0.13374946 -0.16015676 -0.071106404
0.10700344 0.08351109 -0.14121865 0.0062915855 -0.056591287 -0.10517376 -0.041884936 -0.1269271
-0.04986541 0.058824196 -0.09383675 -0.05839099 0.1102819 0.013902336 -0.18288456 0.02960743
0.13407238 0.1564546 0.09721823 0.035197817 0.09349556 0.07806929 0.064442135 0.028066091
-0.20618442 0.039195072 0.021587495 0.12921473 -0.044459395 0.014778748 0.0042292895 0.006182858
-0.08554675 -0.056105413 -0.14113627 0.1170045 0.15536095 0.033746514 0.09159669 0.036454357
-0.32029316 -0.057806388 0.08806164 0.04715212 -0.024191894 0.11513748 -0.07020577 0.006701301
0.11599073 0.059704114 0.17895178 0.12249156 0.051171485 -0.0048328885 -0.032913446 0.113967344
0.008715449 -0.081154905 0.06273901 -0.033563837 -0.09327939 0.004951216 -0.24121587 0.015855758
0.1355382 -0.023327865 -0.09397015 0.1540434 -0.0005939752 -0.04609083 -0.017486857 -0.06921005
00000000: e691 f63d 0140 c33d 32cd debd 38fc 903d
00000010: 9094 2dbd 1fd0 d23b 8f1c 45bd 48bb 00bd
00000020: 9e9f 873c 4b68 0cbe e342 773c 76fe 563d
00000030: b6f6 493d cd01 04be 8544 6ebd 232a b83d
00000040: ba92 80bd bbe7 62bd 2c28 e3bd b626 3b3d
00000050: 80c4 1b3b 6ca0 48bd 9d69 eb3d 4ae0 aebb
00000060: 94c9 e8bd 9560 f2bc cfe2 f43c 0a84 b2bd
00000070: 2238 5b3d cebe f43d 0459 763d 6ab9 73bd
00000080: 80ce 49bb 2a31 8ebc 1641 4c3d 0f8b 963d
00000090: f505 c63d 96d0 423c 9892 5abc 44e3 a83d
000000a0: dc4a d43c 653a 9cba afd7 303a 8560 51bd
000000b0: d37f 36bd 476d f6bb 9236 7ebc 39ed a13d
000000c0: e3a4 eabd b8ca 11be 7554 e9bd df31 d2bd
000000d0: 24c9 7abd 995d bdbd 8c3e f63c 3513 293d
000000e0: 070b 7d3d d8dd 993c c09a 71bd 2136 14be
000000f0: 84f2 bebd 8741 fdbd da9e 5a3d 12d1 aebd
00000100: 9012 403d 7ab8 f43d 944f 2bbd 1835 7a3d
00000110: 4010 fcbd fc41 453d 6309 28be a341 7d3d
00000120: de2d cf3d 483e f03d 1448 21be 0886 483d
00000130: 9c30 003d 6e44 b4ba 7dd9 68be 23e4 883d
00000140: a67e 1dbe 4ca9 073d 661b b6bb 2f0c 8abc
00000150: 564b e7bd 3029 ae3d 6743 3ebe 0f81 533c
00000160: c7fb 94bc ac66 53bd a8f2 47be 4653 36bc
00000170: eb50 3a3e 0290 2bbe 18e2 7e3d ca1b 6e3e
00000180: f05d c9bd 39aa 923d d675 c73d cd21 743d
00000190: 085b 60bd 30e4 16bc 3fa8 94bc 6edb e73d
000001a0: 67e2 073e 1499 a7bc d8bf 063e 393f b43c
000001b0: faf0 bcbd c2a0 d0bd 7cdc e63d 612e a83c
000001c0: 12a9 cf3c 8311 09bd ba92 c9bd 2f40 1b3b
000001d0: 7a66 eebd 6d2a 8d3c 1932 133e 2eb6 303d
000001e0: d255 033e 31f5 bfbd dc21 38bc 8523 713d
000001f0: e02e ce3c b6d9 8b3d b41b a23c b2d1 2abd
00000200: 2a92 eebd 17a7 d73c 787e d0bd 9b6e 793d
00000210: 80b9 853b ad56 a9bc ea0c 73be a0cb 003e
00000220: b2db 6f3d 85e2 d03c 6e00 063d 6cdc 1d3d
00000230: 93f4 1abd 478c 80bd d9e1 af3c f380 33bd
00000240: d21f 64be fd03 203d d9d1 a93d bd56 e23d
00000250: f787 dcbc ea6c ef3d 07ef cfbd a46f 3fbd
00000260: d1e4 b9bb ce3d c63d a6e4 35be 7b63 8d3d
00000270: 8515 a43c fae1 283d 8e40 e43d a1d5 f53d
00000280: 3cc4 2ebe beb1 9abd 94df 5d3d 53db e33c
00000290: 3086 83bd ebf6 8a3d bcfd 01be f35c cc3d
000002a0: 0b4f 84bd 03ba 993d 0eae f63d 4fac 163e
000002b0: 01d7 e3bb 9670 aa3c f864 123e 9298 5f3c
000002c0: c9e2 af3d d05f 79bd f0ac 14be 0a72 c23d
000002d0: 480a 203d 9ef5 083e 2200 24be 3ca0 91bd
000002e0: 9f24 db3d dd07 ab3d 9f9b 10be a529 ce3b
000002f0: 44cc 67bd 5765 d7bd 8a8f 2bbd 2df9 01be
00000300: ac3f 4cbd a4f1 703d 7b2d c0bd 642b 6fbd
00000310: 7adb e13d a0c6 633c 1746 3bbe 488b f23c
00000320: 454a 093e a235 203e 5a1a c73d 962b 103d
00000330: 9a7a bf3d cbe2 9f3d 3dfa 833d dcea e53c
00000340: 0222 53be 038b 203d 42d8 b03c de50 043e
00000350: 0e1b 36bd 9022 723c da95 8a3b 9299 ca3b
00000360: 2233 afbd cace 65bd 0786 10be 0ea0 ef3d
00000370: f116 1f3e c939 0a3d 0c97 bb3d 2a51 153d
00000380: 77fd a3be 64c6 6cbd a959 b43d 9522 413d
00000390: 142e c6bc 33cd eb3d 0bc8 8fbd 9696 db3b
000003a0: 8c8c ed3d 4d8c 743d 233f 373e dbdc fa3d
000003b0: 3199 513d 355d 9ebb 40d0 06bd b667 e93d
000003c0: 3ecb 0e3c 8b34 a6bd 4f7d 803d 3c7a 09bd
000003d0: 4409 bfbd cf3d a23b 4b01 77be efe3 813c
000003e0: 87ca 0a3e 141a bfbc 6c73 c0bd 8ebd 1d3e
000003f0: 00b5 1bba bdc9 3cbd 9940 8fbc 00be 8dbd

net.3.bias f4 [32]
-0.0128401555 0.07352572 -0.09794541 -0.065630876 -0.11131112 0.13840407 0.039623197 0.11159353
-0.05232369 -0.059292253 -0.045326978 -0.13493307 -0.02619233 0.102256745 0.04554733 -0.10749218
0.08682068 0.07151031 0.13881956 -0.055738248 -0.03904484 0.13939384 0.108500555 -0.09982779
0.044342224 0.14528638 0.10675393 0.02174638 -0.03257802 -0.055454012 -0.05484772 0.036068413
00000000: 845f 52bc a794 963d 9a97 c8bd 7b69 86bd
00000010: 16f7 e3bd ccb9 0d3e ef4b 223d 268b e43d
00000020: 5e51 56bd 6fdc 72bd c8a8 39bd e52b 0abe
00000030: 4c91 d6bc fc6b d13d d68f 3a3d dc24 dcbd
00000040: 0acf b13d ff73 923d b726 0e3e ca4d 64bd
00000050: 7bed 1fbd 42bd 0e3e 8a35 de3d 8372 ccbd
00000060: 31a0 353d f4c5 143e cea1 da3d 7725 b23c
00000070: 8870 05bd bf23 63bd 01a8 60bd 79bc 133d

net.6.weight f4 [1, 32]
-0.048021734 0.04520234 0.05995269 0.1465545 -0.096836425 0.1363167 0.13262978 0.19685361
0.10390914 0.023065595 0.062717244 -0.11664307 0.07417174 0.12898591 0.104429334 -0.016069705
-0.07438033 0.12624498 -0.15643637 0.1855328 0.1364578 0.07278007 0.099404074 0.047645513
0.032419235 -0.10071262 -0.34803247 -0.047707703 -0.052048743 -0.06828347 0.19357707 0.17168073
00000000: 70b2 44bd 1726 393d f490 753d 6212 163e
00000010: 2d52 c6bd 9b96 0b3e 1ad0 073e fe93 493e
00000020: 51ce d43d 0ff4 bc3c e671 803d 90e2 eebd
00000030: 5ae7 973d e214 043e 0cdf d53d 9da4 83bc
00000040: b754 98bd 5d46 013e db30 20be 4ffc 3d3e
00000050: 98bb 0b3e b80d 953d 5d94 cb3d f127 433d
00000060: 08ca 043d 6b42 cebd 5031 b2be 2769 43bd
00000070: 1031 55bd 34d8 8bbd 1139 463e 13cd 2f3e
