models/ensemble_simple_nn.pth (torch, 19894 bytes, 5 tensors)

fc1.weight f4 [64, 33]
00000000: c595 02bd 432c 02be a0c8 103e b068 f53c
00000010: a395 fdbd c628 fdbd 7799 c9bd 3abf 543e
00000020: ad94 403c 5f10 17be 13e6 1ebd 5c5e 963d
00000030: e699 5dbd 07a7 f53d 991f 103c 77da 22bd
00000040: fd93 84bd 537d 7f3d 9403 77bd 64a1 9f3d
00000050: 569f c8bd 5ef7 123e fdb5 803c 4b8c 40be
00000060: a8bb 983d 8039 453d 7f36 e73b 0629 c13d
00000070: 43ad 9ebd 7769 8dbc 740c cb3d 0e3f 263e
00000080: c3c3 0c3e eed4 823d 943d dfbd fa20 58bd
00000090: ef61 97bd a6db eb3d 3c12 92bd b762 ebbd
000000a0: 4e2f 04be 081a 2cbe 9f46 25bd 800c 27be
000000b0: b644 1ebd a81a 8a3c 9170 d13d 1a77 823d
000000c0: f343 983d 536b 20be b515 ca3c 0857 153d
000000d0: 5829 3dbb 20ef 3bbe c654 7cbe e7e1 62be
000000e0: 75b2 b83d 58d5 3ebe 1ecd 00be de64 68bd
000000f0: fb6b 71be b468 323e c8e5 d3bd f676 fa3d
00000100: 6d4d 09be 77d9 7abb c738 98bc 7f3e bf3c
00000110: f841 173d 9268 1dbb 2e05 a4bc 7f22 88bd
00000120: 8879 903c cf69 acbd 87dd 90bc bd91 093e
00000130: 3428 c8bd a1bb 163e a0e8 6cbd 14a4 79be
00000140: e3f9 e8bd 31d0 bdbd 69c6 883d 5c3b 6abe
00000150: bac6 c8bd 6561 30bb 6f44 643d 49d5 f43c
00000160: 1b6e daba e9b0 3fbe 03e4 f9bc ba32 2b3b
00000170: 5e25 883d 6e49 42be 559f 013d f46a b73d
00000180: 561f 2abd c0f0 01be d0c3 493d 12c2 e6bd
00000190: 385f a4bd 1f01 07bd fd3b 80bc d098 0ebe
000001a0: 8ac3 2e3d 66e3 ee3d c1df a23d a6d2 6e3d
000001b0: 3be4 d43d 869b 1f3e 2a2c 303e e890 80bd
000001c0: 8b2c 353e 9ee1 493c 955c 02be 6872 ce3d
000001d0: 5fa0 94bd 80ef 1cbd 6aef 0cbd 90f2 c8bd
000001e0: 345c 373e b518 55bc fe6e bcbc 1cba ad3d
000001f0: 7732 d13d c75a 2e3e be2b 94bd 7332 c2bd
00000200: 1055 bd3b 65ee 143d f30e b53d 0865 023e
00000210: 618b 79bd fcbf b1bc c7ba 743d 1c99 b6bd
00000220: 1b46 5bbd 5097 ac3c 31f1 123d a4fa a3bd
00000230: e73d 113d 8f0a 17be 6162 e2bd fb63 78be
00000240: 3060 0ebe aa84 47be fd03 67bd 3b78 0e3d
00000250: efc9 88bc 5422 063e f87b b03d 3193 443c
00000260: e818 003e f83e 013d b965 4ebe 8c92 3e3e
00000270: f2a5 4dbe 000a 12be 783d 19b8 0a0f e13d
00000280: eda8 acbd 031f 193e 224b d8bc 45dd 993d
00000290: 971b e2bc 6326 0d3e 6c1f 2e3d e9ff ae3d
000002a0: ce4f 013e 8059 a13d dd67 033d 55ec c53c
000002b0: 2e43 6bbe bb12 bebd 571e 273e b04f a43d
000002c0: a143 3ebe 2aac 54bd 0f89 3ebe 80ad 93bb
000002d0: 4c7f cfbd 5d49 3abe 8b86 34be 9aa4 15be
000002e0: 2193 ca3d ac54 dbbd 9856 f2bd 5d87 5e3c
000002f0: 87a7 2e3d 58ec e8bd 6574 2b3e 9642 223d
00000300: d560 5cbd 1fd3 16be cfc1 003e b9b6 1abd
00000310: 00cb 833d cca4 58bd b1f6 aa3d cccc b43d
00000320: f2c1 233d b477 273e 4cee a2bd 8383 5bbb
00000330: 8307 03bd aea5 313e 7647 cfbd 5fa2 02be
00000340: 216a 293e a4fd bdbc c686 3f3e e149 4f3e
00000350: d2d4 92bb d23c aa3d 2dc5 123c 15fa 843d
00000360: 7257 b53d a4ba 91bc fb59 c8bc 7c1e 94bd
00000370: be91 c3bc 798f e73d 5fbb a8bd 4b67 b13d
00000380: 2948 873d 5b9b b13d b98d 153e 3fc5 413e
00000390: 0dd6 a63a 5787 a43d 0416 0b3d 0ff9 863d
000003a0: 3967 00be 8407 fe3d d20e 583e ba7a de3d
000003b0: d994 453b 9e6f 0dbc c031 823e 39f2 eb3d
000003c0: 37f4 c9bc 1d7a a9bd df97 0f3e cfe9 453e
000003d0: 17d9 223c cf74 ef3d 4561 713d 609e 8ebc
000003e0: db97 2b3d 36de a7bd 1398 f43d 7a05 ae3c
000003f0: 00dc 2f3d 154c a5bd 3edd 593e 9ce3 f7bc
-0.031881113 -0.12712197 0.14139032 0.029957145 -0.123820566 -0.123612925 -0.09843724 0.20776072
0.011754197 -0.14752339 -0.038793635 0.07342216 -0.054101847 0.119947486 0.008796596 -0.039759126
-0.06473539 0.062375378 -0.060306147 0.07794455 -0.09796016 0.14352176 0.015711779 -0.18803518
0.074576676 0.04815054 0.007056057 0.09431653 -0.07747891 -0.017262204 0.099144846 0.16234991
0.13746552 0.06388269 -0.10900417 -0.052765824 -0.07391726 0.11516504 -0.07132384 -0.11493438
-0.1290867 -0.16806805 -0.040350553 -0.16313362 -0.038639747 0.016858414 0.102265485 0.06370373
0.07434835 -0.15665941 0.024668554 0.036459953 -0.0028863754 -0.18352938 -0.24641714 -0.22156487
0.09018413 -0.18636072 -0.12578246 -0.05673682 -0.23576348 0.17422754 -0.10346562 0.12229721
-0.13408442 -0.0038276592 -0.018581761 0.02334523 0.036928147 -0.0024018628 -0.020022001 -0.066472046
0.017636076 -0.08418619 -0.017683757 0.13434501 -0.09773293 0.14720012 -0.057839036 -0.24378997
-0.11375787 -0.09268225 0.06678469 -0.22874206 -0.09803529 -0.002691352 0.055729326 0.029886859
-0.0016664894 -0.1871983 -0.030504232 0.0026122765 0.06647752 -0.18973324 0.03164609 0.089559466
-0.04153379 -0.12689495 0.049259007 -0.11267485 -0.08025974 -0.032960054 -0.015653605 -0.13925481
0.04266695 0.116644666 0.07952834 0.05830636 0.10395094 0.15586671 0.17204347 -0.06277639
0.17692773 0.012321858 -0.1273063 0.10080415 -0.07257151 -0.038314342 -0.03440801 -0.0981189
0.17906266 -0.013006379 -0.023002144 0.08482763 0.102147035 0.17026816 -0.07234906 -0.09482279
0.0057779625 0.036360163 0.08840742 0.12733853 -0.060923938 -0.02169799 0.059748437 -0.08915922
-0.053533655 0.021068245 0.03587455 -0.0800679 0.035459425 -0.14750122 -0.110539205 -0.2425689
-0.1390388 -0.19484201 -0.056400288 0.03478263 -0.016697852 0.13099033 0.08617395 0.011997984
0.12509501 0.031554192 -0.20155992 0.1861059 -0.20082834 -0.14261627 -3.653529e-05 0.109891966
-0.084306575 0.14953236 -0.026403014 0.07512907 -0.027601046 0.13784175 0.042510435 0.08544905
0.126281 0.07878399 0.032081474 0.024160543 -0.22974846 -0.09280916 0.16320167 0.08023012
-0.18580486 -0.051922 -0.18606971 -0.004506767 -0.10131702 -0.18192048 -0.17629449 -0.14613572
0.09891344 -0.10709509 -0.11832923 0.013582078 0.042640235 -0.11373204 0.1674362 0.039614283
-0.053803284 -0.14728974 0.12573932 -0.037771914 0.064352036 -0.052891538 0.08347834 0.088281244
0.039979883 0.16354257 -0.07955608 -0.0033495135 -0.031989586 0.17348358 -0.10121052 -0.12757252
0.16544391 -0.023192234 0.18703756 0.20243026 -0.0044809366 0.08312382 0.008958143 0.06493012
0.088545695 -0.017789192 -0.024456969 -0.07232377 -0.023873206 0.11306662 -0.08238863 0.0866228
0.0660556 0.0867221 0.14604844 0.189229 0.0012728587 0.080336265 0.033956543 0.06590473
-0.12539376 0.12403777 0.21099404 0.10863252 0.0030148535 -0.008632569 0.2542858 0.1152081
-0.024652584 -0.082752444 0.14022778 0.19327472 0.009939454 0.11692201 0.058930654 -0.017409503
0.041892868 -0.0819668 0.11943068 0.021242846 0.042934418 -0.08071152 0.21275803 -0.0302599

fc1.bias f4 [64]
00000000: 8c1b 4fbe 1c91 a7bd 47a9 e53d f09a 9fbd
00000010: b381 9dbd d1ab 01bd 01bc 6bbe fe9c a2bd
00000020: 5229 263e c11d 8e3c 86ea 03be 495d 18be
00000030: 2cfb f03d e8a5 59bc b027 a2be 83c9 5bbe
00000040: 1a11 1ebe da4c 7dbd c9d4 fe3d 258e 683d
00000050: 140c 9ebc 211c bd3d abf4 ddbc 434f a4bd
00000060: ce4c fdbd 6448 f3bc 1f38 8dbd bf42 043e
00000070: 32c0 7cbe 6db0 35be a296 59bd de91 03be
00000080: 2d98 53bd ea8f 16bd d36f eb3d 9b91 753c
00000090: bcff 56be e36f 013e 9c24 3bbe b0ff b8bd
000000a0: a731 f23d 8ea8 89be 7ab1 dcbd 763b 99bd
000000b0: d243 0cbe d8f9 403e 269d 1abe 7ffc 9ebd
000000c0: 7eb7 65be bffd 27be ad43 f83c bf1a 58be
000000d0: 272b 6fbe 3213 b23b 5355 0d3e 3b45 d73d
000000e0: 280a bfbd a992 7dbe d1d4 fbbd 8c13 2abd
000000f0: ccfb 33be 6455 d13c 4664 3a3e a660 ffbd
-0.20225352 -0.08181974 0.11213928 -0.07793224 -0.07690754 -0.031657998 -0.23020937 -0.079401
0.162267 0.017348172 -0.12882432 -0.14879335 0.11766657 -0.013284184 -0.31670904 -0.2146359
-0.15436211 -0.06184087 0.12442929 0.056776185 -0.019292869 0.09233881 -0.027094206 -0.080229305
-0.12368165 -0.029697604 -0.0689547 0.12916087 -0.24682692 -0.17743082 -0.05312217 -0.12848613
-0.051658798 -0.03675834 0.11495938 0.014988328 -0.20995992 0.12640338 -0.18275684 -0.090331435
0.11825877 -0.2688641 -0.107760385 -0.074820444 -0.13697746 0.18845308 -0.1509901 -0.077630036
-0.22433278 -0.1640539 0.030305708 -0.21103953 -0.23356305 0.005434417 0.1380208 0.105112515
-0.09328109 -0.24762978 -0.12296451 -0.041522548 -0.17576522 0.025553413 0.18202314 -0.12469606

fc2.weight f4 [32, 64]
00000000: 6db1 e4bd f558 763c b39d 89bc 96b1 f4bc
00000010: 1386 833d d14e 3bbc a5f4 c73d f371 a73d
00000020: 8d95 f53c 92be c63d 7267 d9bd a444 503d
00000030: c94d 69bd 1bcb e13d a0c1 963d 01e0 27be
00000040: e17b 40be 19a0 17be 41b1 1a3e bca4 2cbc
00000050: ffbb 9e3d 571e f23d 0c96 95bd 83d7 98bd
00000060: 685a da3d 401e 14bd 790d 8ebd 4998 4fbd
00000070: 8fed 4dbc f82d 473b 06be 903b 8b5f d0bd
00000080: a4fc 563c 715b 903d 2a3d 1a3e 4363 e8bd
00000090: 66e7 44be 7dac 97ba 25d8 bcbc 3f01 d8bd
000000a0: 15a1 84bd abb2 bcbd bc95 1e3d 397d c3bc
000000b0: aa07 b0bd 8e9d 68bd 1f90 41bd 20ff 0cbd
000000c0: 6dba 02be 0fcc 3b3c 4920 d6bd 1a66 b5bd
000000d0: 16c1 0ebd c3de 5f3d 3cfe b93d 87e4 0a3e
000000e0: ba8e 2bbe 1244 f1bd 4feb 773c 835c 2bbd
000000f0: 7da4 743d 3ba0 963d 2bc0 573d ff9d 6f3d
00000100: a6ac e43d 0ad9 24bc 1694 a6bd a60c ad3d
00000110: 1bc3 25bd 0155 1cbe f252 aa3d 5f32 9f3d
00000120: bf7c efbc fc15 833d 20a6 d7bd 2079 4ebd
00000130: addd d2bd 7599 15be 5081 c73c f641 bd3d
00000140: dac4 3dbd c40d 93bc 0f64 1fbe 41c1 fa3d
00000150: 41b3 2cbe 3270 0fbd d6bf e3bd 458d b63d
00000160: 21ac d6bd 5a6a e6bd 81ea 823d 02ae 0cbe
00000170: 1ed1 ad3d dc96 1f3c 2506 e2bc f15c cd3d
00000180: bdf8 123d 904a 7b3d 4d58 01be 5da0 e4bc
00000190: 6d9d 853d 0cb3 eabd 746d f0bc 9a0c ddbc
000001a0: 58be c83c 7d88 b73d 4da2 d13c 0947 103d
000001b0: 46fd 8c3d dc44 18be 086c a1bd af62 87ba
000001c0: f128 1c3e 4037 a53c c852 aabb d8a8 c6bd
000001d0: ad2d ca3d 1033 1fbd 1f8b 07be f9e4 5bbd
000001e0: 7272 7abd a9b6 f83c dd98 f33d 09b3 13be
000001f0: ce7e eabc 8dbc 15be 9758 f1bd 1b4b ea3c
00000200: 4070 84bc ecc8 9e3d fd74 76bd 4a0c bebd
00000210: 1cb2 2e3c 3e79 0b3d 05fb 5e3c 3a22 bdbd
00000220: 689f b2bd 72e4 5cbd ee22 38bd 2f8c 00be
00000230: e97d 66bd 1773 f83d 2922 b4bd de1e 9c3a
00000240: f6e4 12bd bf5e b5bd 841c 1f3c 3e42 65bd
00000250: ec31 ee3d 4b17 3e3c 8f63 bcbc 7ac2 f73c
00000260: 688b 8dbd 53b7 26bd fb86 87bd b7b7 003e
00000270: e5db 993d 8a30 b9bb 18d2 bbbc 9040 83bd
00000280: e974 773d eb9d 93bd 577f 53bc 688b ba3d
00000290: 1bcb 84bc 0a3b 3a3d 2859 77bb 65a2 78bc
000002a0: 7e5e c03d 3d02 0fbd 6715 c93d e5b0 ebbd
000002b0: c798 23bd 794b 633b 986d 6abd 45ab c3bd
000002c0: f4ae a1bd 8876 a73d 7ca2 cf3d ab40 d9bb
000002d0: 4a4f 1f3d 8b27 a63d 704f 8bbc c875 cdbc
000002e0: 8ed5 1bbe c404 efbc 50c1 4fbd 64d2 bc3c
000002f0: 651e 983d ace8 ce3d 7d4b 5a3d 92b8 1fbd
00000300: 409b db3d 8f25 c73b 7f1e 1b3b f8f5 f1bd
00000310: 09b8 2abe a579 9f3c e8ea c53c 8c80 f4ba
00000320: 5c24 07be b7d5 9cbd 4345 b4bb 80ab d9ba
00000330: e707 17bd 34dd fe3c 7c8d 0cbd aa4c dd3d
00000340: 28ed 293e f9f9 88bd 6f1b abba 2651 82bb
00000350: d096 1cbe c391 b93b 5cf9 883d d363 6ebd
00000360: 88f6 e7bc 8e6c 783a 5992 02bd 00de 2fba
00000370: 4027 fc3d 2e62 5ebd 37cc 92bd aba6 57bd
00000380: dbff 55bc 24d2 b83d 5154 133d b09e 96bd
00000390: 3e29 d73d 93bb 3ebe b67d 083c bd6e bc3d
000003a0: ec83 37be 4a72 f03d e544 70bd 7ae4 99bd
000003b0: 0a9d 07be 8e11 27be bb66 dc3d 3014 f73d
000003c0: fc09 a5bd 3cce af3d 44b0 7b3c aae5 c23c
000003d0: 813d eb3d a904 1dbe ec4a 1dbe efea 213d
000003e0: 42d5 77bc d5f1 833d e40a 803d 0c61 abbd
000003f0: 91be e63d 4518 243d 12bc 11bd 5417 5abc
-0.11166654 0.015035857 -0.01679883 -0.029869836 0.06422057 -0.0114323655 0.09763459 0.08176031
0.029978538 0.09704317 -0.10615434 0.05084671 -0.056958947 0.110250674 0.0736115 -0.16394044
-0.18797256 -0.14807166 0.1510668 -0.010537323 0.07750701 0.11822193 -0.0730401 -0.074629806
0.10661775 -0.03616166 -0.069361635 -0.05068234 -0.012568845 0.003039239 0.004417184 -0.101744734
0.013121758 0.07048691 0.15062395 -0.11347058 -0.19228896 -0.0011571791 -0.023052284 -0.10547113
-0.064760365 -0.09213766 0.038717017 -0.023863422 -0.08595212 -0.05679088 -0.047256585 -0.034422994
-0.12766428 0.011462226 -0.10455377 -0.08857365 -0.03485211 0.0546558 0.090816945 0.13563739
-0.16753665 -0.117805615 0.0151317855 -0.041836273 0.05972718 0.0735478 0.0526735 0.058500286
0.111657426 -0.010061512 -0.08133714 0.08449678 -0.04046927 -0.15266801 0.08316602 0.077732794
-0.029234288 0.064006776 -0.10529733 -0.050408483 -0.102961875 -0.1460932 0.024353653 0.09241097
-0.04633031 -0.0179509 -0.15565513 0.122438915 -0.16865255 -0.035019107 -0.11120574 0.08913664
-0.1048205 -0.11250754 0.06392384 -0.13738254 0.084871516 0.0097405575 -0.02759082 0.10027493
0.035881747 0.061350405 -0.1263134 -0.027908498 0.06524167 -0.11459932 -0.029349066 -0.026983548
0.024504825 0.0896158 0.025590086 0.035223994 0.068842456 -0.14870018 -0.078819335 -0.0010329093
0.15249993 0.020167947 -0.0051978566 -0.09700173 0.09871993 -0.038867056 -0.13236664 -0.053685162
-0.0611443 0.030360537 0.11894391 -0.14423765 -0.028624918 -0.14622708 -0.11784475 0.028600266
-0.016166806 0.077531666 -0.060170162 -0.09279688 0.010662582 0.034051172 0.013609652 -0.09235044
-0.087218106 -0.0539288 -0.044955187 -0.12553476 -0.05627242 0.12131327 -0.08795578 0.0011911055
-0.035862885 -0.08855962 0.0097113885 -0.055971377 0.116306156 0.011602233 -0.022996692 0.0302441
-0.06911355 -0.040702175 -0.06617542 0.12570082 0.07512645 -0.0056515383 -0.022927329 -0.06408799
0.06041423 -0.07207855 -0.012908778 0.09108621 -0.01621013 0.04546646 -0.003774235 -0.015175437
0.09393023 -0.034914244 0.09818535 -0.11508349 -0.03994062 0.0034682436 -0.057233423 -0.095541514
-0.07894698 0.08176905 0.10138413 -0.0066300235 0.038893975 0.08113011 -0.017005652 -0.025080577
-0.15218183 -0.029177077 -0.050721467 0.02304954 0.07427672 0.101029724 0.053294647 -0.03899438
0.10722971 0.0060774754 0.00236693 -0.11814493 -0.16671766 0.019467184 0.024159864 -0.0018654033
-0.13197464 -0.0765795 -0.0055014207 -0.0016606897 -0.03687277 0.031111337 -0.034314618 0.10805638
0.16594374 -0.066883035 -0.001305444 -0.003976959 -0.15291905 0.005663128 0.066881865 -0.05820067
-0.028315797 0.0009476625 -0.03187785 -0.0006708801 0.12312174 -0.05429285 -0.07167857 -0.05264918
-0.013061489 0.09024456 0.035969082 -0.07354486 0.10505913 -0.18626241 0.008330753 0.09200809
-0.17921418 0.11740549 -0.058659453 -0.075142816 -0.132435 -0.1631529 0.10761782 0.12064397
-0.08058545 0.08584258 0.015361849 0.023791153 0.1148634 -0.15333809 -0.15360612 0.03953069
-0.015126528 0.0644261 0.06252077 -0.083681196 0.112668164 0.040062208 -0.03557975 -0.013311226

fc2.bias f4 [32]
00000000: 9d6b a03d b780 d33c 6a06 d03d f7da 01bc
00000010: 8cb6 473d 28ce e1bd 2ba5 2b3e 7549 113e
00000020: 9e63 d13d 20c6 653d 708a 353e b4fa 3b3e
00000030: 6c76 8dbd ef8f 3a3d 24a0 3b3e 2b2a 63bd
00000040: a03e 2c3d 6947 db3c 8791 183d 0d50 123e
00000050: 1317 333e a898 023e 3c89 03be f00a dfbc
00000060: a73d 283e df6b 5c3e 0698 a0bd dc24 9d3d
00000070: 8259 f9bb 1aab 223d af15 363e 7e25 8ebd
0.078330256 0.025818212 0.101574734 -0.00792574 0.048758075 -0.11025649 0.16762225 0.14188178
0.102240786 0.05609715 0.17728591 0.18357354 -0.06907353 0.045547422 0.18322808 -0.055460136
0.04205191 0.02676745 0.03724816 0.1428835 0.17489271 0.12753546 -0.1284532 -0.027226895
0.16429769 0.21525525 -0.07841496 0.07673046 -0.007609547 0.039713956 0.17781709 -0.06940745

fc3.weight f4 [1, 32]
00000000: 34e0 bfbd 96b3 003e 1453 02be ea83 0d3e
00000010: fd53 cb3d 4031 043e 0b85 96bd b5b2 d1bd
00000020: e9c6 933d 2022 8fbd 1ced cabd 12a2 82bd
00000030: ff14 263e ed7f 6b3d a318 c0bd d4fc 213e
00000040: e2fe 83bd ed6f 873d f9ff f73d 4954 8abd
00000050: 0210 e6bd 2411 fabd d5a2 283d 5152 6f3d
00000060: b44c dcbd aa15 a3bd 6b68 dc3d f263 cc3d
00000070: 4d1e c23c ea7e cc3d 9431 86bd b65f d03d
-0.09368935 0.12568507 -0.12727004 0.13819852 0.09928129 0.12909412 -0.07349595 -0.10239164
0.072156735 -0.06988931 -0.09908506 -0.06378569 0.16218947 0.057495046 -0.09379699 0.15819103
-0.064450994 0.06613145 0.1210937 -0.06754357 -0.11233522 -0.122103006 0.041170914 0.058428112
-0.107568175 -0.079631165 0.10762104 0.099800006 0.02369609 0.099851444 -0.06552425 0.101745054
