models/neural_ensemble.pth (torch, 19580 bytes, 13 tensors)

feature_extractor.0.weight f4 [32, 34]
0	0x3d8f3a60	0.06993556
1	0xbd75e757	-0.060035076
2	0x3cd2de9c	0.025740914
3	0x3d07b015	0.03312691
4	0x3e117ca7	0.14207707
5	0xbb6a98a4	-0.0035796547
6	0x3d76220c	0.060091063
7	0x3dfe1362	0.12406041
8	0x3d9cacbf	0.07650136
9	0x3e160b8b	0.14652841
10	0xbd4c7bca	-0.049922742
11	0xbc076b61	-0.008265347
12	0xbd38920b	-0.045061152
13	0x3e1b1be3	0.15147357
14	0xbdb0cbc0	-0.08632612
15	0xbe0b39d9	-0.13596286
16	0x3d710a4f	0.05884772
17	0x3dfdd15f	0.1239345
18	0x3dc4efd9	0.0961606
19	0xbde2cff7	-0.110748224
20	0xbc74bbb0	-0.014937326
21	0x3deaa61e	0.114574656
22	0xbe03eaca	-0.12882534
23	0x3dc1d81b	0.09465047
24	0x3d20832f	0.039187606
25	0xbdb86bb8	-0.09004921
26	0x3d9a950d	0.075479604
27	0x3c432f94	0.011913199
28	0xbd248844	-0.040169016
29	0xbc4540d9	-0.012039387
30	0xbd8960fc	-0.067079514
31	0x3e13a7f0	0.14419532
32	0xbab5ec78	-0.0013879677
33	0xbd706b29	-0.058695946
34	0x3d6b24d1	0.057408158
35	0x3c843426	0.016138148
36	0x3e0d383f	0.13790987
37	0xbe05de63	-0.13073115
38	0x3d9cef01	0.07662774
39	0x3d86f4f7	0.06589692
40	0xbdeeeb7d	-0.116660096
41	0xbe0e695f	-0.13907383
42	0xbdba1fe4	-0.09088114
43	0xbbd21264	-0.0064108837
44	0x3daa5e9a	0.08318825
45	0xbcf580c0	-0.02996862
46	0x3d945aaf	0.07243859
47	0xbdd00ae3	-0.101583265
48	0x3b4fb017	0.003169065
49	0x3dab4820	0.08363366
50	0xbd970b3d	-0.073751904
51	0x3e13e9b2	0.14444616
52	0xbd8e902c	-0.06961092
53	0x3c165285	0.009174948
54	0xbe06155e	-0.13094088
55	0xbdb4e419	-0.08832569
56	0x3c976a36	0.018483263
57	0x3c0d3051	0.008617477
58	0xbc01c56c	-0.007920604
59	0xbd69ed5d	-0.057111133
60	0xbd6db02c	-0.05802934
61	0xbc3a3fe7	-0.011367775
62	0x3d107706	0.03526976
63	0xbd1a61a7	-0.037690785
64	0x3c8c1d7f	0.017103909
65	0x3cb6b5ee	0.022303548
66	0xbd528eea	-0.051405825
67	0xbd00ab89	-0.03141359
68	0xbd0b80fa	-0.03405855
69	0x3d7af6b0	0.061270416
70	0x3d7a2560	0.0610708
71	0x3dbad044	0.09121755
72	0x3e062981	0.1310177
73	0x3e25c6a6	0.1618906
74	0x3d38c8ba	0.045113303
75	0xbdc955d2	-0.09830822
76	0xbd6e5702	-0.058188446
77	0xbd97e205	-0.07416157
78	0x3d1ff08e	0.03904777
79	0x3e15a36f	0.14613126
80	0x3df3dc6d	0.11907277
81	0x3d046f4c	0.032332703
82	0x3d268f6e	0.04066413
83	0xbe3e4736	-0.18581852
84	0x3de54943	0.11195614
85	0xbd5d00bb	-0.053955775
86	0x3e0c0f22	0.13677648
87	0xbdbc43c7	-0.09192615
88	0xbd962347	-0.07330947
89	0x3d796cb7	0.060894694
90	0x3bdaae40	0.0066736042
91	0xbda0a753	-0.078444146
92	0x3def2e31	0.11678732
93	0x3d90a00b	0.07061776
94	0xbd133725	-0.03594126
95	0x3cd19766	0.025584888
96	0xbdf0220e	-0.117252454
97	0x3d7893c2	0.060687788
98	0x3de81e9e	0.11333965
99	0x3d8b247e	0.0679407
100	0xbd9b2170	-0.07574737
101	0xbd4a722e	-0.049425296
102	0x3da580b4	0.08081189
103	0x3cdb965b	0.026805094
104	0xbe0c2c73	-0.13688831
105	0xbdfa104b	-0.12210139
106	0xbe0bafcc	-0.1364128
107	0x3e047637	0.1293572
108	0xbcf83255	-0.030297438
109	0x3de1de32	0.110287085
110	0x3df018b5	0.117234625
111	0x3e1ecbb4	0.15507394
112	0x3d337e71	0.043821756
113	0x3d9150a5	0.0709546
114	0xbce1d43e	-0.027567025
115	0x3db6b64f	0.08921491
116	0xbe183e1e	-0.14867446
117	0xbd5e8082	-0.054321773
118	0xbcd6a8e8	-0.026203588
119	0xbcf4ae82	-0.029868368
120	0x3da922c8	0.08258587
121	0xbdac159c	-0.08402559
122	0x3c93e8aa	0.018055279
123	0xbe1c2996	-0.15250239
124	0xbca3c4fd	-0.019991392
125	0xbd4766e2	-0.0486821
126	0x3e11135a	0.14167538
127	0xbe0f1c58	-0.13975656
128	0x3cca11fd	0.02466678
129	0xbd82f78b	-0.06394871
130	0x3d9fcf43	0.07803204
131	0xbc1c4e07	-0.009540088
132	0xbd0e88b3	-0.034798335
133	0xbd4ab469	-0.04948846
134	0xbde35038	-0.11099285
135	0xbe30873c	-0.17239088
136	0xbe2398c8	-0.1597625
137	0xbdf98f0a	-0.12185486
138	0x3dd60b5b	0.10451385
139	0x3ddecf05	0.108793296
140	0xbb3481bd	-0.002754315
141	0xbe1c4d1b	-0.15263788
142	0x3c85a6b3	0.01631484
143	0xbd647fd6	-0.055785976
144	0xbd5b1a7d	-0.053492058
145	0x3e1085ce	0.14113542
146	0x3d7f6294	0.06234987
147	0xbd574457	-0.05255541
148	0x3dd4e75d	0.103956915
149	0x3dacaa59	0.08430929
150	0x3db92ac7	0.09041362
151	0x3dccd596	0.10001676
152	0xbc74775f	-0.014921038
153	0x3d28084d	0.04102354
154	0x3e1c5af1	0.15269066
155	0xbd141068	-0.03614846
156	0x3d98a06d	0.07452474
157	0x3e0ac8be	0.1355314
158	0x3db6f814	0.08934036
159	0xbdf0fd1b	-0.11767026
160	0x3b7a21d2	0.003816713
161	0xbe0f85d2	-0.14015892
162	0xbd5a3ab3	-0.053278636
163	0x3bb0d212	0.005396136
164	0x3dd43ad9	0.10362787
165	0xbcb181a3	-0.02166826
166	0xbda2a112	-0.07940878
167	0x3e2677eb	0.16256683
168	0xbe1571f3	-0.1459425
169	0xbdd72a34	-0.105060965
170	0x3cea64ae	0.028612461
171	0xbd96ab82	-0.07356931
172	0xbda27c10	-0.07933819
173	0xbde257d7	-0.1105191
174	0xbe024ab4	-0.1272381
175	0xbdf065c0	-0.11738157
176	0x3d87014d	0.06592045
177	0x3cb56692	0.022143636
178	0x3d2284a2	0.03967727
179	0xbdb90d48	-0.09035736
180	0x3d524742	0.051337488
181	0x3ded8431	0.11597479
182	0x3d2a553d	0.041585196
183	0x3bf71f3d	0.0075415657
184	0xbdf26e06	-0.118373916
185	0x3e10a0af	0.14123796
186	0x3a324b3c	0.0006801372
187	0x3ddea4a4	0.108712465
188	0xbd738655	-0.05945428
189	0x3c595095	0.013263841
190	0x3c690ebe	0.014224706
191	0xbe24e01a	-0.16101113
192	0xbe28712c	-0.16449422
193	0x3e0f24ea	0.13978925
194	0xbe12798c	-0.14304179
195	0x3d9e162f	0.07719075
196	0xbd00e46f	-0.03146785
197	0x3cd654f1	0.02616355
198	0x3dba7c35	0.09105722
199	0xbdf26fb6	-0.118377134
200	0x3dc7eccb	0.097619615
201	0x3dfa8fca	0.12234457
202	0x3dbafd78	0.091303766
203	0x3e2145b3	0.15749244
204	0x3cf08d1d	0.029364163
205	0xbe1288d8	-0.14310014
206	0x3e191504	0.14949423
207	0xbd1050e6	-0.0352334
208	0xbdbb7f40	-0.091551304
209	0xbde801bc	-0.11328456
210	0xbe02563d	-0.1272821
211	0x3dc4d51f	0.09610962
212	0x3e001b7b	0.12510483
213	0xbde41164	-0.111361295
214	0x3ddcadc3	0.1077533
215	0xbd9fcaf3	-0.07802381
216	0x3d4d33b8	0.05009815
217	0x3dfd978b	0.1238242
218	0xbda29e97	-0.07940405
219	0xbc8bc6c2	-0.017062549
220	0xbd895f4c	-0.067076296
221	0xbdcc584e	-0.0997778
222	0xbd485253	-0.048906635
223	0x3de41f44	0.11138776
224	0x3e209437	0.1568154
225	0x3e2474a9	0.16060127
226	0x3e316e4a	0.17327228
227	0x3e080751	0.13284041
228	0x3c7a12ce	0.015263272
229	0x3e17cb6d	0.14823695
230	0xbd195dd8	-0.037443012
231	0xbe03786d	-0.12838908
232	0xbcae78b6	-0.021297794
233	0xbd967fad	-0.07348571
234	0x3deff649	0.11716897
235	0x3e14da46	0.1453639
236	0xbe1f62cd	-0.15565033
237	0x3bb650e7	0.0055638435
238	0x3d9a016f	0.07519805
239	0xbe146ee6	-0.1449543
240	0x3e3e54ba	0.18587008
241	0xbd93d726	-0.07218771
242	0x3d866d9b	0.06563874
243	0x3d1a4011	0.037658755
244	0xbe37f614	-0.17964965
245	0xbdc8f63e	-0.09812592
246	0x3decb6f2	0.115583315
247	0x3bf358d7	0.007426362
248	0x3e08dec7	0.13366233
249	0x3df4af29	0.11947472
250	0xbbade89a	-0.0053072693
251	0x3d835f89	0.06414706
252	0xbe106c5e	-0.14103839
253	0xbd3b13bf	-0.04567313
254	0xbdf1ad51	-0.118006356
255	0xbdffd1f0	-0.12491214

feature_extractor.0.bias f4 [32]
0	0x3d77e4f1	0.06052107
1	0x3cde091c	0.027103953
2	0xbd5ad7a6	-0.053428315
3	0xbd578319	-0.05261526
4	0x3d8544f8	0.06507295
5	0xbdcc3436	-0.09970896
6	0xbd58a203	-0.05288888
7	0xbd9f1ce3	-0.077691816
8	0xbe014add	-0.12626214
9	0xbcb46b24	-0.022023745
10	0x3e28101d	0.16412397
11	0xbda8f6b0	-0.08250177
12	0xbd09cc0c	-0.03364186
13	0xbda4605d	-0.08026192
14	0xbd5c75e1	-0.053823356
15	0x3e013895	0.1261924
16	0xbc7827e8	-0.015146233
17	0x3e0f1172	0.13971499
18	0x3d84c98c	0.064837545
19	0x3da3838a	0.079840735
20	0xbd4a6a8a	-0.04941801
21	0xbdd864d8	-0.105661094
22	0xbc2dadfe	-0.010600565
23	0xbe09bc90	-0.13450837
24	0x3dfc7f9e	0.123290285
25	0xbc03962f	-0.008031412
26	0x3d750c45	0.059826154
27	0x3db652e5	0.089025296
28	0xbe106939	-0.1410264
29	0x3d9c0b72	0.076193705
30	0xbc0453df	-0.008076637
31	0x3d7fc213	0.062440943

feature_extractor.1.weight f4 [32]
0	0x3f6d713a	0.92750895
1	0x3f6e58e3	0.9310438
2	0x3f6bb1da	0.92068255
3	0x3f780324	0.9687979
4	0x3f72816f	0.9472875
5	0x3f707f17	0.93943924
6	0x3f753f84	0.9580004
7	0x3f757cfb	0.9589383
8	0x3f6f3c66	0.93451536
9	0x3f796e83	0.9743425
10	0x3f7d7ef1	0.9902182
11	0x3f71066f	0.9415044
12	0x3f6f0987	0.9337391
13	0x3f7604c3	0.96101016
14	0x3f6f0832	0.9337188
15	0x3f7206f5	0.94541866
16	0x3f710792	0.94152176
17	0x3f75a602	0.9595643
18	0x3f6fadd8	0.9362464
19	0x3f748159	0.9550987
20	0x3f722259	0.9458366
21	0x3f7c9467	0.98663944
22	0x3f6dbeda	0.9286934
23	0x3f7061a2	0.93898976
24	0x3f6ccfb0	0.92504406
25	0x3f72e433	0.94879454
26	0x3f711de8	0.9418626
27	0x3f6f4d88	0.9347768
28	0x3f7197d6	0.9437231
29	0x3f71193c	0.9417913
30	0x3f761d34	0.9613831
31	0x3f6c4215	0.92288333

feature_extractor.1.bias f4 [32]
0	0xbc889248	-0.016671315
1	0xbc79fbf5	-0.015257825
2	0xbd05aa61	-0.03263319
3	0x3c1c33a7	0.009533799
4	0x3b48f3cc	0.0030662892
5	0xbc394613	-0.011308211
6	0x3c9e2f2d	0.019309605
7	0xbb678243	-0.0035325445
8	0xbba9238e	-0.005161709
9	0x3cf7f20d	0.030266786
10	0x3d489a37	0.048975196
11	0x3ba3d639	0.0049999026
12	0xbc66658a	-0.014062295
13	0xbb9d0fd7	-0.004793148
14	0xbc67b09f	-0.014141231
15	0x3b0c5f9c	0.0021419292
16	0xbbc81ef8	-0.0061072074
17	0x3cbd2259	0.023087667
18	0xbca4fab0	-0.020139068
19	0xbc98d90b	-0.018658182
20	0x3b8c39c2	0.004279346
21	0x3ccd962c	0.025096022
22	0xbac36768	-0.0014908137
23	0xba36fccc	-0.00069804187
24	0xbcef0478	-0.029176936
25	0x3bfac63c	0.007653026
26	0xbbe88a3b	-0.0070965565
27	0xbc5db3e0	-0.013531655
28	0xba8fda6f	-0.0010975132
29	0xbbbbbad4	-0.0057290588
30	0x3cc60b4e	0.024175312
31	0xbca85677	-0.020549042

prediction_extractor.0.weight f4 [32, 2]
0	0xbe996e68	-0.29967046
1	0xbd9c09fa	-0.076190904
2	0x3e6bcc34	0.23027116
3	0x3f238ea7	0.63889545
4	0x3f11bb0e	0.5692605
5	0xbdc364e0	-0.09540725
6	0xbe798d63	-0.24370341
7	0x3ece973d	0.4034976
8	0x3ef6b9ce	0.48188633
9	0x3cd2ca88	0.02573134
10	0x3e820d50	0.25400782
11	0x3ebc0024	0.36718857
12	0x3e745122	0.23859075
13	0x3f1dc9fd	0.61636335
14	0x3efb7190	0.4911008
15	0xbf11bd5b	-0.5692956
16	0xbdb1b271	-0.08676613
17	0x3f0c39ef	0.547759
18	0xbe7a3891	-0.24435641
19	0x3edec68f	0.43510863
20	0xbe61e221	-0.22058918
21	0xbe7d89ba	-0.2475957
22	0x3d64c9f9	0.05585668
23	0xbd305dfe	-0.043058388
24	0xbeed9e68	-0.46409917
25	0x3d458fb6	0.048232757
26	0x3eece239	0.46266344
27	0x3d2ca367	0.04214802
28	0x3ea47172	0.32117802
29	0x3eccc1ee	0.39991707
30	0x3ee63986	0.44965762
31	0xbe8fdfe1	-0.28100494
32	0x3d6fda32	0.058557697
33	0xbf1e8239	-0.61917454
34	0xbedebc1e	-0.43502897
35	0x3eaec701	0.34136203
36	0xbf1fc8ff	-0.6241607
37	0xbe07ac1c	-0.13249248
38	0xbea176a6	-0.31535834
39	0x3ea65677	0.32487842
40	0x3f018345	0.50590926
41	0x3f26851e	0.6504687
42	0x3f12bf3d	0.57323056
43	0x3eaed894	0.3414961
44	0xbe89cf5a	-0.2691601
45	0xbe278be6	-0.16361961
46	0xbf26c002	-0.6513673
47	0x3d63e76d	0.055640627
48	0xbf223667	-0.6336426
49	0x3f0ca5e2	0.5494062
50	0x3d8529d3	0.06502118
51	0x3ea915e1	0.33024505
52	0x3dd66500	0.10468483
53	0x3e8b4163	0.27198324
54	0xbf0b6bc3	-0.54461306
55	0xbe39c109	-0.18140043
56	0xbec07b62	-0.37594134
57	0x3e087581	0.13326074
58	0x3e8c90ca	0.27454215
59	0xbd185e7f	-0.037199493
60	0xbdddd30e	-0.10831271
61	0xbe7c0e2f	-0.24614786
62	0xbe865441	-0.26236156
63	0x3f1f2786	0.6216968

prediction_extractor.0.bias f4 [32]
0	0xbe00954c	-0.12556952
1	0xbef66c6d	-0.48129597
2	0xbef3d6f3	-0.4762493
3	0xbf005900	-0.50135803
4	0xbef88457	-0.48538467
5	0x3e1b916c	0.15192193
6	0xbd682e81	-0.056684975
7	0xbf1bdfec	-0.6088855
8	0xbef2890d	-0.47370186
9	0x3eaa3b65	0.3324844
10	0xbee487bc	-0.44634807
11	0xbeadb7f6	-0.33929414
12	0x3c425863	0.011861893
13	0x3ed7ede4	0.42173684
14	0x3de4056c	0.11133847
15	0x3e09c41c	0.13453716
16	0xbe52cec7	-0.20586692
17	0x3e959f69	0.29223183
18	0xbee91048	-0.45520234
19	0xbf238df3	-0.6388847
20	0x3c1ee478	0.009698026
21	0x3f07e24e	0.5307969
22	0x3dee82db	0.116460524
23	0x3f10e28d	0.5659569
24	0x3e97236a	0.29519206
25	0xbebf1875	-0.37323347
26	0x3e120268	0.1425873
27	0xbf0dd5de	-0.5540446
28	0xbe871c50	-0.26388788
29	0xbf15ca2f	-0.5851163
30	0x3f1a1071	0.6018134
31	0x3f13432b	0.57524365

prediction_extractor.1.weight f4 [32]
0	0x3f71a10b	0.9438636
1	0x3f7c3c77	0.9852976
2	0x3f76e566	0.96443784
3	0x3f77b791	0.96764475
4	0x3f75ae93	0.95969504
5	0x3f76f17e	0.9646224
6	0x3f734de7	0.95040745
7	0x3f72fc95	0.9491666
8	0x3f83b1c7	1.0288628
9	0x3f7d01cc	0.98830867
10	0x3f72eb90	0.9489069
11	0x3f72eb90	0.9489069
12	0x3f715827	0.94275135
13	0x3f7c04b5	0.9844468
14	0x3f6b176c	0.91832614
15	0x3f7edf1f	0.99559206
16	0x3f700d4f	0.9377031
17	0x3f790441	0.97272116
18	0x3f72eb90	0.9489069
19	0x3f72eb90	0.9489069
20	0x3f6eeecd	0.9333313
21	0x3f79d4fb	0.9759061
22	0x3f6f9647	0.9358868
23	0x3f699338	0.91240263
24	0x3f6f7d0d	0.9355019
25	0x3f861de1	1.0477868
26	0x3f704c57	0.93866485
27	0x3f72eb90	0.9489069
28	0x3f72eb90	0.9489069
29	0x3f727819	0.94714504
30	0x3f774a05	0.9659732
31	0x3f7558a8	0.95838404

prediction_extractor.1.bias f4 [32]
0	0xbba25b16	-0.004954706
1	0x3d0e6352	0.034762688
2	0x3d04cd6b	0.032422464
3	0x3c311a57	0.010809503
4	0x3c35121c	0.011051681
5	0x3c984aa2	0.018590275
6	0x3c1b7932	0.009489344
7	0x3d19e27e	0.037569515
8	0x3c1c4cfe	0.009539841
9	0x3d0e5bdd	0.034755576
10	0x00000000	0.0
11	0x00000000	0.0
12	0x39523254	0.0002004591
13	0x3d0c4196	0.034242235
14	0xbcb3e671	-0.021960469
15	0x3d483a2a	0.048883595
16	0xbc3e15be	-0.011601863
17	0x3d1e8639	0.038702223
18	0x00000000	0.0
19	0x00000000	0.0
20	0xbca9f451	-0.020746382
21	0x3cd9a93f	0.02656996
22	0xbc997176	-0.01873086
23	0xbd269b68	-0.04067555
24	0xbc72cd3a	-0.014819438
25	0x3d342aad	0.04398601
26	0xbc199df6	-0.00937604
27	0x00000000	0.0
28	0x00000000	0.0
29	0xba962faf	-0.0011458303
30	0x3d0d082e	0.03443163
31	0x3bb3f9e7	0.005492437

residual_predictor.0.weight f4 [32, 64]
0	0xbdc73fa7	-0.097289376
1	0x3c9c215b	0.019058874
2	0x3c746fba	0.014919216
3	0x3db29ab9	0.08720917
4	0x3899ecba	7.339702e-05
5	0xbdf0deeb	-0.11761268
6	0x3a7f5daa	0.0009741435
7	0xbbb6f841	-0.0055837934
8	0x3dae29a9	0.0850404
9	0x3d4695b6	0.04848262
10	0xbd9b10b6	-0.07571547
11	0x3db7908a	0.089631155
12	0x3caa6432	0.02079973
13	0x3d6c3cdb	0.057675224
14	0xbddf9f5f	-0.109190695
15	0xbdb3abe8	-0.08773023
16	0xbd1119a6	-0.03542485
17	0x3dbbbb6e	0.09166609
18	0xbd42e7b1	-0.04758424
19	0x3d5ae224	0.05343832
20	0x3d9a5b29	0.07536919
21	0x3d0f173d	0.03493427
22	0xbcc5f6e1	-0.024165573
23	0xbdd946a5	-0.106091775
24	0xbdb5f487	-0.088845305
25	0x3d087903	0.03331853
26	0x3c548c3a	0.012972886
27	0x3d8663a0	0.06561971
28	0xba8de9a2	-0.0010827074
29	0xbcdac4b3	-0.026705122
30	0x3da06c0e	0.0783311
31	0xbdef7d5d	-0.11693833
32	0x3d4fb42f	0.050708946
33	0xbd9f14b1	-0.077676184
34	0xbcb2ffdf	-0.021850524
35	0x3d1e49dd	0.03864466
36	0xbd752593	-0.059850287
37	0xbe00ea59	-0.12589397
38	0x3d29f0ba	0.04148934
39	0x3cd09556	0.025461834
40	0xbb2b2015	-0.0026111652
41	0x3cc4fe94	0.024047174
42	0x3d688835	0.056770522
43	0x3bdf3f3d	0.0068129585
44	0xbd26d361	-0.04072893
45	0x3d0f2199	0.03494415
46	0xbcc52130	-0.024063677
47	0xbdaeee43	-0.085415386
48	0x3d66481c	0.056221113
49	0x3d28b895	0.041191656
50	0x3d4e675d	0.050391544
51	0xbdcd7c5f	-0.100334875
52	0x3d28a34e	0.041171364
53	0xbde89b8d	-0.11357794
54	0xbdf87c4f	-0.12133085
55	0x3bdee823	0.006802575
56	0xbdcf5dda	-0.10125323
57	0xbddf819c	-0.10913393
58	0x3d5f9bf8	0.054592103
59	0x3d83b284	0.064305335
60	0xbd9b83b1	-0.075934775
61	0xbd6f2948	-0.05838898
62	0xbb70ece0	-0.0036762282
63	0xbdef97a3	-0.11698844
64	0xbd2bebdb	-0.041972976
65	0xbda14ae5	-0.07875613
66	0x3d81ab0f	0.06331455
67	0x3d5b94f1	0.05360884
68	0x3e00d6e0	0.12581968
69	0x3d392013	0.045196604
70	0x3e340436	0.17579731
71	0xbd562632	-0.05228252
72	0xbb04160d	-0.0020154745
73	0x3e24b4ab	0.16084544
74	0x3da8f234	0.082493216
75	0x3b90298c	0.004399484
76	0xbbdcad29	-0.0067345095
77	0x3d69c5f2	0.05707354
78	0x3cb872ef	0.022515742
79	0x3d76ab53	0.06022198
80	0x3df2dbe1	0.11858345
81	0x3e3de069	0.18542637
82	0xbd51517c	-0.0511031
83	0x3d052076	0.03250166
84	0x3dd755d8	0.1051442
85	0x3e3b0262	0.18262628
86	0x3de8d0cb	0.11367949
87	0x3e353311	0.17695262
88	0xbc8b540d	-0.017007852
89	0x3e060401	0.13087465
90	0x3dfcad4b	0.123377405
91	0xbd9b9740	-0.07597208
92	0xbd14b3ff	-0.03630447
93	0x3c9a5964	0.018841453
94	0x3e26a86a	0.16275182
95	0x3e0ea705	0.139309
96	0x3d400610	0.04688078
97	0x3d12844a	0.035770692
98	0x3a3f5583	0.0007298814
99	0xbdc87e5f	-0.097897284
100	0xbc406666	-0.011743164
101	0x3d237a16	0.039911352
102	0x3dbb6b9d	0.09151385
103	0x3ded2dd3	0.11581006
104	0x3c1d29f6	0.009592524
105	0x3def9d51	0.116999276
106	0xbbd6c521	-0.0065542613
107	0xbd43610b	-0.04769997
108	0x3d41d96d	0.047326494
109	0xbbb41719	-0.0054959175
110	0x3e04e50a	0.12977996
111	0x3e0e152d	0.13875265
112	0x3d6f95ca	0.05849246
113	0x3e1d8f0d	0.15386601
114	0x3cd40677	0.025881989
115	0x3db3a541	0.08771754
116	0x3d3d50cd	0.046219636
117	0xbbe92854	-0.007115403
118	0xbd365b87	-0.04452088
119	0x3e0fc59a	0.14040223
120	0x3d2f091d	0.0427333
121	0x3d5b5596	0.053548418
122	0xbd008897	-0.031380262
123	0xbc9a3d63	-0.0188281
124	0xbdb4c8e6	-0.08827381
125	0xbda7b3d8	-0.08188599
126	0x3db2fe03	0.08739855
127	0x3e28b7b6	0.1647633
128	0x3d52f27a	0.051500775
129	0x3d40504c	0.046951577
130	0x3d2280c1	0.03967357
131	0x3cbca1c3	0.023026353
132	0xbcdad4d2	-0.026712809
133	0xbdcde9a0	-0.10054326
134	0x3b8ec65d	0.004357143
135	0x3bc23341	0.00592652
136	0x3d0ed663	0.034872424
137	0x3daea48a	0.08527477
138	0x3dc8481e	0.0977938
139	0x3dcb59fb	0.09929272
140	0x3b3b45ce	0.0028575542
141	0x3db1f88b	0.08689984
142	0xbc055e83	-0.008140209
143	0x3d2e490d	0.042550135
144	0x3d0a3d92	0.033750124
145	0xbdc36610	-0.09540951
146	0x3cf12040	0.029434323
147	0x3d365bc8	0.044521123
148	0xbdb1b7e5	-0.08677653
149	0x3d8e40ff	0.06945991
150	0xbd8e0c97	-0.06935995
151	0x3dcd4e6d	0.10024724
152	0x3dc01261	0.093785055
153	0x3ab23d23	0.0013598542
154	0x3c96ef4f	0.018424658
155	0x3de00958	0.10939282
156	0x3d4b8241	0.049684767
157	0xbc007114	-0.00783946
158	0xbc52c00d	-0.012863171
159	0xbd2aca9a	-0.041697122
160	0xbdba3e49	-0.09093911
161	0x3dd1fb9d	0.102530695
162	0xbd8057d3	-0.06266751
163	0x3d56ccb9	0.052441332
164	0x3dc35bf5	0.09539024
165	0x3b794f7d	0.0038041763
166	0xbd886a00	-0.06660843
167	0xbd9dcd82	-0.07705213
168	0x3d111e1d	0.03542911
169	0xbd376bde	-0.044780605
170	0xbd811fa5	-0.06304864
171	0x3d8af901	0.06785775
172	0xbc84a605	-0.016192446
173	0x3d1e1d83	0.038602363
174	0xbb111527	-0.0022137852
175	0x3c578b20	0.013155729
176	0x3da73bea	0.081657246
177	0x3d89e5f2	0.06733312
178	0xbd66191c	-0.05617629
179	0xbd5cdebd	-0.053923357
180	0xbc7b4c4a	-0.015338013
181	0x3de8f623	0.11375072
182	0x3d4dcb02	0.05024243
183	0xbcb1eb72	-0.021718714
184	0x3cdbce5b	0.026831796
185	0x3cc08066	0.023498725
186	0x3e010165	0.12598188
187	0x3d7266b3	0.059179973
188	0x3dee4bf1	0.116355784
189	0x3cb9d9c5	0.022686848
190	0xbd8588be	-0.06520222
191	0x3dc493bf	0.09598493
192	0xbd998c5b	-0.07497474
193	0xbd4187f5	-0.0472488
194	0xbdb22fd4	-0.08700529
195	0xbd6ffc80	-0.058590412
196	0x3d515934	0.05111046
197	0xbdc9ca10	-0.098529935
198	0xbd8f00cd	-0.069825746
199	0xbde6d868	-0.11271745
200	0xbd3e3595	-0.04643782
201	0x3acfaa25	0.0015843554
202	0xbd0e51e7	-0.034746077
203	0x3d0d8ac5	0.03455617
204	0x3de10ea2	0.10989119
205	0x3da1127e	0.07864855
206	0xbb8fd213	-0.0043890565
207	0x3ddfbc3f	0.10924577
208	0x3c5b68bc	0.01339167
209	0x3dcae8e5	0.09907702
210	0xbdd7160e	-0.105022535
211	0x3d25d042	0.040481813
212	0x3cad328b	0.021142265
213	0xbcbe6acc	-0.023244284
214	0xbd3f7a09	-0.04674724
215	0xbd908bb5	-0.07057897
216	0xbd87e08d	-0.066346265
217	0xbdebf6c1	-0.11521674
218	0xbdb96404	-0.090522796
219	0x3be9d438	0.007135894
220	0xbdc75c67	-0.09734421
221	0x3c15a13a	0.009132678
222	0xbd452bc1	-0.04813743
223	0x3bf80ece	0.007570124
224	0x3ddc1172	0.10745515
225	0xbe0309e6	-0.12796745
226	0xbda9e7b4	-0.08296147
227	0xbd00778a	-0.031364
228	0xbc30a2a9	-0.010780969
229	0x3d6ed8b4	0.058312133
230	0xbb591555	-0.0033124287
231	0x3e02c536	0.12770543
232	0xbe0e76e2	-0.13912538
233	0xbdb15d73	-0.08660402
234	0xbd4492ed	-0.04799168
235	0xbdd99a91	-0.10625184
236	0xbda317b8	-0.07963508
237	0xbd1eb5de	-0.03874766
238	0xbcf1e8f9	-0.029530035
239	0x3b93476c	0.004494598
240	0xbddfcd13	-0.10927787
241	0xbdbf066c	-0.09327397
242	0xbda6b918	-0.081407726
243	0xbd591dcc	-0.053006932
244	0xbd02dacf	-0.031946953
245	0x3d498140	0.049195528
246	0xbddda956	-0.10823314
247	0xbd47cea6	-0.04878106
248	0x3db6d3ae	0.089270934
249	0xbdbc296d	-0.09187589
250	0xbd8de776	-0.06928913
251	0xbdc91f2d	-0.098203994
252	0x3d2f397c	0.04277943
253	0x3d2b5371	0.041827623
254	0xbd39f81d	-0.045402635
255	0x3c617032	0.01375966

residual_predictor.0.bias f4 [32]
0	0xbdb255be	-0.0870776
1	0x3de63ceb	0.11242088
2	0xbd588b87	-0.05286744
3	0x3dd15ef9	0.10223193
4	0x3dedd90a	0.116136625
5	0xbc8981d5	-0.016785542
6	0x3c8b3a8b	0.016995689
7	0xbe0809fa	-0.13285056
8	0xbb8be460	-0.004269168
9	0xbd9ff2f9	-0.07810015
10	0xbdc76d04	-0.0973759
11	0xbc62936a	-0.013829092
12	0xbd87a691	-0.06623567
13	0x3cc44bb4	0.02396188
14	0x3dda7f2a	0.10668786
15	0x3d9f298c	0.07771596
16	0x3d68489d	0.056709874
17	0x3e1a947a	0.15095702
18	0x3e140f71	0.14459015
19	0xbdb2ec54	-0.08736482
20	0xbd591e1a	-0.053007223
21	0xbdd02f99	-0.101653285
22	0xbd124ad7	-0.035715904
23	0x3c88d452	0.016702805
24	0x3db4370f	0.08799564
25	0x3cd60745	0.026126513
26	0x3c7eded1	0.015556053
27	0x3dd35672	0.103192225
28	0x3caed009	0.021339433
29	0x3da9318d	0.08261404
30	0x3e1a71e1	0.15082504
31	0x39174a95	0.00014428266

residual_predictor.1.weight f4 [32]
0	0x3f68786c	0.9080875
1	0x3f6a26e3	0.91465586
2	0x3f69a66f	0.9126958
3	0x3f6a82fb	0.9160611
4	0x3f6b424b	0.9189803
5	0x3f6c8edb	0.9240548
6	0x3f6a6679	0.9156261
7	0x3f72b717	0.9481062
8	0x3f6739d1	0.90322596
9	0x3f72995a	0.94765246
10	0x3f69f609	0.91391045
11	0x3f696bbe	0.91180027
12	0x3f722503	0.94587725
13	0x3f6a39f5	0.91494685
14	0x3f6b2b84	0.91863275
15	0x3f6a00da	0.9140755
16	0x3f6a154d	0.9143875
17	0x3f6a9017	0.91626114
18	0x3f6ae391	0.9175349
19	0x3f6a703e	0.9157752
20	0x3f6c309e	0.92261684
21	0x3f6f236f	0.9341344
22	0x3f6a63ac	0.9155834
23	0x3f6a9f7a	0.9164959
24	0x3f699ea0	0.9125767
25	0x3f6a2781	0.9146653
26	0x3f68804f	0.90820783
27	0x3f706b68	0.9391389
28	0x3f6b2c1d	0.91864187
29	0x3f69fc71	0.9140082
30	0x3f6c15f6	0.9222101
31	0x3f6a41b9	0.91506535

residual_predictor.1.bias f4 [32]
0	0xbd528e80	-0.05140543
1	0xbc7dea0b	-0.015497695
2	0xbcfad624	-0.030619688
3	0xbc8ec621	-0.01742846
4	0xbca24560	-0.019808471
5	0xbd2921b8	-0.041291922
6	0xbce88738	-0.02838479
7	0xba1168e7	-0.00055469427
8	0xbcf85760	-0.030315101
9	0x3d291884	0.041283146
10	0xbd43e882	-0.04782916
11	0xbd1c8bd6	-0.038219295
12	0xbbb9fe16	-0.0056760414
13	0xbd6dac5e	-0.05802571
14	0xbccd82d6	-0.025086801
15	0xbd607d9a	-0.054807283
16	0xbd0a40aa	-0.033753075
17	0xbcc311a5	-0.023812125
18	0xbcd39725	-0.025828907
19	0xbd18d3a7	-0.037311222
20	0xbc27cb7b	-0.010241385
21	0xbcbbf132	-0.02294216
22	0xbce38e67	-0.027777864
23	0xbd2dccac	-0.04243152
24	0xbc9c19db	-0.019055298
25	0xbcc881f3	-0.024476027
26	0xbd02dd19	-0.031949136
27	0xbc72f630	-0.0148292035
28	0xbc1f4028	-0.009719886
29	0xbc87bf65	-0.016570756
30	0xbc2fa484	-0.010720376
31	0xbc75b60d	-0.014997018

residual_predictor.4.weight f4 [1, 32]
0	0xbdc9af17	-0.09847849
1	0x39f6b29e	0.00047053857
2	0x3bd1d768	0.0064038523
3	0x3d9d11c8	0.07669407
4	0x3b9a25af	0.0047041993
5	0xbd5d0a89	-0.053965125
6	0x3b77e7ed	0.0037827448
7	0xbcb3082b	-0.02185448
8	0x3ad0241f	0.0015879906
9	0x3ce15a44	0.027508862
10	0xbdbe8a5a	-0.09303732
11	0x3c2bdd7f	0.0104898205
12	0xbd3e77d8	-0.04650101
13	0xbdf41ead	-0.119199134
14	0x3d3562a1	0.044283513
15	0xbda29eb4	-0.079404265
16	0xbd0a26bc	-0.033728346
17	0x3b237db4	0.002494675
18	0x3a52f4c7	0.0008047339
19	0xbc7047cc	-0.014665555
20	0x3dadcd72	0.08486451
21	0xbcd2a6a9	-0.025714235
22	0x3d55e156	0.05221685
23	0xbbc0e428	-0.0058865733
24	0x3d9159e1	0.07097221
25	0xb89d7efa	-7.5099946e-05
26	0x3d6aaaec	0.05729191
27	0xbde1e444	-0.11029866
28	0x3c8a41d0	0.016877085
29	0x3b34d251	0.0027591179
30	0x3a2457ff	0.0006269216
31	0x3c44b61c	0.012006309
