models/nn_model.pth (torch, 9170 bytes, 5 tensors)

fc1.weight f4 [32, 33]
0.0355166 0.022973618 0.14894931 0.08151681 0.08307511 0.05393129 0.05276825 0.19348603
0.13856757 0.089395076 -0.029044371 0.17423835 0.14686984 0.24126314 0.11972292 -0.062341593
0.14730048 -0.06926821 -0.10948262 0.012053103 0.0024990134 -0.017363163 -0.08223177 0.17475799
-0.0365553 0.10820851 0.048524868 0.1189641 -0.16085714 0.08932222 0.010085661 0.1746976
0.035554644 0.010617693 0.046533782 0.061522927 0.007982422 -0.11386151 0.08050316 -0.083950534
0.23003182 0.08645803 0.045317788 -0.055797834 0.041388344 -0.001846762 0.1829677 -0.10897379
-0.00093956053 -0.10969055 -0.04231769 0.06570021 0.006001652 0.027138881 0.15048243 -0.0462267
-0.028728895 0.19984168 -0.018219072 0.14393948 -0.08814105 0.17154373 0.14378555 0.1702371
-0.052065182 0.19294047 0.10072647 -0.12352437 0.109689616 -0.01086423 0.049159445 0.075896405
0.07263804 0.21642417 -0.09894655 0.041836914 0.09228471 0.17254794 -0.0501463 0.0836923
0.037428096 0.09432953 0.029319772 0.0018230386 0.12870654 0.061964586 -0.04684476 0.019882288
0.015059375 -0.15219074 -0.035953682 -0.1663315 0.08875513 0.06385493 0.004538948 0.09257251
0.102746524 0.18702784 0.12845667 -0.031750463 -0.08842508 -0.10507189 -0.10943969 0.0721434
0.14924107 -0.049095977 -0.12798853 0.15158407 0.060567398 -0.17407121 0.007887207 -0.06700655
-0.08832456 0.15988375 0.07698308 0.0828548 -0.113255486 -0.1703144 0.0065477164 0.0756112
-0.14789397 -0.015132823 -0.3038515 -0.18186055 0.21062003 -0.1332489 0.10390751 -0.022424063
-0.046339396 -0.11854563 0.0032184352 -0.069150075 -0.097586885 -0.121578954 -0.010213828 -0.07753462
-0.08368627 0.004040388 0.13687542 0.025177702 -0.004561753 -0.10605966 -0.01664318 -0.23922881
-0.22894935 -0.015970774 -0.19008179 -0.13979241 -0.19033343 0.069357626 -0.20631373 -0.041489158
-0.13746549 0.030225322 0.10271314 -0.13427846 0.08470375 -0.06016937 0.083488554 0.01939288
-0.11262054 -0.19207402 0.06144693 0.05694941 -0.02236213 0.036692183 -0.058003787 -0.036413625
0.04542964 -0.093199864 -0.011868668 -0.020394985 -0.31834236 -0.016710056 -0.097846806 -0.012170219
-0.03503801 -0.0883122 -0.018069157 -0.190239 -0.11672187 0.056908842 -0.003777361 0.07627618
-0.036405757 0.0332001 -0.087590285 0.13809514 -0.022687962 0.04779187 0.0038777732 -0.22320533
-0.069039315 -0.020672219 -0.014513018 -0.06792857 -0.14409937 0.0007584526 0.13132045 -0.18665555
0.11340042 0.18116926 0.10990328 0.014420084 0.10997376 0.09423174 -0.13613214 -0.024641404
-0.115101956 -0.11481314 -0.035541896 -0.13384385 0.103015736 0.12114653 0.18218854 -0.15288247
0.15388435 0.08224038 0.13939887 -0.10497586 -0.09235312 0.1317106 0.14312458 -0.16692854
-0.011135687 0.17550732 -0.0681664 -0.08437875 0.074177615 -0.08131616 -0.15769358 -0.061605077
0.06870906 0.12487377 -0.16056143 0.013794717 0.1013393 -0.025677765 -0.1808606 -0.15556648
-0.0053054746 -0.17110646 0.008403442 -0.19867139 0.063072905 0.08616293 -0.12173432 0.011483503
-0.0006799597 -0.14070427 -0.20168766 -0.12643158 -0.18812598 0.04151748 0.027328705 -0.14002927
00000000: db79 113d 2b33 bc3c 2b86 183e 49f2 a63d
00000010: 4923 aa3d 0ee7 5c3d 8523 583d 3421 463e
00000020: a8e4 0d3e c414 b73d 76ee edbc 8a6b 323e
00000030: 0c65 163e af0d 773e 4a31 f53d e659 7fbd
00000040: f0d5 163e 7edc 8dbd 6d38 e0bd 617a 453c
00000050: 7dc6 233b 313d 8ebc 2169 a8bd c2f3 323e
00000060: 03bb 15bd 6c9c dd3d 03c2 463d 73a3 f33d
00000070: bcb7 24be 91ee b63d 543e 253c ede3 323e
00000080: bfa1 113d d5f5 2d3c 359a 3e3d 77ff 7b3d
00000090: b4c8 023c 3930 e9bd d7de a43d 42ee abbd
000000a0: 768d 6b3e e810 b13d 259f 393d 458c 64bd
000000b0: d386 293d 0d0f f2ba e25b 3b3e a72d dfbd
000000c0: d74c 76ba 70a5 e0bd 5055 2dbd d58d 863d
000000d0: 82a9 c43b 5c52 de3c 1118 1a3e 3558 3dbd
000000e0: dc58 ebbc 4ca3 4c3e 2a40 95bc df64 133e
000000f0: 4b83 b4bd 29a9 2f3e 853c 133e a252 2e3e
00000100: 4d42 55bd 3092 453e ae49 ce3d 58fa fcbd
00000110: f3a4 e03d e2ff 31bc 6a5b 493d 936f 9b3d
00000120: 41c3 943d 4c9e 5d3e 7da4 cabd 2f5d 2b3d
00000130: c4ff bc3d 68b0 303e 3566 4dbd de66 ab3d
00000140: 344e 193d d72f c13d 0530 f03c 06f3 ee3a
00000150: a6cb 033e 94ce 7d3d 4be0 3fbd 2ee0 a23c
00000160: 99bb 763c e4d7 1bbe 2b44 13bd ce52 2abe
00000170: 40c5 b53d 60c6 823d 75bb 943b a896 bd3d
00000180: c56c d23d 3a84 3f3e 258a 033e c60c 02bd
00000190: 3518 b5bd ee2f d7bd eb21 e0bd ebbf 933d
000001a0: a7d2 183e dd18 49bd 6d0f 03be db38 1b3e
000001b0: 8515 783d b93f 32be 5839 013c bb3a 89bd
000001c0: 82e3 b4bd 91b8 233e 4ea9 9d3d c7af a93d
000001d0: 7ef2 e7bd e666 2ebe 3a8e d63b 0bda 9a3d
000001e0: 8471 17be a9ef 77bc 6c92 9bbe a739 3abe
000001f0: c7ac 573e 6672 08be 76cd d43d abb2 b7bc
00000200: 61ce 3dbd 0dc8 f2bd 62ec 523b 8e9e 8dbd
00000210: a2db c7bd 63fe f8bd e657 27bc 79ca 9ebd
00000220: b563 abbd 3b65 843b 1229 0c3e 7841 ce3c
00000230: c27a 95bb cf35 d9bd 4757 88bc 66f8 74be
00000240: b371 6abe 24d5 82bc cda4 42be be25 0fbe
00000250: c4e6 42be 5f0b 8e3d e843 53be 89f0 29bd
00000260: c1c3 0cbe 189b f73c 445b d23d 4b80 09be
00000270: 2979 ad3d 2874 76bd 0cfc aa3d d1dd 9e3c
00000280: 99a5 e6bd 0daf 44be c7af 7b3d c943 693d
00000290: c930 b7bc 8b4a 163d 6195 6dbd 7426 15bd
000002a0: 6e14 3a3d 92df bebd cd74 42bc 6213 a7bc
000002b0: c5fd a2be 87e3 88bc e863 c8bd 9965 47bc
000002c0: 0484 0fbd 07dd b4bd c505 94bc 03ce 42be
000002d0: e00b efbd 3f19 693d 9a8d 77bb b036 9c3d
000002e0: 341e 15bd d4fc 073d 8962 b3bd d068 0d3e
000002f0: 1bdc b9bc 68c1 433d 3d22 7e3b f08f 64be
00000300: 7c64 8dbd c958 a9bc 02c8 6dbc 221e 8bbd
00000310: c98e 13be e4d2 463a de78 063e a222 3fbe
00000320: 7b3e e83d 6f84 393e f914 e13d 3742 6c3c
00000330: ec39 e13d 92fc c03d 3966 0bbe c5dc c9bc
00000340: 93ba ebbd 2723 ebbd 6194 11bd 5d0e 09be
00000350: eaf9 d23d ac1b f83d a28f 3a3e 398d 1cbe
00000360: dc93 1d3e a56d a83d 94be 0e3e 95fd d6bd
00000370: a223 bdbd 25df 063e 408f 123e 51ef 2abe
00000380: 7572 36bc 31b8 333e d39a 8bbd c4ce acbd
00000390: 6fea 973d 1689 a6bd 6d7a 21be 9b55 7cbd
000003a0: 56b7 8c3d d2bd ff3d 376a 24be 3d03 623c
000003b0: fb8a cf3d 2d5a d2bc 8533 39be d24c 1fbe
000003c0: 8cd9 adbb 8836 2fbe 97ae 093c 8370 4bbe
000003d0: 5e2c 813d 3176 b03d d84f f9bd 4d25 3c3c
000003e0: 533f 32ba c814 10be 3687 4ebe 4877 01be
000003f0: 19a4 40be 3c0e 2a3d 73e0 df3c d563 0fbe

fc1.bias f4 [32]
0.07747987 -0.10094404 -0.056619186 0.046008833 -0.16400643 0.02224253 -0.1431749 -0.009201202
-0.23040147 0.09165921 -0.014023699 0.025896484 0.064373754 0.12626973 0.08872557 0.07525998
-0.08361675 -0.18088147 -0.12691887 -0.1363663 -0.0072023757 0.04264103 -0.07896009 -0.030480508
-0.1715307 0.0227109 -0.122113794 -0.024224807 0.010432822 -0.025324328 -0.1844181 -0.018127121
00000000: c4ad 9e3d c0bb cebd 85e9 67bd c273 3c3d
00000010: 4df1 27be f735 b63c 719c 12be a3c0 16bc
00000020: 5dee 6bbe d3b7 bb3d a8c3 65bc dd24 d43c
00000030: 63d6 833d da4c 013e c0b5 b53d e821 9a3d
00000040: 423f abbd fe38 39be 05f7 01be 9ba3 0bbe
00000050: e801 ecbb 5ca8 2e3d d4b5 a1bd 42b2 f9bc
00000060: bea5 2fbe 360c ba3c cc16 fabd 1a73 c6bc
00000070: 6dee 2a3c f774 cfbc 19d8 3cbe 547f 94bc

fc2.weight f4 [16, 32]
-0.10166614 -0.07871035 -0.08630608 -0.035528164 0.11935256 -0.09996016 -0.07671505 -0.04705266
-0.07180396 -0.11292239 -0.00041169388 0.10021169 -0.1475448 0.097581364 -0.10403799 0.06286408
-0.0052017327 -0.15349956 0.078352176 0.08361168 0.06956172 -0.118702374 -0.14625584 0.071180165
-0.09195474 0.10194752 -0.05686244 0.13467607 0.13856578 0.040062428 -0.08179658 -0.026821425
0.07465256 -0.18504596 -0.08046813 0.11400808 -0.09820124 -0.068480775 -0.028810184 -0.1766817
-0.033898402 -0.15038323 0.028919905 -0.12178001 0.0064877756 -0.007571079 -0.029784083 -0.17866445
-0.06908321 -0.07922667 -0.040458206 0.051229473 -0.08367982 0.14080155 -0.17026094 0.096758395
0.07316112 0.15897584 0.12101236 -0.17894818 -0.15139487 -0.14804809 0.025175394 -0.13208772
0.16373527 0.16740932 0.091433175 -0.13350531 -0.09069213 -0.12946007 -0.10009532 -0.034770206
0.19757994 -0.15572914 -0.053176183 0.04786121 0.10685178 -0.18289159 0.091248676 -0.15982321
0.048756994 0.029705914 -0.23539194 0.016431939 -0.13470815 0.072933495 0.12958582 0.07295708
0.070461236 -0.16560054 -0.01983575 0.11466361 0.098062456 0.19797221 0.14706229 -0.15340596
-0.07925009 -0.22027816 -0.10611025 -0.067457095 0.076554455 -0.08734314 -0.059253935 -0.010409712
-0.059114043 0.1928642 0.22427039 0.092839845 0.104339376 0.1467641 0.09671004 -0.114127085
-0.12141071 0.06604012 0.06664721 -0.09148592 0.24506827 0.010854786 -0.0021480378 0.13451634
-0.16549917 0.1887484 -0.11461901 0.07903125 -0.14226761 0.10611777 -0.09687161 0.12290728
-0.01912779 -0.05626265 -0.12621678 -0.023700569 -0.017138036 0.11122173 0.11232224 -0.08618522
-0.09457175 0.12477984 0.19120936 0.11660434 0.016709775 0.1296083 -0.16426952 -0.009419245
-0.15361808 -0.081201136 -0.021663764 0.089521326 -0.04110412 -0.03040975 0.07904236 -0.10452781
-0.09992903 0.055902332 0.07378647 -0.04215575 -0.040088233 0.046885245 -0.17773958 0.12904592
0.06767091 -0.10046073 0.20625742 0.014082535 0.08444318 -0.13238086 -0.07426482 -0.164079
0.04801231 0.07785979 0.041451447 -0.25746536 0.17140055 0.013138692 -0.049214378 0.053931955
0.083574824 -0.06721289 -0.04807102 0.06102269 0.07010817 -0.07508676 0.16121227 -0.21665816
-0.04827363 -0.06887393 0.1915533 -0.027607432 0.0047770003 0.024132133 0.16224776 -0.09471712
-0.053262144 0.11125607 -0.05471049 -0.20215365 0.009493869 0.06418376 -0.18448547 -0.019238923
0.113989465 -0.14912742 0.015126471 -0.06160155 0.15944596 -0.15363233 0.14074129 -0.08776429
0.15764791 -0.16065231 0.051273793 -0.089760214 0.015535598 -0.06503344 0.005584695 -0.13294053
0.1561373 0.043478634 0.1740032 0.14306733 0.07578682 0.062563725 0.07402357 -0.03150553
-0.095187955 0.0056242426 -0.047212932 0.009753224 0.15789361 0.083229266 -0.11435476 0.118204884
0.10118807 -0.04684362 -0.0716238 -0.031820733 0.04713907 0.116832145 -0.107335486 0.16162564
0.028212788 0.12750831 -0.22319657 -0.07733426 0.084753275 -0.19599232 -0.18413512 0.12355397
-0.20000589 0.10684394 -0.009556541 0.0014294066 -0.08621207 -0.10113863 0.059107322 -0.14833203
00000000: 5636 d0bd e432 a1bd 3ec1 b0bd fb85 11bd
00000010: 1d6f f43d eab7 ccbd c81c 9dbd 4aba 40bd
00000020: f40d 93bd db43 e7bd 9ed8 d7b9 c93b cd3d
00000030: fc15 17be bdd8 c73d df11 d5bd e2be 803d
00000040: 4c73 aabb fd2e 1dbe 1b77 a03d 9a3c ab3d
00000050: 6076 8e3d 3b1a f3bd 17c4 15be e8c6 913d
00000060: c452 bcbd ddc9 d03d 97e8 68bd 86e8 093e
00000070: 30e4 0d3e 8018 243d f784 a7bd 9bb8 dbbc
00000080: 71e3 983d b07c 3dbe 7acc a4bd 117d e93d
00000090: bb1d c9bd a63f 8cbd 5603 ecbc 0cec 34be
000000a0: 0dd9 0abd 10fe 19be 70e9 ec3c cc67 f9bd
000000b0: 6897 d43b d016 f8bb c0fd f3bc d0f3 36be
000000c0: 7f7b 8dbd 9841 a2bd 81b7 25bd ffd5 513d
000000d0: 5360 abbd 482e 103e e258 2ebe 4429 c63d
000000e0: 7fd5 953d 90ca 223e 54d5 f73d 313e 37be
000000f0: 4207 1bbe eb99 17be a13c ce3c 0142 07be
00000100: 38aa 273e 596d 2b3e 5141 bb3d 9eb5 08be
00000110: ccbc b9bd 2e91 04be c6fe ccbd 346b 0ebd
00000120: 6552 4a3e 7677 1fbe 45cf 59bd 1e0a 443d
00000130: 1bd5 da3d ef47 3bbe 96e0 ba3d b2a8 23be
00000140: 6ab5 473d d159 f33c 960a 71be 469c 863c
00000150: eff0 09be 285e 953d 25b2 043e 866a 953d
00000160: fb4d 903d 3093 29be 957e a2bc c1d4 ea3d
00000170: f8d4 c83d 3ab9 4a3e 7f97 163e 7416 1dbe
00000180: df4d a2bd 9990 61be 5550 d9bd f226 8abd
00000190: 95c8 9c3d f6e0 b2bd 41b4 72bd 7f8d 2abc
000001a0: 9121 72bd 317e 453e 23a7 653e d122 be3d
000001b0: e2af d53d 5449 163e ea0f c63d 76bb e9bd
000001c0: 2ea6 f8bd 0b40 873d 557e 883d f85c bbbd
000001d0: 2df3 7a3e 46d8 313c 18c6 0cbb a7be 093e
000001e0: 9d78 29be 4347 413e 5fbd eabd 23db a13d
000001f0: 9aae 11be 4654 d93d 9f64 c6bd d0b6 fb3d
00000200: e2b1 9cbc aa73 66bd f93e 01be b227 c2bc
00000210: 1165 8cbc 38c8 e33d 3409 e63d e081 b0bd
00000220: d5ae c1bd 938c ff3d 63cc 433e 42ce ee3d
00000230: f0e2 883c 0ab8 043e 4536 28be 2d53 1abc
00000240: 0f4e 1dbe c84c a6bd 3578 b1bc f556 b73d
00000250: cb5c 28bd de1d f9bc f6e0 a13d ad12 d6bd
00000260: 97a7 ccbd d8f9 643d 5c1d 973d 82ab 2cbd
00000270: 8f33 24bd be0a 403d 5d01 36be 9d24 043e
00000280: 0c97 8a3d 5bbe cdbd 2535 533e 6fba 663c
00000290: 8cf0 ac3d d98e 07be 2718 98bd 5304 28be
000002a0: 8ea8 443d f474 9f3d fec8 293d 80d2 83be
000002b0: a083 2f3e ab43 573c 0495 49bd c1e7 5c3d
000002c0: 4729 ab3d e9a6 89bd 1ee6 44bd eef2 793d
000002d0: df94 8f3d 16c7 99bd d414 253e a3db 5dbe
000002e0: 92ba 45bd c60d 8dbd 8c26 443e fb28 e2bc
000002f0: 6288 9c3b c0b0 c53c 4724 263e 0dfb c1bd
00000300: 6829 5abd 39da e33d 1b18 60bd 5e01 4fbe
00000310: 2c8c 1b3c c672 833d c2e9 3cbe f29a 9dbc
00000320: 4f73 e93d dcb4 18be 05d5 773c e851 7cbd
00000330: cd45 233e cb51 1dbe 7c1e 103e c4bd b3bd
00000340: 746e 213e 0a82 24be 7804 523d 34d4 b7bd
00000350: 0589 7e3c 4130 85bd d1ff b63b 9021 08be
00000360: 75e2 1f3e a716 323d e52d 323e 3e80 123e
00000370: 1f36 9b3d 6921 803d ab99 973d f10b 01bd
00000380: e7f1 c2bd 914b b83b 5962 41bd fdcb 1f3c
00000390: ddae 213e 1b74 aa3d d432 eabd 6715 f23d
000003a0: b13b cf3d 18df 3fbd 80af 92bd 7556 02bd
000003b0: e614 413d b145 ef3d b5d2 dbbd 3181 253e
000003c0: 811e e73c 8a91 023e a48d 64be 6d61 9ebd
000003d0: 2093 ad3d 36b2 48be eb8d 3cbe dd09 fd3d
000003e0: 58ce 4cbe ffd0 da3d 0a93 1cbc ed5a bb3a
000003f0: f48f b0bd c521 cfbd 851a 723d 5ae4 17be

fc2.bias f4 [16]
0.16439755 -0.10966149 -0.020027988 0.10452348 0.14761047 -0.09011971 0.019532112 0.15921268
0.049417872 -0.027948737 0.1670606 0.22175343 -0.14446014 0.09974469 -0.06770906 0.013189346
00000000: d557 283e 3496 e0bd bc11 a4bc 6810 d63d
00000010: 3327 173e af90 b8bd cf01 a03c a608 233e
00000020: 656a 4a3d c0f4 e4bc ef11 2b3e 5513 633e
00000030: 5ced 13be f246 cc3d 0cab 8abd 2018 583c

fc3.weight f4 [1, 16]
-0.17513238 -0.03829873 0.20601346 -0.082189076 -0.13344705 0.24736881 0.23768422 -0.14053553
-0.2084225 0.12588674 -0.25241023 0.12391491 0.18147083 0.23934984 -0.14707254 -0.22550379
00000000: e755 33be 21df 1cbd 31f5 523e bf52 a8bd
00000010: 58a6 08be 404e 7d3e 7e63 733e 8ce8 0fbe
00000020: b56c 55be 74e8 003e ea3b 81be 1ac7 fd3d
00000030: 7dd3 393e 2018 753e 2f9a 16be 77ea 66be
