models/nn_model.pth (torch, 20050 bytes, 5 tensors)

fc1.weight f4 [64, 34]
00000000: 98ca 783d 0d8c a7bd b84b 0c3e 9a72 d3bd
00000010: 16f4 3eba 5029 5b3d 64b1 113e 9004 393d
00000020: a956 d53d 6a73 6c3d 9d77 14be 7b32 a5bc
00000030: 7a1f d13b d4b2 f8bd 2606 483d 3c73 cb3d
00000040: 7781 28be aac6 9f3d 18a3 83bb ad0f fabc
00000050: 3f01 3e3d 2901 323d 66de 08be 3ba6 0dbe
00000060: f587 3dbe 72b1 c7bd 5471 f93d ebca efbd
00000070: faab 0ebe 2bce 2dbe c030 36bd 00e3 3f3e
00000080: f346 833d 949a e73d fb4c 5f3d 3519 a4bd
00000090: 6d6b 6f3d 23d0 223e 9f66 d73d a32d a1bd
000000a0: d033 84bd 662b 7c3d 62ac cf3c ba2a 093e
000000b0: 939a 27bd 46e0 49be fece 5bbe abb5 e2bd
000000c0: 8d18 4ebe 65a7 563e 099c b0bd 1342 0b3d
000000d0: b7e6 97bd eeda 8abd 0ffe c83d 597a debd
000000e0: bc94 47be 4a47 13be 0922 74bd 47ad 88bd
000000f0: 921f 80bb 9aa8 b33d 3650 1cbe c8f8 ffbd
00000100: 23a6 c23d c1f7 b2bd 9456 153e c5fb 5b3d
00000110: 9875 bc3d da93 243e 145b 23bd 3a00 493d
00000120: 4977 2a3c 8db3 acbc 63a0 f23d 4c65 03be
00000130: 8661 153e 9d44 c8ba 8fd2 c23d 75bf b33d
00000140: dea6 083e 235d e63d 668e 273d 095a a1bc
00000150: 019e 80bd f632 7c3c 5c7e 14be 8a22 cf3c
00000160: 64ef b33d db47 403d 98cc 1f3e 0b32 bfbd
00000170: 9040 2d3e 9b79 56bd cda2 ff3d 5fe1 ebbc
00000180: fe17 eabc 8147 153d 89d1 103e 515e 393d
00000190: c5f8 a4bd 6bb2 8b3d bca3 2abc 5773 15bd
000001a0: feda 9dbd b857 023e 8691 bc3d 8ff1 053d
000001b0: 0e9a 8cbc 36d1 8fbd 3538 d33d 8301 e7bd
000001c0: a6f5 95bd 1731 a5bd e118 733d ecc1 1f3e
000001d0: ce10 353e 232d a73d 22e8 4c3d fdba 2fbe
000001e0: f899 da3d aae7 2b3c 749c 4c3d a1e1 52bd
000001f0: 671b a83c 7416 37bd e8bb a8bd 3ee1 213e
00000200: 8609 81bc 7e38 113c da2d 2c3e 6876 7dbd
00000210: ef94 853d 445d 223d c98b 493e 05e3 ec3c
00000220: 13d6 d63d 45f3 82bd 1239 c1bd 8810 603d
00000230: 2113 423d 27bd c8bc 9125 bcbc e5cd f53c
00000240: 2803 b83d 309e e7bd 9c73 cc3d 615f 0e3e
00000250: 9090 aa3d aa96 1e3e 8971 4abc fc1c 9f3d
00000260: a7bd 503d 2eb4 52bd b119 0abe 920d e3bd
00000270: e886 2cbd 3c8e de3d 7ad8 93bb e79d 8ebd
00000280: ba08 a4bc 3cf7 173e 8504 883d 8aea e43d
00000290: e9ba e13d fc8e 20be 8a2e 2abd 0b05 4ebd
000002a0: ebe5 493e 429c 023e 9301 a23d 9e73 c6bd
000002b0: d63f 183b dea3 e03d 1a74 363e 234b 27be
000002c0: 6100 133e 46cf 6c3c 1aa0 73be d025 59be
000002d0: a70e 89bd 7ef5 40be 28e3 8a3b cf2e 45be
000002e0: dc2e 3fbe 2dc4 743d adb9 423c b976 afbc
000002f0: 690a bebd 08d6 8f3d 086d f4bc 825d af3d
00000300: 86f8 9dbd fc74 48bd 7976 1abe 6da1 32be
00000310: 8ea5 f5bd 76bb 63be 2987 803d 2376 0f3e
00000320: 4e74 2a3b 7488 b03d b439 0c3d 7a86 3bbe
00000330: b29a bdbd bcea 943c 90be 59bd 89e8 63bc
00000340: 9e98 df3d 80e0 c7bd d9f2 0f3d 684a 2f3e
00000350: 2d17 c1be f996 ecbd 88b6 783a 66b7 523d
00000360: 9526 9dbc 6674 3dbb 9be2 ca3c 1ed0 403d
00000370: 2260 093e b94c e0bc 9e9e d9bd 4aa4 16be
00000380: 4cc5 203e 58e2 d9bd b30e 6cbe 69b6 17bd
00000390: 0a75 873d daab 12be d3d5 a0bd bc1e 05be
000003a0: 5e54 0c3e 9d2e 77bb 6484 6c3d 9a00 61bd
000003b0: e57d b1bd 0692 1dbe 8bd4 1a3e 2b3f 6ebe
000003c0: 3a2e fe3d 892e 61bd 2501 47bc d1d9 503d
000003d0: 9e95 023d 797d 023e 6c60 29bc 17d2 1b3e
000003e0: a945 f1bd f3b3 c23d 9977 f6bd afb4 4dbe
000003f0: de3f a2bd 013b 7d3c 7e85 aabc 4e50 333e
0.060740083 -0.081810094 0.1370076 -0.10324593 -0.00072842964 0.053506196 0.14227825 0.045170367
0.1041692 0.057727255 -0.14498754 -0.020165673 0.006381926 -0.12143484 0.04883399 0.099340886
-0.16455637 0.07801564 -0.004017245 -0.030525053 0.046387907 0.043458138 -0.13366088 -0.13832943
-0.18508895 -0.09750642 0.12179819 -0.117086254 -0.13932791 -0.16973178 -0.044480085 0.18738937
0.06410017 0.1130878 0.054516774 -0.0801262 0.05845206 0.1589971 0.1051762 -0.07870033
-0.06455195 0.061564825 0.025350753 0.13395205 -0.040918898 -0.1971446 -0.2146568 -0.11069807
-0.20126553 0.20962293 -0.08623511 0.03399856 -0.07417052 -0.06780039 0.09814083 -0.1086318
-0.19490331 -0.14382663 -0.05960277 -0.06673675 -0.0039100135 0.087723926 -0.15264973 -0.12498623
0.09504344 -0.087386616 0.14583808 0.053706903 0.09202117 0.16072026 -0.03988178 0.04907248
0.010404416 -0.02108171 0.118469976 -0.1283161 0.14587983 -0.0015279237 0.09512817 0.08776752
0.13344905 0.11248233 0.040907286 -0.019696252 -0.06280137 0.015393009 -0.14501327 0.025285024
0.087858945 0.046943527 0.1560539 -0.09335717 0.1691916 -0.052362066 0.12482224 -0.028793989
-0.028575893 0.036445145 0.14142431 0.045255963 -0.080552615 0.0682114 -0.010415014 -0.03648695
-0.07707785 0.12728775 0.09207444 0.03270107 -0.017163303 -0.07022326 0.10313455 -0.11279585
-0.07322244 -0.08066004 0.0593499 0.15601319 0.17682192 0.08162906 0.050026067 -0.17161174
0.106738985 0.010492245 0.049953893 -0.051484708 0.020520879 -0.044699147 -0.08238965 0.1580858
-0.015751611 0.008863566 0.16814366 -0.0618805 0.065225475 0.039639726 0.1968223 0.028916845
0.1049005 -0.06394056 -0.094347134 0.054703265 0.047381524 -0.024504257 -0.022967132 0.030005405
0.08984977 -0.11309469 0.09982988 0.13903572 0.08328354 0.15487161 -0.01235617 0.077692
0.050962117 -0.051441364 -0.13486363 -0.11086573 -0.042120844 0.10866973 -0.00451189 -0.06963711
-0.020023692 0.14840406 0.06641487 0.11177547 0.110219784 -0.15679544 -0.04154829 -0.050297778
0.19716613 0.1275492 0.079104565 -0.09690021 0.0023231409 0.10968755 0.17817727 -0.16337256
0.14355613 0.014453715 -0.23791543 -0.2120583 -0.06692248 -0.18843648 0.004238505 -0.19256137
-0.18670219 0.0597574 0.011885089 -0.021418916 -0.09279329 0.07023245 -0.029837146 0.08562757
-0.07713418 -0.04893969 -0.15084256 -0.17444392 -0.11994468 -0.2223948 0.0627578 0.1400991
0.0026009264 0.08619776 0.034234717 -0.18313017 -0.092580214 0.018178336 -0.05316025 -0.013910421
0.10917781 -0.09759617 0.035143707 0.17118227 -0.37712994 -0.11552233 0.00094876485 0.051444434
-0.019183436 -0.002890849 0.024766257 0.047073476 0.13415578 -0.027380334 -0.10625957 -0.14711109
0.15700263 -0.10638875 -0.23052482 -0.037039194 0.0661412 -0.14323369 -0.07853284 -0.13000005
0.13704059 -0.0037716993 0.057743445 -0.054932214 -0.086665906 -0.15387735 0.15120141 -0.23266284
0.12411161 -0.05497602 -0.012146269 0.050988976 0.031880967 0.12743177 -0.01033793 0.15216862
-0.11780865 0.09506979 -0.1203453 -0.20088457 -0.07922338 0.015455962 -0.020815607 0.17511103

fc1.bias f4 [64]
00000000: 5dde 2bbe 15ee 273e a3cc 0abe d712 333d
00000010: 8fdb b1bc eec0 a13c c25b 7dbc d550 a6bb
00000020: 03c2 b3bd f10d b2bd a9e4 b23c f9b8 8a3d
00000030: f028 10be fbd0 64be 4c5f e5bd 06e7 013d
00000040: bea6 54bd b5ac 4cbd 959f 73be 13ad ccbd
00000050: b6e5 fa3c a30c 6e39 f3e7 0bbe 4c29 06be
00000060: c06d a7b5 4335 44be 746d e0bc e0c6 97bc
00000070: 6031 c2bd 4c1f 0ebe 97d6 05be 820c b7bd
00000080: 4db4 833d dd5c d63d 8eb7 053e 540c e13d
00000090: 0947 413d c948 d13c 5210 17be 2ba6 c1bd
000000a0: 0125 b2bd 5fcf b3bc e941 b8bc 89db 27be
000000b0: 00dc 87bd bfe4 993c 23ae 60be a70f 74be
000000c0: 916b 933d 8c93 c9bd bb6e 72bd 80b9 733d
000000d0: cb9f 053c 5d6b 4b3d 895b 27be 746a b8bd
000000e0: ab16 8abe dd47 a63d e829 56be 27fa bcbc
000000f0: 527c 14bc e5d4 26be 146f cebd 9fb3 35be
-0.16784044 0.16399415 -0.13554625 0.04371914 -0.021711139 0.019745316 -0.015463771 -0.005075554
-0.08777239 -0.08694065 0.02183755 0.06773562 -0.14078116 -0.22345345 -0.11199817 0.03171446
-0.05191683 -0.049969394 -0.23791344 -0.09993949 0.030627113 0.00022702156 -0.136627 -0.13101691
-1.2474411e-06 -0.19160943 -0.027395941 -0.018527448 -0.09482074 -0.13879126 -0.13070141 -0.089379326
0.06430874 0.10466931 0.13058302 0.109886795 0.047186885 0.025547402 -0.1475232 -0.09455522
-0.08698464 -0.021949468 -0.022492366 -0.1639234 -0.066337585 0.018785832 -0.21941428 -0.23834096
0.07198251 -0.098425955 -0.059187632 0.05950308 0.008155773 0.049662936 -0.16343512 -0.09004679
-0.2697042 0.081191756 -0.20914423 -0.0230685 -0.009062843 -0.1629215 -0.1007978 -0.17744301

fc2.weight f4 [32, 64]
00000000: adc3 efbc 23da 853c 5f2d 12be e221 d3bd
00000010: d4a0 733d a941 c33d a73f cfbc 1c9e 82bb
00000020: 6c4d 20be fa50 d9bc 0246 1ebe 8869 fe3c
00000030: 7e5f 1ebe bf5f 4dbe 6b35 c93d eeba 95bd
00000040: 5191 3ebd 50bd 973d 3174 3b3d a0f0 b43d
00000050: 3b10 81ba 6c22 403d aef5 cabd 5c8f 26be
00000060: d332 9fbd 673a 7b3d 4f94 cabd b95a 953d
00000070: 76b5 c9bc 3bbe 8e3d 00b5 7d3d aa86 193e
00000080: 0177 22bd eb06 5c3d e5e7 233d f2d2 253c
00000090: ec88 bfbd 7f7a 5c3c 4e1c 3cbd 212b babd
000000a0: 971f 26be 7597 51bd 7351 7ebd ea5f 3c3b
000000b0: 9b7a 593c d6de 0e3c e1f7 02be 64de 773d
000000c0: c828 153e b311 bebd 317e f5bd f339 fc3d
000000d0: 3ab0 eb3c 8c20 a73c a0a0 233d a7ec c2bd
000000e0: d352 623c 9315 0c3d eb0a 0b3c 034a 3d3d
000000f0: be9b e43d 44df c3bd 85d5 a4bc 4cfd 37bd
00000100: 57b4 f93d 9523 133d 5885 e3bd c8c8 023d
00000110: e8cb c8bd 5778 973c 6ddd 89bd adb3 d1bc
00000120: 7ec8 3c3c 6a1f 2f3b 5122 8abc af85 983c
00000130: 4e37 6c3d 22bf fcbd af32 c13d f89d 343d
00000140: d02b 99bd 8166 943d af36 4d3d f941 d7bd
00000150: 63ad babd 7ae3 95bc 3986 3cbe 2ea7 fdbc
00000160: a00d 86bd 1c63 803d c63a 423d 9dbb 7abd
00000170: 1a3f dfbd 676a c13d 2247 cc3d e76b dc3d
00000180: 6859 b0bb 38f6 68bc 3a4a babd 1e43 a93d
00000190: 8fdb 0a3d f2d6 e5bd 1dd9 b8bd be5c 9e3c
000001a0: 8682 09be fbe6 9ebd c503 2ebd b3cc c0bc
000001b0: ae20 c13d b1b9 3f3d deb0 03be 2cbe e83c
000001c0: d856 86bb f7db 893d 5167 98bd eaad e23d
000001d0: f5af 8b3d df39 97bd 1c04 c43d 79cc 89bd
000001e0: e77c 4abc 8f92 b73c b707 543d 1c8e 32bd
000001f0: 9707 83bd e1a7 c2bd e8d9 cabd f905 f0bd
00000200: cdd9 df3c 8bb4 fcbd cd62 ce3d 9cb6 fe3d
00000210: 32d4 bb3c 3788 15bd 309b 44bd 0d82 8dbd
00000220: 32fb 7cba 64b2 a73d 8abc e2bc 31df b6bd
00000230: 15e1 f13d a269 98bc 0edc 0d3d 5e1c 163e
00000240: 6fe2 12bd 4446 0bbe 6f3d d6bd dbce 913d
00000250: 9682 ed3d 6bc3 76bc 490c 6c3c e821 0abc
00000260: 0f7d 87bd bbca 1fbe 769d 26bd 8be3 7cbd
00000270: a1bb 8b39 295a 1ebe 86cb 473b 61bc 12be
00000280: 8614 a3bd c330 2a3d 7db7 2ebd 8046 03be
00000290: fbb1 1e3d ac9b 19bd 1852 a13d 2fb6 983d
000002a0: 9f9d 0f3e 4432 0e3e 8f86 f0bb 980b cdbd
000002b0: 1f63 41bd 6955 ebbd 54f6 143e 2875 47bd
000002c0: a82d 95bd 893d bebd bae6 b93d ed6d ab3c
000002d0: 609b 0f3d 8e5a 4ebd 3e04 0e3d d22a 093e
000002e0: 20b2 063e 41f7 64bc 9202 013e d0be b3bd
000002f0: a1f1 a2bd 2037 b3bd b5cf 15be 7a9e 673d
00000300: e0ab a53c 1946 803d 8931 afbd bd15 1d3d
00000310: cb9e bbbd ddd2 133d 7923 8ebd 77c0 7c3d
00000320: ca39 01be 2a9b a3bd b39e 25bc 8d5c 13bd
00000330: d064 08be 8f82 18bd fb44 b93d 07b4 30be
00000340: 7495 bdbd f524 6d3d d0fb 023e 2e2f a93d
00000350: b2fa 55bd 653e f8bd 92d2 31bd 552c 65bd
00000360: 1958 b03c 15a7 5f3d 03c0 de3c aad8 1fbd
00000370: 51c4 ab3c 71fa 63bd 232e d83d 0f29 303e
00000380: 41cf 61bd 3061 a2bc 6b8c 5bbe 6c97 f9bd
00000390: 00df 32bd eebb f4bd 647c 893d c204 a23c
000003a0: 4049 983d e4dc b8bc c2f2 50bd 2f45 fbbd
000003b0: 904f e43d c322 573d 2d2c 10be 24d9 c93b
000003c0: 0e43 653d c6c2 c73c 4242 fbbd 1960 93bd
000003d0: 0a5e 91bc 80b4 3a3d ce5c 77bd 8d4e eabb
000003e0: 02c7 18be 6315 183d 39b2 69bd 9a82 1e3d
000003f0: 53fa df3d 32bb 54bc e953 893d c1db 9abb
-0.02926811 0.016339367 -0.1427512 -0.10309197 0.05947955 0.09534008 -0.025298906 -0.0039861333
-0.15654534 -0.02652787 -0.15456393 0.03105618 -0.15466115 -0.20056055 0.09824642 -0.07311045
-0.046525303 0.07409155 0.045765106 0.08834958 -0.0009846756 0.046907827 -0.09910141 -0.16265625
-0.07773366 0.061334994 -0.09891569 0.072926946 -0.02462266 0.06969877 0.061940193 0.14992777
-0.039664272 0.053717535 0.040016074 0.010121094 -0.09352288 0.01345694 -0.04592543 -0.090902574
-0.16222988 -0.05116983 -0.062089395 0.0028743693 0.01327386 0.00872012 -0.12789871 0.060514823
0.14566338 -0.092807196 -0.1198696 0.123157404 0.028770555 0.020401262 0.039948106 -0.09517794
0.013813692 0.034200262 0.00848649 0.04621316 0.11162518 -0.09564069 -0.020121345 -0.044919297
0.121926 0.035922606 -0.11109418 0.03192976 -0.09804517 0.01849 -0.06731687 -0.025598371
0.01152241 0.0026721605 -0.016862066 0.018618433 0.05766993 -0.12341143 0.09433495 0.044095963
-0.0747906 0.072461136 0.05010098 -0.1051063 -0.09115102 -0.018296946 -0.18410577 -0.030963507
-0.065455675 0.062689036 0.047419332 -0.06121408 -0.109007075 0.09444123 0.09974505 0.10762768
-0.005381752 -0.014218859 -0.09096189 0.08264755 0.033900794 -0.11222638 -0.09025786 0.019331332
-0.13428697 -0.077589 -0.042484064 -0.023535108 0.09430061 0.04680795 -0.12860438 0.028410994
-0.004099708 0.06731408 -0.07441581 0.11068328 0.068206705 -0.07384085 0.09571096 -0.06728453
-0.012358881 0.022408752 0.05176517 -0.043592557 -0.06397932 -0.095046766 -0.099048436 -0.11719889
0.027325535 -0.12339123 0.100774385 0.12437174 0.022928331 -0.036506858 -0.04799956 -0.06909571
-0.0009650468 0.08188322 -0.027677793 -0.08929289 0.11810509 -0.018605057 0.03463369 0.14659259
-0.035860475 -0.13601023 -0.10460936 0.07119533 0.11597173 -0.01506124 0.014407226 -0.008430935
-0.0661565 -0.1560468 -0.04067751 -0.06174044 0.0002665194 -0.15464081 0.00304863 -0.14329673
-0.07962899 0.04155041 -0.042655457 -0.12819862 0.038743954 -0.037501976 0.07876986 0.07456624
0.14024971 0.13886362 -0.0073402594 -0.10011977 -0.04721367 -0.114909 0.14547092 -0.048695713
-0.07284099 -0.09289081 0.09077211 0.02092644 0.035060287 -0.05037933 0.034672014 0.13395241
0.13153887 -0.013974966 0.12598637 -0.08776629 -0.07956243 -0.08750749 -0.14630015 0.05654762
0.020223558 0.0626337 -0.0855437 0.03835081 -0.09161147 0.036089767 -0.069403596 0.061706986
-0.12619701 -0.079885796 -0.010108638 -0.035976935 -0.13319707 -0.037233885 0.0904636 -0.17256175
-0.092570215 0.057896573 0.12791371 0.08260952 -0.052241035 -0.12121276 -0.043413706 -0.05595048
0.021526383 0.0546027 0.027191168 -0.039024986 0.020967634 -0.05565876 0.10555675 0.17203163
-0.055129293 -0.019821733 -0.21440284 -0.121870846 -0.0436697 -0.11949907 0.06713179 0.01977766
0.07435846 -0.022566266 -0.051012762 -0.12269055 0.11147988 0.052523386 -0.14079352 0.0061599184
0.05597215 0.024384867 -0.12268497 -0.071960635 -0.017745037 0.045582294 -0.06039124 -0.0071504773
-0.14919665 0.03712977 -0.057054732 0.03869877 0.109364174 -0.012984084 0.06705458 -0.0047259037

fc2.bias f4 [32]
00000000: f53d 3a3e be6b 9e3d 0243 1a3e 845f f23d
00000010: ffb7 4c3e e251 333e b134 b53d 85ce 063e
00000020: c543 6f3c f0f4 c7bd 7591 253e aee9 7b3d
00000030: 6665 593e ac80 0bbd 2b90 f63d 2360 223e
00000040: 0c5c b83d 9a2b b93d f857 bd3d dcbe 9f3d
00000050: 8b2b 273d c47a 343e 327a 0f3d 9e00 ab3d
00000060: cdd1 343e 7a7b 31bc 15dd f93b 7826 3a3e
00000070: 1329 f23c f1da ba3d 4a33 0b3e 3771 b03d
0.18187697 0.07735394 0.15064624 0.118346244 0.19992064 0.17511705 0.08847941 0.13164718
0.01460356 -0.09763515 0.16168769 0.06150215 0.21230087 -0.034058258 0.120392166 0.15856986
0.090019315 0.090415195 0.09245294 0.078000754 0.04081301 0.17624956 0.035028644 0.08349727
0.17658158 -0.010832662 0.007625232 0.18178737 0.029560601 0.09123791 0.13593784 0.08615344

fc3.weight f4 [1, 32]
00000000: 6245 88bd b59b f5bd 7d80 6e3d cee9 a3bd
00000010: d1e0 81bd 7237 893d dd33 b13d a236 9c3d
00000020: f373 323d 441c afbd c26b 91bd 2c67 77bd
00000030: f5f8 1abe d676 be3d e80a 9ebd e3c8 89bd
00000040: 9ea6 6f3d 65b8 b9bd 9e76 99bd 3d03 f33d
00000050: 8540 be3d 19ec c53d b4eb 2b3d 508a acbd
00000060: 4064 4cbd 68a3 6c3d 776e 823d 48ce 5e3d
00000070: 5f25 953d f828 d3bd 4994 75bd abe3 8e3d
-0.06653859 -0.119925894 0.058228005 -0.08003579 -0.063417085 0.067000285 0.0865247 0.07627608
0.04356761 -0.08550313 -0.07100631 -0.060401127 -0.15134032 0.0930001 -0.07716924 -0.06727769
0.058508508 -0.090683736 -0.074933276 0.11865852 0.0928965 0.09664173 0.04197283 -0.084248185
-0.049900293 0.057773024 0.06368726 0.054395944 0.072825186 -0.103105485 -0.05995587 0.06977018
