models/rolling_nn_model.pth (torch, 271790 bytes, 29 tensors)

feature_extractor.0.weight f4 [128, 34]
0.04410524 -0.0013397391 0.2019416 0.24112931 -0.155807 -0.10317274 -0.02063856 -0.10040179
0.067003034 0.021836054 0.05023573 -0.027033826 -0.048054017 0.08198627 0.21519548 -0.01979993
0.07347826 -0.062853456 0.106726505 -0.006190988 0.015353017 -0.06718666 -0.07459115 -0.055619378
0.17046882 -0.030077297 -0.09362853 0.03873858 0.16996318 0.060045112 -0.09929452 -0.019374458
0.108904794 -0.21356378 -0.11314844 0.05772746 0.10070727 0.06584211 0.0051877787 0.08639459
-0.07774443 0.20118129 0.12867188 0.12834187 0.09176703 0.077214345 0.016773872 0.12403441
0.07225258 -0.034579813 0.14073458 0.029924681 -0.13332018 0.06249176 -0.13743292 0.043654833
0.16202879 0.012077193 0.24753097 0.11390804 -0.08473729 0.16809703 -0.06278109 0.08755658
-0.031577278 -0.027817892 -0.098180704 0.045284785 -0.18443637 -0.09650445 0.15667452 -0.09601591
-0.006098571 -0.13905397 0.13085058 -0.022399453 0.10537965 0.064566426 0.037427504 -0.028451387
0.021426467 0.17471573 -0.16443403 0.111192 0.049402907 0.11042909 0.14452644 0.081317924
-0.035478402 -0.11239893 0.057683337 -0.036474705 0.19413467 0.15590501 -0.06320983 0.21328017
0.05939732 0.054623183 -0.07965507 -0.05821697 0.04991986 -0.0089688245 -0.2533084 0.115822054
0.16680923 0.260769 -0.26380137 0.13657546 0.07287385 0.0028336318 0.023312852 -0.0650661
-0.019183962 0.071618885 0.022491485 -0.1280512 -0.15819195 0.09253711 -0.07981987 -0.08399878
0.1270241 0.07402037 -0.066838756 0.049602747 0.10489623 -0.015922958 0.048305903 -0.18458514
0.09971777 0.16510595 0.08988491 0.15841773 -0.0292328 -0.08331847 -0.11414612 -0.12043779
0.09870906 -0.10614533 0.14311849 0.01245011 -0.07805283 0.11669601 -0.030784732 0.08280665
0.17037487 -0.021357667 0.06683036 0.14466959 -0.03937757 0.16295011 0.03379325 0.066730835
-0.046589732 0.054611586 -0.027795225 0.10998809 0.019712197 0.003867836 0.103175364 0.09834242
0.1079767 0.10224577 -0.01847201 0.16960995 -0.10238793 -0.020478828 0.033401933 0.19675754
-0.058793064 0.14273907 -0.05501796 0.08916952 0.11844652 0.093669854 -0.0085770795 -0.1394866
0.052591246 -0.050157517 0.035068054 0.022265896 0.08649246 -0.07433281 0.1358774 0.085076205
0.05186491 0.11294694 -0.046300698 0.13128825 -0.1054947 0.083436996 0.043810453 -0.0466182
0.11734822 0.023178522 0.22780477 0.11616806 0.02408334 0.0569463 -0.008042321 0.08164578
-0.00985487 0.035657126 0.10561184 0.01262734 -0.103248194 0.114432804 -0.085213505 0.009938889
-0.11016054 -0.13362207 -0.09652873 -0.10453845 0.10950314 -0.21708818 0.011541782 -0.033063233
-0.13863315 0.14653498 0.120420404 0.06150984 0.041745663 0.042245053 0.022677284 0.0028200706
-0.10933318 0.17217904 0.060628984 -0.11372301 0.04223406 -0.027374694 0.06497125 0.03920384
0.04800904 -0.048769537 0.07914709 -0.037971422 0.20016512 0.09892523 0.025277838 0.041550193
-0.06612718 0.31352487 -0.25421154 -0.25226334 -0.08381756 -0.15264146 -0.15653665 0.111360595
0.1506617 0.056815747 0.0013202961 -0.14640453 0.047540948 -0.15274283 0.05317698 0.044020113
00000000: b2a7 343d 2f9a afba c7c9 4e3e 9aea 763e
00000010: df8b 1fbe 3b4c d3bd 3312 a9bc 749f cdbd
00000020: e338 893d 86e1 b23c fbc3 4d3d 0b76 ddbc
00000030: 4ad4 44bd 6be8 a73d 345c 5c3e 7633 a2bc
00000040: c57b 963d 50b9 80bd 6d93 da3d c5dd cabb
00000050: 388b 7b3c 2999 89bd 3fc3 98bd 25d1 63bd
00000060: 618f 2e3e aa64 f6bc 51c0 bfbd 58ac 1e3d
00000070: d40a 2e3e ddf1 753d ed5a cbbd 2fb7 9ebc
00000080: 7a09 df3d 77b0 5abe 5fba e7bd a173 6c3d
00000090: 9d3f ce3d 3ad8 863d 3efe a93b a6ef b03d
000000a0: 7938 9fbd 7802 4e3e 90c2 033e 0d6c 033e
000000b0: 5af0 bb3d 8e22 9e3d 5c69 893c c105 fe3d
000000c0: 29f9 933d 90a3 0dbd ba1c 103e 9b24 f53c
000000d0: 1685 08be 5cf7 7f3d 37bb 0cbe 69cf 323d
000000e0: e0ea 253e 6bdf 453c c278 7d3e 9e48 e93d
000000f0: bf8a adbd a121 2c3e 5f93 80bd dd50 b33d
00000100: 2d57 01bd 59e2 e3bc f712 c9bd 8a7c 393d
00000110: e3dc 3cbe 20a4 c5bd 496f 203e fda3 c4bd
00000120: 85d6 c7bb 2a64 0ebe b2fd 053e 0f7f b7bc
00000130: 49d1 d73d 673b 843d 954d 193d e212 e9bc
00000140: 8f86 af3c aee8 323e 6561 28be a2b8 e33d
00000150: b45a 4a3d a628 e23d bdfe 133e 038a a63d
00000160: cd51 11bd 6931 e6bd 5d45 6c3d 8066 15bd
00000170: 3dcb 463e 90a5 1f3e 2874 81bd 1e66 5a3e
00000180: 9b4a 733d 8fbc 5f3d 3322 a3bd eb74 6ebd
00000190: c478 4c3d faf1 12bc a3b1 81be 1d34 ed3d
000001a0: 0ad0 2a3e 8483 853e f910 87be 70da 0b3e
000001b0: e33e 953d 74b4 393b 98fa be3c 6041 85bd
000001c0: af27 9dbc ecac 923d 1040 b83c db1f 03be
000001d0: 12fd 21be 1984 bd3d 9a78 a3bd 8d07 acbd
000001e0: 9b12 023e fe97 973d c2e2 88bd 402c 4b3d
000001f0: d6d3 d63d dd70 82bc 69dc 453d e303 3dbe
00000200: d538 cc3d 8911 293e 9415 b83d 4238 223e
00000210: a079 efbc e0a2 aabd 71c5 e9bd 17a8 f6bd
00000220: fa27 ca3d b962 d9bd a78d 123e 8cfb 4b3c
00000230: 2ada 9fbd 51fe ee3d 4330 fcbc 8896 a93d
00000240: c076 2e3e 46f6 aebc 5bde 883d 4424 143e
00000250: 604a 21bd 65dc 263e ca6a 0a3d 2daa 883d
00000260: e0d4 3ebd 66b0 5f3d d0b2 e3bc 7041 e13d
00000270: 797b a13c 857b 7d3b 9b4d d33d c067 c93d
00000280: e322 dd3d 3b66 d13d 9d52 97bc 3bae 2d3e
00000290: c3b0 d1bd 37c3 a7bc 77d0 083d cf7a 493e
000002a0: ffd0 70bd 312a 123e 835a 61bd 829e b63d
000002b0: 1794 f23d fbd5 bf3d e186 0cbc 93d5 0ebe
000002c0: eb69 573d f871 4dbd 85a3 0f3d f866 b63c
000002d0: f522 b13d cd3b 98bd 7223 0b3e 6f3c ae3d
000002e0: 4d70 543d ba50 e73d cda5 3dbd 6d70 063e
000002f0: 9b0d d8bd 04e1 aa3d 9772 333d baf2 3ebd
00000300: 4354 f03d e2e0 bd3c a745 693e 85e9 ed3d
00000310: 6d4a c53c 8640 693d f0c3 03bc e735 a73d
00000320: 5276 21bc 350d 123d 054b d83d e7e2 4e3c
00000330: ca73 d3bd bf5b ea3d 6b84 aebd b9d6 223c
00000340: d99b e1bd 39d4 08be dbb0 c5bd 4118 d6bd
00000350: 2f43 e03d 5d4c 5ebe be19 3d3c 506d 07bd
00000360: d9f5 0dbe 440d 163e f99e f63d bef1 7b3d
00000370: 80fd 2a3d 2609 2d3d b6c5 b93c efd0 383b
00000380: 13ea dfbd b44f 303e 1956 783d 9ce7 e8bd
00000390: 9ffd 2c3d e540 e0bc a60f 853d 3594 203d
000003a0: 21a5 443d 91c2 47bd df17 a23d ec87 1bbd
000003b0: 16f8 4c3e 5099 ca3d 7813 cf3c 8930 2a3d
000003c0: b06d 87bd 5586 a03e 0428 82be a928 81be
000003d0: 8aa8 abbd 0b4e 1cbe 254b 20be 0611 e43d
000003e0: 1047 1a3e a1b7 683d c90d ad3a 12eb 15be
000003f0: 4cba 423d 9e68 1cbe 1bd0 593d 6f4e 343d

feature_extractor.0.bias f4 [128]
0.39981094 0.06895812 0.27643856 0.3724602 -0.08003722 -0.3535033 -0.32127523 0.1351096
0.12826957 -0.2312848 -0.21870615 0.32509342 -0.2630489 0.03924995 0.39309394 0.41897467
0.038562316 0.31132126 0.12302671 -0.28737405 0.26912242 0.34089166 -0.32114303 0.06714887
0.17117792 0.09707718 -0.31156313 -0.09365113 0.3258161 0.37318715 -0.103102185 0.36386415
0.26356575 -0.44824374 0.32017818 -0.29426146 -0.23286049 0.1200822 0.12732571 -0.007564429
0.056413125 -0.4351268 -0.12899221 -0.27204263 -0.13454866 0.10140486 -0.39900857 -0.07337198
0.17396265 0.14481834 -0.28879425 -0.254519 0.21144882 0.05188147 -0.32840952 0.2505977
-0.023141598 -0.043596316 0.28033355 -0.14649256 0.016104063 0.05818112 0.28322303 0.11024217
0.33899018 -0.16038057 -0.41736174 0.32979232 -0.18247457 0.17659016 0.42032635 -0.4154622
0.13211058 -0.3375302 0.23635553 -0.37237942 -0.16559497 0.075396664 -0.3577513 -0.33480087
0.060066666 0.15570523 -0.034284428 -0.24929385 0.0010400965 -0.18544696 0.036389295 0.358146
-0.4299512 -0.32329288 0.020328192 -0.40911606 0.2392875 0.22189793 0.08090155 0.15864754
0.28583372 -0.08555069 0.32780892 -0.15608895 0.3736374 -0.3858652 0.19289795 -0.12653136
-0.4492032 0.095786504 0.24650466 -0.32275334 0.19947891 0.26799068 -0.43469024 0.067991465
0.1421594 0.33243638 -0.4305067 -0.010622093 0.3055634 -0.100480355 0.24974568 -0.15531655
-0.1367244 0.09338001 -0.067560956 -0.24218439 -0.044258695 0.099272236 -0.31668192 0.16991544
00000000: 05b4 cc3e ea39 8d3d 5b89 8d3e 1ab3 be3e
00000010: 8eea a3bd 62fe b4be 307e a4be 2c5a 0a3e
00000020: 1959 033e ecd5 6cbe 81f4 5fbe a572 a63e
00000030: 58ae 86be 8ec4 203d 9c43 c93e d983 d63e
00000040: 85f3 1d3d 8065 9f3e 6df5 fb3d b122 93be
00000050: 6aca 893e 5a89 ae3e dc6c a4be 5985 893d
00000060: 4449 2f3e 67d0 c63d 3485 9fbe 2acc bfbd
00000070: 5ed1 a63e 6312 bf3e 3d27 d3bd 674c ba3e
00000080: 17f2 863e 3480 e5be 65ee a33e 70a9 96be
00000090: fb72 6ebe a8ed f53d ac61 023e 08df f7bb
000000a0: 7311 673d f1c8 debe 8916 04be 2c49 8bbe
000000b0: 20c7 09be 5aad cf3d da4a ccbe 0c44 96bd
000000c0: 4423 323e 424b 143e d7dc 93be 5050 82be
000000d0: 0a86 583e aa81 543d 4b25 a8be 574e 803e
000000e0: 7393 bdbc 0d92 32bd e187 8f3e 2502 16be
000000f0: abec 833c 534f 6e3d 9c02 913e a6c6 e13d
00000100: 1f90 ad3e ce3a 24be 70b0 d5be 8ada a83e
00000110: 9dda 3abe 0dd4 343e 0435 d73e 76b7 d4be
00000120: ff47 073e c2d0 acbe 2f07 723e 84a8 bebe
00000130: ba91 29be 9169 9a3d 2e2b b7be 056b abbe
00000140: 7708 763d 3171 1f3e d46d 0cbd e346 7fbe
00000150: d953 883a cfe5 3dbe f10c 153d ea5e b73e
00000160: 9022 dcbe a586 a5be 4f87 a63c a977 d1be
00000170: c807 753e 3639 633e b6af a53d 8074 223e
00000180: cc58 923e 3335 afbd 92d6 a73e c8d5 1fbe
00000190: 674d bf3e 2090 c5be 0a87 453e 7091 01be
000001a0: f6fd e5be b72b c43d b86b 7c3e ed3f a5be
000001b0: 3344 4c3e 1336 893e b88f debe 1c3f 8b3d
000001c0: 3c92 113e 1a35 aa3e 606b dcbe 4a08 2ebc
000001d0: ce72 9c3e a5c8 cdbd 55bd 7f3e 4d0b 1fbe
000001e0: 7b01 0cbe 053e bf3d 665d 8abd 2fff 77be
000001f0: 9b48 35bd 3e4f cb3d 2224 a2be 50fe 2d3e

feature_extractor.1.weight f4 [128]
1.1013803 0.9729844 1.0252583 1.0392059 0.9046723 0.99686354 0.9840237 1.0600959
1.1245509 0.98238593 0.96912825 1.0730056 0.93750036 1.2016729 1.0532175 1.0895946
1.1063905 1.0635626 1.1012306 0.94018656 1.0030075 1.057429 0.9577671 0.98341966
1.0289671 1.0184034 0.94029266 0.9282155 1.0382857 1.0229862 0.90430534 1.0516764
0.9903074 1.0482336 1.0633956 0.9136074 0.8777843 1.1832516 1.0865767 0.89978176
1.0265839 1.0345957 1.1887733 0.93410623 0.94446814 0.99617416 1.0619543 0.98256767
1.1475002 1.0198498 1.0539693 0.9508148 1.0028037 0.92530996 0.966564 0.9772062
1.1765583 1.0601819 1.0520808 0.913146 0.9864133 0.957487 1.0543234 1.1642644
1.1048337 0.8990112 1.0238773 1.0031097 0.934632 0.9611151 1.1116806 0.9663657
0.96890825 0.9861545 1.0711129 0.9679537 0.9956306 1.2015039 0.9547261 0.99961895
0.97854066 0.91737396 1.0044769 1.1921234 1.0491716 0.93906385 1.0759546 1.033698
0.9714509 1.0057173 0.9213681 1.1005918 0.98302615 1.0500127 1.0769788 0.9634402
0.9609764 0.9788842 1.0870681 0.9279244 1.1095644 0.98737544 1.0394198 0.9145683
0.99294406 1.098073 1.0595032 0.9558259 0.97033787 0.94763654 1.0146238 0.958118
0.95205224 0.97150034 1.0212945 1.0058789 1.0584137 0.9390001 0.9993685 1.0405204
1.147987 1.0468245 0.90627456 0.98044044 1.1255872 1.0150455 0.9428843 1.0326103
00000000: 08fa 8c3f 8115 793f aa3b 833f b304 853f
00000010: 9b98 673f 7332 7f3f fae8 7b3f 39b1 873f
00000020: 49f1 8f3f a57d 7b3f ca18 783f 3f58 893f
00000030: 0600 703f 6bd0 993f d5cf 863f d677 8b3f
00000040: 349e 8d3f d222 883f 20f5 8c3f 11b0 703f
00000050: 8d62 803f d559 873f 3a30 753f 64c1 7b3f
00000060: 32b5 833f 0b5b 823f 05b7 703f 889f 6d3f
00000070: 8ce6 843f 36f1 823f 8e80 673f 559d 863f
00000080: c984 7d3f 852c 863f 591d 883f 2de2 693f
00000090: 79b6 603f ca74 973f f214 8b3f 1958 663f
000000a0: 1a67 833f a26d 843f b929 983f 9621 6f3f
000000b0: aac8 713f 4505 7f3f 1eee 873f 8e89 7b3f
000000c0: 49e1 923f 708a 823f 77e8 863f 9968 733f
000000d0: df5b 803f 1de1 6c3f bd70 773f 2f2a 7a3f
000000e0: 7699 963f 0ab4 873f 95aa 863f f0c3 693f
000000f0: 9585 7c3f de1d 753f 12f4 863f 9e06 953f
00000100: 316b 8d3f 9925 663f 690e 833f e665 803f
00000110: 0b44 6f3f a40b 763f 8d4b 8e3f be63 773f
00000120: 5f0a 783f 9f74 7c3f 3a1a 893f d0cb 773f
00000130: a6e1 7e3f e1ca 993f ee68 743f 07e7 7f3f
00000140: a481 7a3f 05d9 6a3f b392 803f 8097 983f
00000150: 414b 863f 7d66 703f e1b8 893f 3750 843f
00000160: 02b1 783f 58bb 803f c8de 6b3f 31e0 8c3f
00000170: 9aa7 7b3f d166 863f 71da 893f 04a4 763f
00000180: 8d02 763f 2898 7a3f 0c25 8b3f 748c 6d3f
00000190: 3506 8e3f a3c4 7c3f b50b 853f 2621 6a3f
000001a0: 9531 7e3f a88d 8c3f cd9d 873f 02b1 743f
000001b0: 1068 783f 4f98 723f 31df 813f 3947 753f
000001c0: b2b9 733f 3fb4 783f c7b9 823f a4c0 803f
000001d0: 1a7a 873f 5062 703f 9dd6 7f3f c62f 853f
000001e0: 3df1 923f 58fe 853f 9c01 683f 25fe 7a3f
000001f0: 3e13 903f 03ed 813f de60 713f 932c 843f

feature_extractor.1.bias f4 [128]
-0.011741794 -0.079234645 -0.027895972 -0.004075386 -0.13231117 -0.04023287 -0.13394918 -0.013535853
-0.017188525 -0.081259504 -0.094088174 0.027470019 -0.12518859 0.05380071 0.033549402 0.03208035
-0.0935122 0.027872102 0.07371719 -0.06669658 0.00577468 -0.032179136 -0.08292609 -0.088345446
-0.04606297 -0.052316006 -0.086466596 -0.081673 -0.009743504 -0.00622934 -0.110528894 0.09219387
-0.07932953 -0.037227407 -0.08446714 -0.08264952 -0.098397955 0.05681449 0.015389738 -0.0853585
-0.03063376 -0.07645003 0.07422051 -0.09408991 -0.13599351 -0.057933506 -0.032927975 -0.071413234
0.09406653 -0.00116423 -0.06549342 -0.14505796 -0.09377866 -0.08745212 -0.109644316 -0.03290452
0.076899365 0.034795433 0.077712685 -0.118369706 -0.065159164 -0.088624924 -0.03440176 0.055929217
0.036319174 -0.14200662 -0.079999864 -0.08218776 -0.13356753 -0.09123677 0.013050271 -0.062033117
-0.053221524 -0.0886631 0.020786066 -0.03326119 -0.08701107 0.078792624 -0.07582919 -0.07633448
-0.05519023 -0.087883025 -0.10063166 -0.020036781 -0.02337334 -0.06388884 -0.017837606 -0.0621109
-0.10478684 -0.07293002 -0.10443221 -0.03785187 -0.059586372 0.00988436 -0.019844608 -0.07619078
-0.09185415 -0.094501324 0.04592881 -0.071341485 0.054526113 -0.041748658 -0.015550039 -0.12664503
-0.059062574 -0.011872268 -0.0065176007 -0.055777006 0.013015029 -0.038406834 -0.075559534 -0.02339548
-0.123419665 -0.014201225 -0.084185764 -0.07620047 0.009527803 -0.09758259 -0.021966329 -0.029208343
-0.04111736 0.053410616 -0.10772336 -0.091741785 0.044004425 0.024399577 -0.05388488 -0.036436882
00000000: a760 40bc c645 a2bd 1886 e4bc d18a 85bb
00000010: 947c 07be 39cb 24bd f929 09be 7bc5 5dbc
00000020: f3ce 8cbc 626b a6bd 4db1 c0bd ce08 e13c
00000030: 7031 00be 225e 5c3d 196b 093d af66 033d
00000040: 5383 bfbd 0954 e43c 0af9 963d 3798 88bd
00000050: 8739 bd3b 45ce 03bd 27d5 a9bd 75ee b4bd
00000060: 86ac 3cbd 4f49 56bd 6615 b1bd 2c44 a7bd
00000070: 38a3 1fbc 7e1f ccbb f95c e2bd 24d0 bc3d
00000080: 8577 a2bd c47b 18bd 1cfd acbd 2744 a9bd
00000090: de84 c9bd 50b6 683d 3d25 7c3c 70d0 aebd
000000a0: a7f3 fabc d591 9cbd ec00 983d 36b2 c0bd
000000b0: e241 0bbe af4b 6dbd 7cdf 06bd 1a41 92bd
000000c0: f4a5 c03d 1499 98ba 6a21 86bd 138a 14be
000000d0: 070f c0bd 191a b3bd 338d e0bd e4c6 06bd
000000e0: 6a7d 9d3d a885 0e3d d427 9f3d d16b f2bd
000000f0: 2b72 85bd fc80 b5bd dce8 0cbd 0916 653d
00000100: 6ac3 143d 2f6a 11be f8d6 a3bd 0e52 a8bd
00000110: edc5 08be 58da babd ced0 553c 7016 7ebd
00000120: d0fe 59bd 0095 b5bd 8a47 aa3c e33c 08bd
00000130: dc32 b2bd 075e a13d 564c 9bbd 4055 9cbd
00000140: 270f 62bd 04fc b3bd f917 cebd 2d24 a4bc
00000150: 7279 bfbc 27d8 82bd 2c20 92bc 0068 7ebd
00000160: 7c9a d6bd 565c 95bd 8ee0 d5bd 900a 1bbd
00000170: d710 74bd 03f2 213c 2991 a2bc e909 9cbd
00000180: 071e bcbd e989 c1bd d91f 3c3d 7c1b 92bd
00000190: c656 5f3d a400 2bbd 97c5 7ebc 3caf 01be
000001a0: 99eb 71bd e783 42bc 9991 d5bb 6e76 64bd
000001b0: fd3c 553c 7c50 1dbd f5be 9abd e1a7 bfbc
000001c0: 73c3 fcbd 41ac 68bc 9669 acbd fe0e 9cbd
000001d0: 811a 1c3c 62d9 c7bd bbf2 b3bc 5646 efbc
000001e0: ad6a 28bd 17c5 5a3d 119e dcbd 1ee3 bbbd
000001f0: fc3d 343d 9fe1 c73c 64b6 5cbd d73e 15bd

feature_extractor.4.weight f4 [64, 128]
-0.0404317 0.10794582 -0.08357412 0.111183144 -0.06657259 0.029258415 0.11053789 0.02726907
-0.18415944 0.11487493 -0.09419428 0.1450537 0.10261553 -0.108146876 0.006021048 -0.076879874
-0.019670837 -0.037687905 0.01949124 -0.015046542 -0.038718767 0.0113838995 0.04570159 0.050784208
-0.019733973 0.011865975 -0.08015043 -0.04230736 0.030475428 0.07472158 0.07203371 0.05512625
0.027610056 -0.033138696 -0.06862472 -0.060325637 0.016959628 0.011926745 -0.034660943 0.023307381
-0.06890257 -0.023584938 -0.04758477 0.100300364 0.115352996 -0.12122858 -0.034221742 0.14152472
-0.10831315 0.13964534 -0.17707106 0.009168763 0.020055406 -0.11680533 0.12869467 0.07299489
-0.0075315395 0.020948395 -0.110037334 0.07830735 0.13787308 0.041867185 -0.039570548 -0.13500911
0.049901217 -0.0384128 0.08983072 0.024635041 0.0067672287 -0.017059302 0.15527803 0.06603696
-0.0050002164 0.06765487 -0.0811984 0.02180121 0.039240282 -0.053285394 0.019496994 -0.06701649
0.008986717 -0.09852628 0.020516967 -0.03748677 0.00078514614 0.041819744 -0.09652198 -0.077924974
-0.062432356 -0.08445627 0.03556122 -0.1509405 0.026165145 -0.0964706 -0.016696166 -0.010052298
0.11289469 0.08547924 0.030826967 -0.024584286 -0.050489873 0.008824004 -0.08509839 0.026253361
-0.029797517 0.03311758 -0.046101272 -0.08475785 -0.011756604 0.1231721 0.029890018 0.11408868
0.03853423 -0.004041487 0.002602955 0.0027503262 0.03609935 -0.1074527 -0.0047641397 0.072852254
-0.100271575 0.044116084 -0.10609382 -0.033990894 -0.07549227 -0.003938278 -0.05830699 0.010214884
-0.07042089 0.008208185 0.087601066 0.07360127 0.07507356 0.10367481 0.05778076 -0.0011690499
-0.12106259 0.13867557 0.0804029 -0.031799667 0.017002825 0.010441478 -0.0028922188 0.0591224
-0.014408246 0.07204539 -0.02283333 -0.060128056 -0.06626983 -0.02668041 0.025624657 -0.0035032015
-0.041334033 0.048327662 0.06643971 -0.053717446 -0.08523131 -0.133303 0.061092302 -0.13511433
-0.07332402 0.010631496 -0.037636638 0.071891114 -0.0013721139 0.041015085 0.056667984 0.043574844
0.041644234 0.09399982 0.03145796 0.054096267 -0.011770086 -0.010633347 -0.0017502299 -0.0061975103
-0.04545262 -0.2760172 -0.006533919 -0.03472572 0.0067007453 -0.068367116 -0.0064939307 -0.025520908
-0.1008962 -0.01661206 -0.01355815 0.09425553 0.00062203186 -0.03836191 -0.02333629 -0.039845437
-0.02058838 0.08807511 0.03791988 0.014007309 -0.026503135 0.054525707 -0.03991527 0.059513655
-0.0584442 0.08653484 -0.020110875 -0.0037410404 0.029935796 -0.14881629 -0.0013864872 0.1184199
0.019470198 -0.0271824 0.008414977 -0.112523764 -0.043079138 -0.09175888 -0.04155969 -0.06740482
0.13261959 0.08876713 0.025688207 0.097222224 0.026030999 -0.01333574 -0.019110965 -0.12047729
-0.016351253 0.03675112 -0.07104707 0.07744045 -0.12887631 -0.0023120854 0.020683121 -0.05104759
0.12991366 -0.12563379 -0.09041269 -0.011636096 -0.028725442 -0.097810924 0.032765582 -0.042293902
0.059420563 -0.06621735 0.06332751 0.0028247875 -0.029549334 -0.024711534 -0.07585001 -0.0034639945
-0.0741425 -0.09545213 0.020912439 0.028372634 -0.03343424 -0.14774276 0.10729728 -0.09947924
00000000: b69b 25bd b312 dd3d e928 abbd fdb3 e33d
00000010: 3657 88bd 58af ef3c b061 e23d 6263 df3c
00000020: 4b94 3cbe 8c43 eb3d eee8 c0bd f588 143e
00000030: 1728 d23d 1c7c ddbd 364c c53b 3273 9dbd
00000040: bc24 a1bc a25e 1abd 18ac 9f3c c585 76bc
00000050: 9297 1ebd 8983 3a3c 9731 3b3d 1a03 503d
00000060: 24a9 a1bc 8269 423c e925 a4bd 7b4a 2dbd
00000070: 9ba7 f93c a107 993d 6986 933d 10cc 613d
00000080: 7c2e e23c 71bc 07bd 1e8b 8cbd 0418 77bd
00000090: ebee 8a3c 6568 433c a2f8 0dbd 1fef be3c
000000a0: ca1c 8dbd 3335 c1bc 3fe8 42bd 476a cd3d
000000b0: 313e ec3d b146 f8bd 192c 0cbd dbeb 103e
000000c0: 49d3 ddbd 30ff 0e3e 1e52 35be 9438 163c
000000d0: 3c4b a43c a237 efbd 89c8 033e 587e 953d
000000e0: 22cb f6bb f89b ab3c 415b e1bd 9b5f a03d
000000f0: 9a2e 0d3e ed7c 2b3d ba14 22bd d43f 0abe
00000100: 3865 4c3d bd56 1dbd 2bf9 b73d 6dcf c93c
00000110: a1bf dd3b f3bf 8bbc 3401 1f3e 633e 873d
00000120: dbd8 a3bb a38e 8a3d 594b a6bd 7398 b23c
00000130: 6bba 203d c941 5abd 29b8 9f3c f13f 89bd
00000140: 063d 133c 25c8 c9bd 3313 a83c ba8b 19bd
00000150: 44d2 4d3a 2e4b 2b3d 51ad c5bd 2197 9fbd
00000160: 12b9 7fbd 69f7 acbd a4a8 113d 2590 1abe
00000170: 4958 d63c 6192 c5bd 66c6 88bc 65b2 24bc
00000180: 5535 e73d bd0f af3d d688 fc3c fc64 c9bc
00000190: 78ce 4ebd 8e92 103c 1148 aebd 4a11 d73c
000001a0: ec19 f4bc 4da6 073d b0d4 3cbd 8695 adbd
000001b0: c59e 40bc a741 fc3d e9db f43c 53a7 e93d
000001c0: 12d6 1d3d 736e 84bb 5796 2a3b d13e 343b
000001d0: e9dc 133d 2910 dcbd 801c 9cbb 9033 953d
000001e0: 2f5b cdbd 11b3 343d b747 d9bd 093a 0bbd
000001f0: b19b 9abd ac0c 81bb 4fd3 6ebd 545c 273c
00000200: d438 90bd a07b 063c 3068 b33d 43bc 963d
00000210: 2bc0 993d 7553 d43d 85ab 6c3d ce3a 99ba
00000220: aaef f7bd f800 0e3e 47aa a43d 5e40 02bd
00000230: 8249 8b3c bc12 2b3c 618b 3dbb 542a 723d
00000240: 9010 6cbc 898c 933d f70c bbbc d648 76bd
00000250: 7ab8 87bd e090 dabc cdea d13c f895 65bb
00000260: e04d 29bd 3af3 453d 8b11 883d d306 5cbd
00000270: c18d aebd 9580 08be ec3b 7a3d 695b 0abe
00000280: e72a 96bd ba2f 2e3c e028 1abd a63b 933d
00000290: 81d8 b3ba 6fff 273d b01c 683d 897b 323d
000002a0: 2593 2a3d fa82 c03d 10da 003d 0c94 5d3d
000002b0: 52d7 40bc 7d37 2ebc f867 e5ba 7c14 cbbb
000002c0: 872c 3abd 2052 8dbe 7c1a d6bb 8e3c 0ebd
000002d0: ed91 db3b 0f04 8cbd 0acb d4bb 3911 d1bc
000002e0: aba2 cebd 0416 88bc 0123 5ebc 0b09 c13d
000002f0: da0f 233a 6121 1dbd bf2b bfbc f834 23bd
00000300: f6a8 a8bc b960 b43d e051 1b3d ea7e 653c
00000310: 1a1d d9bc 5956 5f3d 327e 23bd 97c4 733d
00000320: 2f63 6fbd 2e39 b13d 90bf a4bc 3e2c 75bb
00000330: ea3b f53c 4c63 18be caba b5ba 2286 f23d
00000340: f77f 9f3c a0ad debc f9de 093c dc72 e6bd
00000350: c073 30bd 14ec bbbd 7e3a 2abd 8a0b 8abd
00000360: 6ecd 073e 8bcb b53d 1370 d23c 721c c73d
00000370: f63e d53c 267e 5abc 998e 9cbc ccbc f6bd
00000380: 10f3 85bc 5888 163d 2081 91bd 1999 9e3d
00000390: 27f8 03be 5b86 17bb a66f a93c 4717 51bd
000003a0: 1608 053e 25a6 00be 4a2a b9bd 53a5 3ebc
000003b0: 9e51 ebbc 1851 c8bd 3435 063d 5f3c 2dbd
000003c0: fa62 733d f69c 87bd dbb1 813d 1220 393b
000003d0: 7211 f2bc d86f cabc 4057 9bbd 2f04 63bb
000003e0: 06d8 97bd 687c c3bd 9050 ab3c ba6d e83c
000003f0: 57f2 08bd e149 17be adbe db3d c6bb cbbd

feature_extractor.4.bias f4 [64]
0.061668888 -0.015791431 0.0697427 0.030936502 0.034193363 -0.011202152 -0.044291474 0.040116772
0.08631419 0.04925737 -0.0634076 -0.026010588 -0.0072347424 -0.036099937 0.06572932 -0.03948515
-0.018937243 0.0020618162 -0.067149475 -0.08281111 0.054072093 -0.045632552 -0.05617286 -0.079765745
0.081129625 -0.12728965 0.07895117 -0.006109976 -0.0014614563 0.008801749 -0.0106456345 0.02621961
0.10062808 -0.038854755 -0.04849955 0.077338286 0.08151741 -0.040242676 -0.07883849 -0.078559935
0.020243661 0.09098336 -0.06316421 0.00900716 0.0780806 0.09590154 -0.020051224 -0.0289769
-0.082287595 -0.04559782 -0.04065902 0.068373576 -0.02928702 -0.018406007 -0.032346994 -0.042407654
0.083903596 -0.059469413 -0.058602255 0.0072864825 -0.031749 0.0089104455 0.014584592 -0.0819359
00000000: 8498 7c3d 085d 81bc 43d5 8e3d 8c6e fd3c
00000010: 570e 0c3d 3b89 37bc fa6a 35bd 7c51 243d
00000020: 7ec5 b03d 19c2 493d d8db 81bd 2814 d5bc
00000030: 6b11 edbb 87dd 13bd 189d 863d 2ebb 21bd
00000040: 4722 9bbc 891f 073b aa85 89bd df98 a9bd
00000050: b37a 5d3d 33e9 3abd 8315 66bd 395c a3bd
00000060: 4a27 a63d 3858 02be 27b1 a13d 3236 c8bb
00000070: 568e bfba 3635 103c 076b 2ebc 82ca d63c
00000080: 1816 ce3d 2a26 1fbd 77a7 46bd 8963 9e3d
00000090: 9af2 a63d 81d5 24bd 1376 a1bd 08e4 a0bd
000000a0: 09d6 a53c 7c55 ba3d 3d5c 81bd c492 133c
000000b0: b9e8 9f3d 0768 c43d 7742 a4bc f760 edbc
000000c0: 6686 a8bd c8c4 3abd 138a 26bd 7207 8c3d
000000d0: 55eb efbc 32c8 96bc 487e 04bd a6b3 2dbd
000000e0: a6d5 ab3d 3396 73bd eb08 70bd 72c3 ee3b
000000f0: 3d0b 02bd 1efd 113c 36f4 6e3c 02ce a7bd

feature_extractor.5.weight f4 [64]
0.95822054 1.001506 1.0767944 0.9213667 0.99353695 0.9859151 0.88582885 0.994647
1.0396644 1.0563365 1.0571285 1.0896983 0.9667651 1.0787734 1.0026413 1.2190727
0.9656447 1.0490298 1.1237445 0.9484092 0.97956944 1.0298202 0.98631465 1.1396022
0.9347452 0.9973199 1.004122 1.1595895 1.0520657 1.0119274 1.0409191 0.94913024
0.97515786 0.9655786 0.9702671 0.98804456 0.99393004 0.970203 1.1153666 0.99215585
0.94446784 1.0288314 1.0347311 1.0740175 1.0100884 0.97918963 0.98673636 1.1145018
0.9461058 0.9283209 1.108434 1.0084532 1.1405016 0.9396382 0.8815007 1.0809524
1.0698426 0.9571371 1.0913109 0.9911578 1.0906391 1.0591059 0.96449524 1.1341085
00000000: f14d 753f 5931 803f 66d4 893f b0de 6b3f
00000010: 7058 7e3f ef64 7c3f aec5 623f 30a1 7e3f
00000020: b913 853f 0936 873f fd4f 873f 3c7b 8b3f
00000030: eb7d 773f 3f15 8a3f 8d56 803f 930a 9c3f
00000040: 7e34 773f 9c46 863f dcd6 8f3f f2ca 723f
00000050: 10c5 7a3f 26d1 833f 1e7f 7c3f 7cde 913f
00000060: 764b 6f3f 5b50 7f3f 1287 803f 6e6d 943f
00000070: 17aa 863f d686 813f d63c 853f 33fa 723f
00000080: f2a3 793f 2930 773f 6d63 783f 7df0 7c3f
00000090: 3372 7e3f 395f 783f 55c4 8e3f edfd 7d3f
000000a0: a5c8 713f bfb0 833f 1272 843f 6879 893f
000000b0: 944a 813f 2cac 7a3f c19a 7c3f ffa7 8e3f
000000c0: fd33 723f 70a6 6d3f 2ae1 8d3f ff14 813f
000000d0: f5fb 913f 218c 703f 08aa 613f a65c 8a3f
000000e0: 9af0 883f f006 753f 13b0 8b3f 85bc 7d3f
000000f0: 109a 8b3f c890 873f 29e9 763f 782a 913f

feature_extractor.5.bias f4 [64]
-0.080412604 -0.015309125 0.045201033 -0.053538688 -0.016286332 0.0033250907 -0.09334725 -0.061549548
0.0055999784 0.031458233 0.0034519094 -0.0006016831 -0.05326583 0.027166575 -0.034493007 0.068863325
-0.03227317 -0.0040164352 0.0019140076 -0.1205364 -0.08892372 0.012348744 -0.012169792 0.008257621
-0.09249963 0.02362191 0.009724148 0.0139409 -0.010268255 -0.031840462 -0.0051027634 -0.058520306
-0.046510782 -0.07294429 -0.01790389 -0.045109916 -0.09723248 -0.057881955 0.03525445 -0.061149754
-0.065911025 0.03747388 0.016963195 0.035147965 -0.06946831 0.011662416 -0.0135425795 -0.0021731479
-0.032132253 -0.073516056 0.019981273 -0.0136935385 0.04136012 -0.039528638 -0.09648009 0.042079914
0.06017057 -0.053734865 0.056755785 -0.11380679 0.029995598 -0.003561336 -0.053768285 0.05731998
00000000: 5daf a4bd 20d3 7abc b824 393d 624b 5bbd
00000010: ea6a 85bc c4e9 593b d82c bfbd 611b 7cbd
00000020: 0680 b73b 59da 003d 6e39 623b 45ba 1dba
00000030: 452d 5abd 708c de3c 8a48 0dbd 3708 8d3d
00000040: df30 04bd 4d9c 83bb 70df fa3a cadb f6bd
00000050: a41d b6bd 6352 4a3c cf63 47bc f94a 073c
00000060: 7270 bdbd bc82 c13c 0852 1f3c 5f68 643c
00000070: 2f3c 28bc 256b 02bd 1535 a7bb fdb2 6fbd
00000080: 1782 3ebd d163 95bd 2eab 92bc 2dc5 38bd
00000090: d321 c7bd a115 6dbd f866 103d 2a78 7abd
000000a0: 5cfc 86bd 367e 193d 66f6 8a3c 50f7 0f3d
000000b0: 6745 8ebd b813 3f3c b2e1 5dbc 5f6b 0ebb
000000c0: 1c9d 03bd 968f 96bd c4af a33c dd5a 60bc
000000d0: 3b69 293d c8e8 21bd 5a97 c5bd fd5b 2c3d
000000e0: 6a75 763d 1719 5cbd c178 683d 8913 e9bd
000000f0: 54b9 f53c 4e65 69bb 223c 5cbd 5bc8 6a3d

lstm.weight_ih_l0 f4 [128, 64]
-0.23939402 -0.16638803 0.098096676 0.04713991 0.13294186 -0.017003758 0.1434747 -0.14902866
0.2360188 0.23180863 0.0554419 -0.0662112 0.09933747 0.07982176 0.15218417 0.29273683
-0.0045923744 0.15146965 -0.039347008 0.11432116 0.01381627 0.17149287 -0.16980626 0.18175429
0.13363785 0.09473037 0.003122511 -0.016679313 0.040069412 -0.002295236 -0.005207156 -0.0060073957
-0.019806443 -0.0981805 -0.06055392 -0.09212751 -0.062140908 -0.17244853 0.076439194 -0.04903845
-0.039221983 -0.084295966 0.17088977 -0.10295644 -0.10926488 -0.09140148 -0.014264157 0.12627175
0.15472768 -0.020987852 -0.004934736 -0.07375546 0.14180322 -0.055044446 0.15862875 0.02081225
0.2047933 0.03839443 -0.08653623 -0.17753711 0.072834365 -0.08205874 -0.046012037 0.049119767
0.13627975 -0.018295225 -0.06072075 -0.081013255 0.0040884055 0.15110888 -0.21776916 -0.21880266
0.06485893 -0.023389263 0.12622191 -0.076392114 -0.17571692 0.08946152 0.02960869 0.20924258
-0.23411803 0.11169756 -0.020388616 -0.12383934 -0.014624667 -0.058259495 -0.14521353 0.040829405
-0.1170503 -0.06850914 0.087889954 0.09292672 0.017931402 -0.28034702 0.07716971 0.027026188
0.108342685 0.012099522 0.097157806 0.029911049 -0.1616926 -0.086872555 0.20972596 -0.023510952
-0.29253623 0.10560337 0.19497629 0.10170251 -0.028333439 0.10387385 -0.01822677 0.14288427
-0.13751343 0.06818684 0.16984652 0.045512997 0.06835619 -0.08443536 0.11578353 -0.006916156
-0.022246227 0.08827203 0.012190708 -0.1072367 -0.024985297 0.21291448 -0.13028686 0.18716234
0.12387863 0.06395549 -0.093997054 -0.113075055 -0.07767529 -0.105860546 -0.09422109 -0.03621415
-0.048352268 0.062351346 0.15785266 0.18975627 -0.13770837 0.18480954 -0.0959903 -0.12241347
-0.067365445 0.11809466 0.10105219 -0.012095953 -0.04548721 0.041344285 -0.11373512 0.20857795
-0.007691033 -0.12802066 0.1063346 0.048322335 -0.06498457 -0.11968173 0.07838753 -0.03444571
-0.012653419 0.18789175 -0.11149401 0.05044492 -0.10769204 0.09788246 0.13851212 -0.1791508
0.10384147 -0.17609362 0.08646698 0.028311161 -0.12762718 -0.15383492 -0.024230912 0.17848459
0.13482365 0.15589334 0.1973803 0.057420783 0.17587498 -0.1896412 -0.22305572 0.056907166
0.0070386543 0.03664075 0.0098472135 -0.054554857 -0.1481708 0.1607908 -0.16515955 -0.17742662
0.06707091 0.013554686 0.117649324 0.047685917 0.06107263 -0.15283316 -0.032846346 0.11053835
-0.15838693 -0.16259047 -0.15902793 0.0111119645 0.18016846 0.108304545 -0.120804995 0.2838404
-0.036691956 -0.1261126 0.15802138 -0.045722637 -0.08630066 -0.06500877 0.032385547 -0.06781615
-0.20890874 0.016081503 0.05667563 0.10307657 0.035407376 0.056410607 -0.05682219 -0.13729413
-0.08065315 0.0024250292 -0.24209225 -0.13182847 -0.009847148 -0.08826848 -0.046691272 0.051019676
-0.11846896 0.19515301 -0.117142715 0.14994377 0.09625066 -0.059691153 -0.019550899 0.19313222
-0.16023599 0.011909924 0.12952292 0.2167856 -0.13188842 0.11992829 0.02813216 -0.096491136
0.116214626 -0.101876624 0.10950259 -0.10756458 -0.08176658 -0.07859763 0.0689792 -0.035191398
00000000: b523 75be a061 2abe e9e6 c83d c715 413d
00000010: e921 083e 774b 8bbc 08eb 123e f89a 18be
00000020: eaae 713e 3e5f 6d3e 0c17 633d bd99 87bd
00000030: 7271 cb3d 9779 a33d 2bd6 1b3e 9ae1 953e
00000040: a17b 96bb dc1a 1b3e 542a 21bd 3621 ea3d
00000050: a35d 623c d49b 2f3e b1e1 2dbe cc1d 3a3e
00000060: 5cd8 083e ff01 c23d 0ba3 4c3b 0ea3 88bc
00000070: d31f 243d ac6b 16bb caa0 aabb b0d9 c4bb
00000080: 1f41 a2bc dc12 c9bd 6307 78bd 59ad bcbd
00000090: 7787 7ebd 5996 30be 278c 9c3d 8bdc 48bd
000000a0: 3ba7 20bd 5da3 acbd bafd 2e3e d3da d2bd
000000b0: 44c6 dfbd b330 bbbd 36b4 69bc 624d 013e
000000c0: ef70 1e3e b7ee abbc 91b3 a1bb 1a0d 97bd
000000d0: dd34 113e 4976 61bd 936f 223e 747e aa3c
000000e0: 56b5 513e 7a43 1d3d e839 b1bd 4acc 35be
000000f0: 2f2a 953d 6a0e a8bd 1e77 3cbd cf31 493d
00000100: eb8c 0b3e dedf 95bc 52b6 78bd 47ea a5bd
00000110: 08f8 853b 49bc 1a3e e1fe 5ebe ce0d 60be
00000120: c2d4 843d d79a bfbc 5140 013e 7873 9cbd
00000130: 23ef 33be 9a37 b73d ec8d f23c b043 563e
00000140: a3bc 6fbe b1c1 e43d 0706 a7bc 7b9f fdbd
00000150: 4d9c 6fbc 82a1 6ebd dbb2 14be bc3c 273d
00000160: 11b8 efbd 854e 8cbd a6ff b33d 5d50 be3d
00000170: e0e4 923c a589 8fbe 270b 9e3d 0666 dd3c
00000180: c5e2 dd3d 133d 463c acfa c63d 0408 f53c
00000190: bf92 25be 3dea b1bd 67c2 563e 0a9a c0bc
000001a0: 4fc7 95be 9446 d83d dda7 473e 6849 d03d
000001b0: 871b e8bc d0bb d43d 4f50 95bc 4150 123e
000001c0: 52d0 0cbe 8ba5 8b3d 3fec 2d3e d66b 3a3d
000001d0: 55fe 8b3d 72ec acbd ea1f ed3d eca0 e2bb
000001e0: b83d b6bc f7c7 b43d 89bb 473c ea9e dbbd
000001f0: f7ad ccbc 4106 5a3e eb69 05be 7ca7 3f3e
00000200: 14b4 fd3d 19fb 823d 8781 c0bd e593 e7bd
00000210: 3914 9fbd 6acd d8bd fdf6 c0bd 4a55 14bd
00000220: 070d 46bd 2064 7f3d 21a4 213e 784f 423e
00000230: 6c03 0dbe b63e 3d3e 9096 c4bd eab3 fabd
00000240: e5f6 89bd 9ddb f13d 73f4 ce3d 1b2e 46bc
00000250: cc50 3abd a058 293d f5ed e8bd 7595 553e
00000260: 1005 fcbb d917 03be f4c5 d93d a4ed 453d
00000270: a116 85bd b21b f5bd a489 a03d f216 0dbd
00000280: 4950 4fbc b266 403e f956 e4bd 559f 4e3d
00000290: a58d dcbd 9976 c83d 1fd6 0d3e 4f73 37be
000002a0: d6aa d43d e351 34be 9a15 b13d cfec e73c
000002b0: b3b0 02be e786 1dbe e87f c6bc aac4 363e
000002c0: 360f 0a3e 81a2 1f3e 101e 4a3e 0e32 6b3d
000002d0: 9218 343e 4d31 42be b868 64be 7d17 693d
000002e0: 83a4 e63b 9c14 163d 3556 213c ea74 5fbd
000002f0: 16ba 17be 58a6 243e 961f 29be 53af 35be
00000300: 795c 893d 7914 5e3c 21f2 f03d 4f52 433d
00000310: 4b27 7a3d 4c80 1cbe e489 06bd ee61 e23d
00000320: 2f30 22be 1e7e 26be 38d8 22be f50e 363c
00000330: 157e 383e c6ce dd3d 9c68 f7bd 8753 913e
00000340: 4e4a 16bd a923 01be 5bd0 213e a947 3bbd
00000350: 67be b0bd 5123 85bd b5a6 043d 32e3 8abd
00000360: 2cec 55be 5bbd 833c b524 683d cf19 d33d
00000370: 5307 113d cf0e 673d 62be 68bd d596 0cbe
00000380: 7b2d a5bd 3ded 1e3b 08e7 77be 0bfe 06be
00000390: ef55 21bc 1bc6 b4bd 593f 3fbd 02fa 503d
000003a0: db9f f2bd 31d6 473e 85e8 efbd dc8a 193e
000003b0: 111f c53d b67e 74bd 3529 a0bc 74c4 453e
000003c0: e714 24be d821 433c a8a1 043e 0bfd 5d3e
000003d0: c20d 07be f79c f53d 6a75 e63c 259d c5bd
000003e0: ef01 ee3d b1a4 d0bd e542 e03d d24a dcbd
000003f0: 3d75 a7bd cbf7 a0bd f844 8d3d db24 10bd

lstm.weight_hh_l0 f4 [128, 32]
-0.047637902 0.19733302 -0.113932274 -0.17335175 0.0015669232 0.058861636 -0.22991525 -0.24325791
-0.088434614 -0.009533397 0.022999223 0.015219278 -0.272904 -0.110505804 0.06075029 -0.06630138
0.17408262 0.045405213 -0.054118 0.07289753 -0.0042913766 -0.17541705 0.022017166 -0.11871219
0.19953614 0.2306851 -0.3449316 0.15876862 0.14736678 -0.10492074 -0.021059876 -0.04435016
0.16611879 0.0046994155 -0.063972645 -0.1767475 -0.084847376 -0.11558353 -0.17698094 0.017884547
0.069544435 -0.086645685 0.16481332 -0.10167476 0.044024363 -0.018656151 0.10927795 -0.15634145
0.108721234 0.06844723 -0.1217391 -0.10712219 -0.13472514 -0.10004261 -0.0211775 -0.05852867
-0.20570554 0.07366284 -0.10014664 -0.04938604 0.05788469 -0.046969138 0.019752271 0.056736182
-0.039389726 0.03690284 -0.108854875 0.024971826 0.012146168 -0.08863284 0.20178355 0.09748792
0.07633182 -0.001480451 -0.28235313 0.051808916 -0.08356492 -0.022091538 0.02766377 0.059742153
-0.10926392 0.042595845 0.046400998 -0.13770112 -0.13507296 -0.086679816 0.09402064 0.03778003
-0.11734645 -0.11083121 0.16133638 0.07205583 0.07641633 0.15629137 -0.19294338 0.005028628
-0.20353164 -0.14077146 0.08370552 0.14572392 -0.05661689 0.10459352 0.12289979 0.014040924
0.08207476 0.10635378 -0.15491633 -0.11885112 -0.14130247 -0.03080783 0.19337958 0.07646071
-0.09366105 0.17335495 0.22941332 0.12947018 -0.112687685 0.1277989 -0.1358494 0.10639376
-0.07306169 0.051157724 0.13068752 2.5629422e-05 -0.04722154 -0.11577194 -0.028968366 0.21040428
-0.18831846 0.10843079 0.06813483 0.033895355 0.13306421 0.14905587 -0.22525683 -0.09127698
0.043283287 0.066099174 -0.15333603 -0.17531638 -0.020473842 0.03256312 0.21098346 0.097268485
-0.080606736 0.023628231 0.1102964 -0.06059224 0.22661196 0.004557511 -0.001739215 0.039708015
-0.045759503 0.19016004 -0.10580015 -0.019032108 0.058678772 0.13069187 0.21332116 0.13238567
0.18439302 -0.09126499 0.12932923 -0.0719056 0.041435476 -0.10118296 -0.012481312 0.2474579
-0.1500493 0.089527406 -0.07187465 -0.12075688 0.08004792 -0.15921988 0.2545567 0.051542584
0.20120056 -0.023870261 -0.012779813 0.19148664 -0.120856196 -0.19804534 0.19309591 0.10944129
0.026724132 -0.059613448 -0.1666842 0.12074106 -0.038962726 -0.1727946 0.15449233 0.108436614
-0.005459805 -0.023576565 0.12919918 0.014450563 -0.1248033 0.09611433 -0.07728438 -0.14293288
-0.13787001 -0.0043790755 -0.12859975 0.0445807 -0.0035721427 0.055485804 -0.13269944 -0.10856974
0.04405809 -0.027482254 -0.055130314 -0.10249856 0.16390866 -0.06536756 0.15050882 0.033297483
-0.059913773 0.17646545 -0.06235651 0.14195627 0.0022814581 0.14171699 0.024155833 -0.12357049
0.30940285 -0.14855689 0.011131139 0.009351274 0.17790279 -0.08593065 0.15627748 0.0914535
-0.14417306 -0.1111937 -0.22467892 0.051908616 0.21050185 -0.07319417 -0.16413587 -0.097504884
-0.08008672 -0.098017745 -0.061890777 0.15317395 0.14152765 0.1430043 0.0002542094 -0.0825333
0.22266975 0.053344876 -0.0775589 -0.14146763 -0.0663275 -0.04472073 0.12903677 -0.10170715
00000000: f61f 43bd ab11 4a3e 5355 e9bd 1f83 31be
00000010: 3861 cd3a e618 713d e76e 6bbe 9a18 79be
00000020: 351d b5bd f731 1cbc de68 bc3c 475a 793c
00000030: 13ba 8bbe de50 e2bd 4cd5 783d 05c9 87bd
00000040: b742 323e d1fa 393d d6aa 5dbd 4d4b 953d
00000050: ad9e 8cbb 87a0 33be 585d b43c 601f f3bd
00000060: 3453 4c3e b738 6c3e e09a b0be 3e94 223e
00000070: 51e7 163e afe0 d6bd c385 acbc 83a8 35bd
00000080: 0b1b 2a3e 8efd 993b 1704 83bd 4cfd 34be
00000090: 76c4 adbd 0fb7 ecbd 7e3a 35be 9d82 923c
000000a0: 506d 8e3d 4b73 b1bd d3c4 283e db3a d0bd
000000b0: e452 343d c9d4 98bc 1ecd df3d f917 20be
000000c0: 3da9 de3d 102e 8c3d 5952 f9bd e162 dbbd
000000d0: 63f5 09be 24e3 ccbd 707c adbc c2bb 6fbd
000000e0: 79a4 52be 8bdc 963d ae19 cdbd 0449 4abd
000000f0: 7f18 6d3d b662 40bd 84cf a13c 3364 683d
00000100: 1f57 21bd 6f27 173d 4eef debd b791 cc3c
00000110: b900 473c 2285 b5bd 59a0 4e3e bfa7 c73d
00000120: db53 9c3d b10b c2ba 9790 90be 9635 543d
00000130: 1624 abbd 50f9 b4bc 219f e23c 30b4 743d
00000140: c3c5 dfbd fb78 2e3d f90e 3e3d 8601 0dbe
00000150: 9150 0abe 3085 b1bd e58d c03d 3cbf 1a3d
00000160: 5653 f0bd 79fb e2bd 5d35 253e 0292 933d
00000170: 2a80 9c3d d80a 203e f392 45be 30c7 a43b
00000180: 996a 50be 6526 10be cd6d ab3d a738 153e
00000190: 1de7 67bd 2135 d63d e3b2 fb3d e70b 663c
000001a0: d016 a83d 03d0 d93d 63a2 1ebe 3768 f3bd
000001b0: 98b1 10be b460 fcbc 4c05 463e 6f97 9c3d
000001c0: 5dd1 bfbd f683 313e 53eb 6a3e d593 043e
000001d0: cdc8 e6bd b7dd 023e 1b1c 0bbe f9e4 d93d
000001e0: 5ea1 95bd c38a 513d f3d2 053e c4fe d637
000001f0: 606b 41bd d719 edbd 114f edbc 3874 573e
00000200: 8ed6 40be f610 de3d 468a 8b3d dbd5 0a3d
00000210: fc41 083e 1aa2 183e baa9 66be 6def babd
00000220: d149 313d 015f 873d 1f04 1dbe 2386 33be
00000230: c2b8 a7bc e860 053d 0c0c 583e b334 c73d
00000240: 2515 a5bd fe8f c13c 14e3 e13d 922f 78bd
00000250: f70c 683e 2c57 953b 5ff6 e3ba dfa4 223d
00000260: 516e 3bbd 50b9 423e c0ad d8bd 39e9 9bbc
00000270: 2759 703d 17d4 053e dd70 5a3e 1c90 073e
00000280: 86d1 3c3e 24e9 babd e26e 043e 3e43 93bd
00000290: 3fb8 293d 0339 cfbd 6b7e 4cbc 9b65 7d3e
000002a0: 86a6 19be 255a b73d 0433 93bd 624f f7bd
000002b0: 2af0 a33d 890a 23be 4155 823e 511e 533d
000002c0: 8507 4e3e 918b c3bc 6c62 51bc 1315 443e
000002d0: 7483 f7bd 66cc 4abe efba 453e c122 e03d
000002e0: 91ec da3c 3b2d 74bd 43af 2abe 1747 f73d
000002f0: 6197 1fbd 11f1 30be 3d33 1e3e 0414 de3d
00000300: 2ae8 b2bb a423 c1bc ca4c 043e 0ec2 6c3c
00000310: df98 ffbd 97d7 c43d 4647 9ebd ff5c 12be
00000320: cc2d 0dbe 597e 8fbb a7af 03be 419a 363d
00000330: 9c1a 6abb 1545 633d 5de2 07be d059 debd
00000340: 4176 343d 7722 e1bc 53d0 61bd c4ea d1bd
00000350: acd7 273e 6ddf 85bd fc1e 1a3e f162 083d
00000360: 2568 75bd 5cb3 343e 8a69 7fbd fc5c 113e
00000370: 8484 153b 421e 113e 74e2 c53c 8612 fdbd
00000380: 0d6a 9e3e 4c1f 18be 615f 363c 1636 193c
00000390: 262c 363e 69fc afbd 3407 203e f94b bb3d
000003a0: 1aa2 13be 86b9 e3bd 3b12 66be 219e 543d
000003b0: cc8d 573e d3e6 95bd 3c13 28be a4b0 c7bd
000003c0: 8204 a4bd 87bd c8bd 2f81 7dbd a2d9 1c3e
000003d0: a0ec 103e b86f 123e 6847 8539 3807 a9bd
000003e0: 8a03 643e 2880 5a3d 33d7 9ebd e4dc 10be
000003f0: b6d6 87bd 162d 37bd 3722 043e d74b d0bd

lstm.bias_ih_l0 f4 [128]
0.11544989 0.103666835 -0.1322166 0.122889414 0.2160634 0.12149194 -0.11378162 -0.019638315
-0.13570005 -0.112929024 -0.14011309 -0.09777003 0.10811455 -0.0676363 0.10305794 0.11437679
0.028116535 0.041717608 0.0024148147 0.120211594 -0.09881856 0.12678653 0.17483638 0.041842725
0.054057036 -0.05631475 0.13656184 -0.048175596 0.23714943 -0.13078819 0.17057247 -0.14694656
-0.13072166 0.053183585 0.077886365 -0.22236241 -0.08928234 0.16710003 -0.0037492404 -0.0076162475
0.033960536 -0.05824974 0.052009106 0.111129425 -0.063936226 -0.11725285 -0.03314785 -0.13161239
-0.17664832 -0.14985223 -0.050616194 -0.10459586 -0.013769279 -0.10742954 -0.14379087 0.11388018
-0.22742786 -0.07515354 -0.018135328 0.0658017 0.03657034 -0.05958307 0.08405978 -0.20499732
-0.12063945 0.08567604 -0.04147496 -0.15088767 0.050868046 0.102708474 -0.15694477 -0.0014485655
-0.062429253 0.0014897092 0.09823386 0.10293862 -0.04628137 0.00400769 -0.06561259 0.08944337
0.0725065 0.08296836 -0.1025514 0.027187621 0.07132237 0.038946398 -0.07046458 0.011317727
-0.097278036 -0.07052495 0.06287192 -0.11247923 -0.19295962 -0.12425522 -0.1391024 -0.16506559
-0.04222596 -0.10831748 -0.19840632 0.037418406 -0.094623625 0.10800607 0.0023311279 -0.2040899
-0.11267741 0.06304401 -0.17074232 0.024765272 0.028422149 0.059659563 0.05994834 0.0258722
0.116300665 0.09475601 0.008704882 -0.07153906 -0.15015252 -0.09385221 -0.054204196 -0.19064415
0.039992824 -0.06875307 0.045790527 -0.13564628 0.13854735 -0.027874833 0.018584039 -0.1946967
00000000: fe70 ec3d 474f d43d ca63 07be 72ad fb3d
00000010: b93f 5d3e c4d0 f83d 5706 e9bd 88e0 a0bc
00000020: f4f4 0abe 5547 e7bd ce79 0fbe a73b c8bd
00000030: 296b dd3d e784 8abd 0b10 d33d 613e ea3d
00000040: a654 e63c 15e0 2a3d de41 1e3b 7f31 f63d
00000050: 6361 cabd 54d4 013e 4f08 333e 4763 2b3d
00000060: e96a 5d3d 4caa 66bd ded6 0b3e c653 45bd
00000070: 4dd7 723e 57ed 05be 8daa 2e3e 2979 16be
00000080: e6db 05be 08d7 593d e382 9f3d f9b2 63be
00000090: a9d9 b6bd 451c 2b3e d1b5 75bb b791 f9bb
000000a0: 341a 0b3d 4897 6ebd 8007 553d d397 e33d
000000b0: fff0 82bd 4322 f0bd 0ac6 07bd 66c5 06be
000000c0: 4ce3 34be dd72 19be ed52 4fbd 5b36 d6bd
000000d0: 8b98 61bc 0504 dcbd ea3d 13be 033a e93d
000000e0: d9e2 68be 19ea 99bd 8a90 94bc 0bc3 863d
000000f0: c8ca 153d 610d 74bd 8927 ac3d d1ea 51be
00000100: d111 f7bd eb76 af3d a6e1 29bd 4c82 1abe
00000110: 035b 503d d258 d23d 21b6 20be cbdd bdba
00000120: d1b5 7fbd 5942 c33a d62e c93d 7cd1 d23d
00000130: 8991 3dbd f152 833b e55f 86bd 162e b73d
00000140: 4a7e 943d 51eb a93d 7806 d2bd 93b8 de3c
00000150: 7611 923d 4286 1f3d bc4f 90bd fd6d 393c
00000160: b539 c7bd 636f 90bd fec2 803d 835b e6bd
00000170: 3597 45be 8579 febd dc70 0ebe f406 29be
00000180: 21f5 2cbd 8ed5 ddbd 072b 4bbe 0b44 193d
00000190: 08ca c1bd 4932 dd3d d6c5 183b f1fc 50be
000001a0: 6ac3 e6bd 381d 813d 13d7 2ebe 8ae0 ca3c
000001b0: 91d5 e83c 965d 743d 648c 753d f0f1 d33c
000001c0: 0b2f ee3d 700f c23d ec9e 0e3c 1283 92bd
000001d0: 95c1 19be 9635 c0bd 3805 5ebd 3838 43be
000001e0: 84cf 233d 69ce 8cbd d98e 3b3d dce6 0abe
000001f0: 5bdf 0d3e c359 e4bc 8e3d 983c 925e 47be

lstm.bias_hh_l0 f4 [128]
0.099465385 -0.124615364 -0.11181736 -0.028282305 0.0141031295 0.077533275 -0.089406066 0.15455091
0.12655422 -0.03354785 0.15049872 -0.07510281 -0.05974217 -0.10075011 -0.053111088 0.054162808
-0.026663218 -0.081112035 0.0121113295 0.16622359 0.015793838 0.08696063 0.09459536 0.08503522
0.007703148 0.10372074 -0.14198557 0.1314317 -0.048792858 0.10642033 0.120822735 0.08293968
0.20018996 0.099704824 0.12835367 -0.19443612 -0.1976536 -0.048186503 -0.23304014 0.0062208637
-0.018245656 0.18280636 -0.058985814 0.06577448 0.09341311 -0.13775514 -0.069957405 0.027536042
0.081783675 -0.0020810894 0.05037383 -0.14283913 -0.122854635 0.0155241005 -0.013925799 0.12218106
0.06345516 0.11288799 -0.17881179 0.07015441 0.020263521 0.07861811 0.05099035 -0.19440603
-0.12551074 0.097111374 -0.09518673 -0.0045140316 -0.18567517 0.123905145 -0.12477409 -0.0004107315
0.11784284 -0.109877385 -0.11856198 -0.09599621 -0.034938082 0.017133566 -0.027412977 0.13524096
-0.05912284 0.0056785084 -0.04899132 -0.041703537 -0.14706694 0.10744236 -0.16192168 -0.13745151
0.13064249 -0.1002627 -0.070001185 -0.14994639 0.10295433 0.10210743 0.110566884 -0.10505914
0.042908683 0.070923604 -0.04021453 0.16218902 -0.09460793 0.004907078 -0.10612214 0.03337268
-0.08019714 -0.092066884 0.10096758 -0.05257045 -0.015713224 -0.0631331 -0.19447307 0.22242512
0.011436584 0.101119585 -0.12509067 0.1983917 -0.07681245 0.15787242 0.1832104 -0.018871574
-0.042303868 0.06782097 0.08906013 0.09812639 -0.109304816 0.05384764 0.046520147 0.06427274
00000000: 82b4 cb3d 5736 ffbd 8000 e5bd 4bb0 e7bc
00000010: d010 673c c4c9 9e3d 871a b7bd 9842 1e3e
00000020: 6e97 013e 7869 09bd 561c 1a3e 81cf 99bd
00000030: 35b4 74bd 1356 cebd 038b 59bd d2d9 5d3d
00000040: d26c dabc 111e a6bd 996e 463c 8436 2a3e
00000050: 1462 813c 6a18 b23d 36bb c13d f226 ae3d
00000060: b06a fc3b 8a6b d43d aa64 11be 0896 063e
00000070: 05db 47bd e7f2 d93d e971 f73d 47dc a93d
00000080: 99fe 4c3e 0b32 cc3d 256f 033e 431a 47be
00000090: b565 4abe 365f 45bd 13a2 6ebe 63d8 cb3b
000000a0: ea77 95bc 9731 3b3e 1c9b 71bd c5b4 863d
000000b0: 5f4f bf3d af0f 0dbe d445 8fbd 4493 e13c
000000c0: 337e a73d e362 08bb ca54 4e3d 6c44 12be
000000d0: 369b fbbd cc58 7e3c 0929 64bc 103a fa3d
000000e0: c7f4 813d d231 e73d 701a 37be 1ead 8f3d
000000f0: afff a53c 8802 a13d 42db 503d 6012 47be
00000100: e385 00be 54e2 c63d 43f1 c2bd 71ea 93bb
00000110: a221 3ebe fbc1 fd3d 8f89 ffbd 7357 d7b9
00000120: 9657 f13d 6507 e1bd a0d0 f2bd a999 c4bd
00000130: 3c1b 0fbd b15b 8c3c 2e91 e0bc 9b7c 0a3e
00000140: cb2a 72bd c812 ba3b 1fab 48bd 54d1 2abd
00000150: b798 16be bd0a dc3d ccce 25be 17c0 0cbe
00000160: 25c7 053e 8856 cdbd c85c 8fbd 8c8b 19be
00000170: b8d9 d23d b31d d13d e470 e23d 3f29 d7bd
00000180: 04c1 2f3d 6540 913d feb7 24bd e114 263e
00000190: cdc1 c1bd 8ecb a03b 9156 d9bd cbb1 083d
000001a0: 663e a4bd 908d bcbd 17c8 ce3d 1d54 57bd
000001b0: 05b9 80bc ed4b 81bd f323 47be 69c3 633e
000001c0: 8360 3b3c c917 cf3d c517 00be 3227 4b3e
000001d0: d94f 9dbd 4fa9 213e 829b 3b3e 8f98 9abc
000001e0: d246 2dbd b9e5 8a3d 2865 b63d 7df6 c83d
000001f0: 34db dfbd 588f 5c3d e98b 3e3d 6da1 833d
